cnn/mnist/output/epoch_6.pt (torch, 202775 bytes, 6 tensors)

conv1.conv1.weight f4 [32, 1, 3, 3]
00000000: 9650 39be 1c90 48bc 6d13 853c 2089 46be
00000010: 5df1 90be 7a0c 633e 3ffd c3bc 8ff4 a9be
00000020: 0df4 20be d038 993b d323 d33d 1737 9f3d
00000030: b0e7 acbd 9726 42be 9ca0 59be 0164 b83b
00000040: d62a 833d 46ff 5dbd 8c6e 56be 91d4 df3a
00000050: f7dd 633c a1f8 a8bd 9c00 363d bcc3 86be
00000060: efa9 e83c 9025 9dbe 313d 6e3d 2670 46be
00000070: 5a5b e7bd dcb9 7abe 81b2 773e 7bd2 6ebe
00000080: ab09 acbe 7510 a2be f20c 3b3d d120 71bd
00000090: 54fc e03c 4e00 f03d 3028 bcbe 72c8 303c
000000a0: 50fe 87be 2b4a bbbe 6a99 95bd 127c c43c
000000b0: 41ab 903d b8ea 93be 1bae 31be 49ec 10be
000000c0: f9b5 52bd 3b73 d83d d6b2 88bb cf6e 37be
000000d0: 4c8d 123e 1730 e1bd 30af ac3c cb95 d2bd
000000e0: d02b c03c 17ea bcbe cb8e 21be 3a34 a8be
000000f0: 93fc 54bd 4d35 d93d a01d c63c cf83 e23d
00000100: 87d3 c7bd 55ce 0c3d 3a44 72be 58e5 3a3d
00000110: 4163 d73d af43 f53d e308 153e 6edd dcbe
00000120: 5420 66bd 78ca 713d 23ca 7cbe 40be b33c
00000130: e171 bd3d b28b 7f3c c541 713c fbea a2ba
00000140: ea13 b23c 9c4e b4bd 37d0 96be 6921 0dbe
00000150: 83fd 753e c442 9bbe 00f2 05bf 8ff4 1dbe
00000160: 9a6b dbbd 6c02 c3bd b91d a13d 8c2d 053e
00000170: c977 6bbe 9763 b6bd f813 c5bd 0df5 50ba
00000180: 24e7 5c3d 80b4 8ebd af25 a33d 6c73 5fba
00000190: 69fe 75bd 4cba bcbd 964c 22be 235d 08bc
000001a0: 77de cf39 fc1a 503d e7df 073d 06b3 e1bb
000001b0: 6371 cbbe fc17 7bbd b30b 81bc b910 56be
000001c0: b24c fb3c 164d c93c 15b1 03be 4190 073e
000001d0: da77 66be ef6c a2be 9631 12be 0515 34bc
000001e0: c999 8d3d 2ecd 8bbd a633 54be 8c10 093e
000001f0: dc03 b43c 7d7f 0a3d fc68 323d 6a44 eebd
00000200: 4c38 d73c 0a93 073e 5af0 8fbe f691 29bd
00000210: 3395 6d3c 2bd6 6b3d 49d8 15bd bebb eebc
00000220: c8dc 0b3e 6fba 9cbe b9bd 29be aebc b23d
00000230: a8bc 183e 414a 9bbd da75 2bbd c59c 73bd
00000240: 94dc afbe 8bc9 0e3e ff9e 48be 4639 95bd
00000250: 617c 1d3e bc97 aebd fc6d 30be 4613 2dbd
00000260: 66ae 82bd 73b1 483d 5d96 1bbd 6ce8 33be
00000270: 0fba db3d 3228 c8bd b390 a23c b273 7b3d
00000280: 330e 41bd 9cd5 58bd a6c4 82be 9539 22be
00000290: 2065 a33c 8b92 45be 3786 51bd d8c0 06bd
000002a0: 97eb d6be 70d1 a2bc 6a0d ee3d 5d46 ee3d
000002b0: c9c1 18be da66 8cbe 88ee 54be 8080 34be
000002c0: 5f95 b43d cc13 46be a2cf 0b3e 4644 a63c
000002d0: 778f dfbe 75a7 66be c14c 8bbe 9792 c93a
000002e0: 1993 99bc 3a0f 7b3d 0a63 92bb da37 acbe
000002f0: 0bb5 59bc 3f00 eabb dc7b 1c3c 753a d53d
00000300: 22c1 7f3d bb5d 0b3e 49e9 bebd d72a 73be
00000310: 949e 84bd 79e3 2abe 91c9 17bd 5a03 9abe
00000320: 9d9b 2abe f5ee 98bd db7f 513e 312f 293e
00000330: 1a19 1c3d 0daf 93be 025a b9bb e7c3 b43d
00000340: 5058 53be edd1 05be 4eab 03bc e1e4 86be
00000350: 75cf 6d3e f56c ba3d a8f8 dfbe b71d c0be
00000360: 4a9e e3bd ad23 6bbb da3f 123d 7f66 033e
00000370: 800a f93d 9613 21be 8c74 53bd a01d 12be
00000380: 3e0d a2bd 296d b33c 646d c03d 7bf8 793d
00000390: 53c9 43be e607 c43d 52e6 4c3c bb10 45be
000003a0: 3f42 15bd 607a c0bd b7c1 adbd 44f7 9abe
000003b0: c0a5 ccbd a385 e13b bfc0 dcbd 904a 1bbe
000003c0: 1801 a73a fb2c 16ba bf7e 80be 37dd 9dbe
000003d0: 23f8 fcbd c568 02b9 afe3 7dbd 7685 863d
000003e0: 2784 90be 99c8 bd3c 57f5 03bd dadd 14bc
000003f0: a11b 4e3d 5a40 cdbc 14fe a0bb 13fb dcbd
-0.18097147 -0.01224139 0.016244614 -0.19388247 -0.28309146 0.22172728 -0.023924468 -0.33194396
-0.15718098 0.004675962 0.10309567 0.077741794 -0.084426284 -0.18960033 -0.21252674 0.005627156
0.06404655 -0.054198526 -0.20940608 0.00170769 0.013907901 -0.08250547 0.044434175 -0.26321208
0.028401343 -0.3069272 0.058163825 -0.19378719 -0.11296721 -0.24484962 0.24189188 -0.2332248
-0.33601126 -0.3165318 0.045666642 -0.058869187 0.02746407 0.11718808 -0.3674941 0.010789977
-0.26561213 -0.36580023 -0.07304652 0.023984943 0.07063914 -0.28890014 -0.17351572 -0.14152636
-0.051443074 0.105688535 -0.0041717095 -0.17913364 0.14311713 -0.109955005 0.02107963 -0.10282477
0.023458391 -0.36897346 -0.15777127 -0.32852346 -0.051998686 0.106058694 0.024184048 0.11060297
-0.097571425 0.03437646 -0.23658839 0.045628875 0.10516978 0.119758 0.14554171 -0.43137687
-0.056183174 0.05903098 -0.24686484 0.021941304 0.09250236 0.015597271 0.014725153 -0.0012429649
0.021738011 -0.08804056 -0.2945573 -0.13782276 0.24022488 -0.30324376 -0.5232239 -0.15425323
-0.10713883 -0.09521946 0.07866997 0.13005656 -0.22994913 -0.08905714 -0.09622949 -0.0007971086
0.05393137 -0.069680214 0.07966172 -0.0008523974 -0.060057078 -0.09215221 -0.15849528 -0.008322987
0.00039647866 0.050806984 0.033172514 -0.0068877963 -0.39734945 -0.06130217 -0.015752649 -0.20904817
0.03067622 0.02457289 -0.1286052 0.13238622 -0.22506657 -0.31723735 -0.14276728 -0.01099134
0.06914098 -0.06826244 -0.20722827 0.13385218 0.021974497 0.03381299 0.043557152 -0.11634143
0.026271962 0.13239685 -0.2811306 -0.041398965 0.014500904 0.057577293 -0.03658322 -0.029142257
0.1365844 -0.30610988 -0.1657628 0.08727394 0.14915717 -0.07582522 -0.04186044 -0.05947568
-0.34347975 0.1394407 -0.19591902 -0.07286315 0.15379478 -0.08525035 -0.17229456 -0.04225471
-0.0638092 0.048997354 -0.037985194 -0.1756913 0.10728847 -0.09773292 0.019844389 0.061389633
-0.047132682 -0.05293809 -0.25540656 -0.15842278 0.019945681 -0.19294183 -0.051153388 -0.032898754
-0.41976616 -0.019875258 0.11623652 0.116345145 -0.14917673 -0.2742222 -0.20794117 -0.17627144
0.08817553 -0.1934349 0.13653424 0.020296227 -0.43664142 -0.22524817 -0.27206996 0.001537877
-0.0187469 0.061293818 -0.004467373 -0.3363636 -0.013287793 -0.0071411426 0.009551015 0.104115404
0.062440045 0.13609974 -0.09321839 -0.23746811 -0.06475559 -0.16688336 -0.037057463 -0.30080682
-0.16660924 -0.074674524 0.20458929 0.16521908 0.038109876 -0.2884449 -0.0056564817 0.08826428
-0.20639157 -0.13068362 -0.008036448 -0.26346496 0.2322367 0.09102813 -0.43744397 -0.3752267
-0.111141756 -0.0035879419 0.035705425 0.12832068 0.12160206 -0.15730128 -0.05162482 -0.14269114
-0.07912682 0.021902638 0.093958646 0.061027985 -0.19119768 0.09571819 0.0125060845 -0.19244663
-0.03644013 -0.09398341 -0.08484214 -0.30266774 -0.09992552 0.006882386 -0.10778951 -0.15165162
0.0012741415 -0.00057287485 -0.250967 -0.30832836 -0.12352016 -0.00012436796 -0.061984714 0.065684244
-0.28225824 0.023166941 -0.032216396 -0.009086097 0.050319318 -0.0250551 -0.004913101 -0.10790076

conv1.conv1.bias f4 [32]
00000000: 07d0 f8bd 3436 febe c1f0 a63c eb28 ebbc
00000010: e426 e13e 898f d73e f2e5 40bf 36f7 dfbd
00000020: 3d12 bc3e f709 9ebd 656b 62bf c4ba f1be
00000030: 06ba b33d f513 763e 1da2 bb3e 9fe2 1cbf
00000040: 8597 c9be 0847 d23e 7922 873e 3bdc 103e
00000050: fe67 9dbe 1183 ecbe 670a b63e 2092 963e
00000060: b0e0 d2be 780d c8be 2b3c 303e 9090 393e
00000070: 6216 3dbf d7c4 9abe 0284 a33e 272d 58bd
-0.12149053 -0.4965073 0.020378472 -0.028706035 0.43974984 0.42101696 -0.7535087 -0.109358236
0.36732665 -0.077167444 -0.8844512 -0.47212803 0.087757155 0.2403105 0.3664712 -0.61283296
-0.39373413 0.41069818 0.26393488 0.14146511 -0.30743402 -0.46193746 0.3555481 0.2940836
-0.41187048 -0.39072776 0.17210452 0.18121552 -0.7386228 -0.30228302 0.3193665 -0.052777436

conv2.0.weight f4 [64, 32, 3, 3]
00000000: 98d6 1e3c a462 02be a10e 1ebd b3fd 17be
00000010: f419 d9bc 15d8 50bd cae2 a3bc 1710 01bd
00000020: c162 1fbd 312d bf3a 5eb0 3cbd 80c0 12bd
00000030: 546d c0bd 301c 5ebd c898 a5bd 1309 eebc
00000040: 10cb c8bd b786 06bd 1e72 22bd 1c62 eebd
00000050: 429a e53b a9f7 dfbd 29d4 0839 ae9a 8abd
00000060: 7f8c 353d 386c 56bd 8347 54bc 0459 2d3d
00000070: 6895 f0bc cafb 3c3c 7e61 b33c fe98 81bd
00000080: 0444 ee3c dfb4 2dbd df34 2f3c 281b 293c
00000090: a09d 29bd 5ef8 91bd fb9c 033d ad48 12be
000000a0: 4830 a6bc 4e82 f9bc aad1 8e3b 5cc3 81bd
000000b0: 0036 f8bc 745c 57bc 3ae7 12bd 4e73 89bd
000000c0: baf7 b4bd 554b 1fbd 31de d3bc 166f 0bbd
000000d0: c500 bbbd 80a9 febb 2489 ae3c 0c85 09be
000000e0: d69c 34bd d0d3 4dbc 587f 37bc 0d9e dabc
000000f0: 494b 0dbd d9a3 793c 2fe7 18bd bc50 a0bd
00000100: cb36 70bd 7c1d 13be 61d4 97bd 9209 efbd
00000110: 8713 8cbd 5533 cdbc db5b b8bd 973c 37be
00000120: bd85 61bd 4403 103d 33bb 563d 11fd 0e3b
00000130: d79a 87bd dc3b 263c aa09 8abd 93d2 f9bc
00000140: cf87 51bd 269f a6bd 91ab a3bb b350 45bc
00000150: 159a 17bc b3ed e3bc f20f bbbb cc63 4f3d
00000160: 6c74 88bd bc2b e1bc 92f3 943c cc1f 72bd
00000170: 8be2 af3c b540 a7bd 94ce 2abc 7813 5fbd
00000180: 35de 8abc d85f a1bd 889f 7abd 8195 d4bd
00000190: 9cd1 93bd 1ea7 c5bd 1170 17bc c95f bd3c
000001a0: 1b0c 11bd ff61 67bd 6ebc c3bc 20d6 74ba
000001b0: 2e65 a6bc e7d4 59bc 0844 bf3c ea15 bbbd
000001c0: 0075 a93c b9c1 d8bc cc3d 9ebd 007b f73c
000001d0: 3b66 19bc e8e2 92bc c5f9 93bd bc3a 79bd
000001e0: 0528 8cbd 97e0 be3c a027 80bd 8ae0 a3bd
000001f0: 0c0e 9ebc b2f6 1fbd f0e7 88bd d91b 11bd
00000200: 53e4 c63d ea3d dbbc 1612 64bd 8a8f 023c
00000210: b085 a6bd a59c 89bd 499a b0bd 8a9e 64bd
00000220: ad05 803b af11 65bd 8fc5 25bd 1a6d 09bd
00000230: 3e5f 91bd 1daf 0cbd f2c7 23bc ebc3 8e3a
00000240: 14fb 94bd a837 94bc 1ce6 9b3c 7053 563d
00000250: 19a0 95bc beb2 6f3b ff0f ce3d e8d5 edbd
00000260: 8d1a 4cbb b9bd 5abd 0cf9 97bd 659e 023d
00000270: e89f 7fbd 725d 80bd 9829 38bc ee14 f23c
00000280: e30d 53bd d549 29bc c70d 013e bac2 403d
00000290: b532 06bd 0f61 fa3c 3f1c 673c 94c4 2cbd
000002a0: a772 be3c 7a6b 463d 38b3 dcbd fa26 de3d
000002b0: db59 88bc 6378 e6bd f3e3 473d 6437 8c3c
000002c0: 1fca b5bd f288 dabc 59b6 5fbd 0178 51bc
000002d0: 969a c9bc eade 2a3d 235e a4bd 6ab0 973d
000002e0: d714 b4bd a19e e4bc 0e3d 35bd 0ecb 00bd
000002f0: cce4 e33b 1ea3 623c 87bb 91bd 793c 92bc
00000300: 1958 83bd c3cf dabc 4738 68bd 9e60 a6bc
00000310: 7078 65bd 4523 90bd 9f95 453c d630 2abd
00000320: 48e9 d93b c822 8bbd 8c2e 163c 1712 54bc
00000330: eea0 233a 3278 31bd 3c7d 96bd ffef 7cbd
00000340: bc8f 49bd fabf 64bc 86d8 c1bb 47bf 483d
00000350: df78 2b3a 3681 48bb 8bd7 483a d282 8ebd
00000360: 72de 7bbd 4b38 1f3a 1db7 bcbb ea94 9fbd
00000370: f6cb c3bc 04c0 c5bc 2e0c e2bb a28c 43bd
00000380: a8fb eebd cd07 87bd 97ab e43d c87a 4d3c
00000390: 70dc e6bd 2f84 8fbd 68f2 993c 7bc9 b3bd
000003a0: 5307 58bd 1c71 5b3d 801a c5bc 7593 05bd
000003b0: 56d4 e7bc 07e2 69bd eab0 90bd a22c 8fbd
000003c0: 4945 38bd 3717 263d dd17 e63c 999c c2bc
000003d0: 5143 d83c 0f47 a8bc ab94 06bd b354 adbd
000003e0: 6035 b6bc fc68 44bd b3f3 433c e14b cdbc
000003f0: fd63 cdbc 0777 993c 05f6 debc 36a8 61bc
0.009694718 -0.12732941 -0.03858817 -0.14842872 -0.026501633 -0.050987322 -0.020005602 -0.031509485
-0.03891254 0.0014585612 -0.046066634 -0.035828114 -0.09395853 -0.0542261 -0.08085781 -0.029057061
-0.09804356 -0.032843318 -0.039659612 -0.11639807 0.0070069144 -0.10935909 0.00013049007 -0.06767784
0.04432344 -0.0523493 -0.012956503 0.04232122 -0.029368117 0.011534641 0.021897074 -0.06328009
0.029085167 -0.04240882 0.010693758 0.010321416 -0.04141009 -0.071274504 0.03213213 -0.14285536
-0.020286694 -0.030457642 0.00435849 -0.0633609 -0.030299187 -0.013144601 -0.035865046 -0.06711446
-0.088363126 -0.0388902 -0.025862785 -0.034041487 -0.09131006 -0.007771671 0.021305628 -0.1342966
-0.044094883 -0.012562707 -0.011199795 -0.026686693 -0.034495626 0.015236818 -0.03732985 -0.07827899
-0.058646005 -0.14366716 -0.07413555 -0.11671747 -0.06839662 -0.025048891 -0.09001895 -0.17894207
-0.055059183 0.035159364 0.05242462 0.002181832 -0.0662133 0.0101461075 -0.067401245 -0.030495917
-0.051154908 -0.08135824 -0.0049948175 -0.012043166 -0.009253045 -0.027823305 -0.005708688 0.050632283
-0.06662831 -0.027486674 0.01818255 -0.059112355 0.021470329 -0.08166639 -0.010425229 -0.054461926
-0.01695166 -0.07879609 -0.061187297 -0.10380078 -0.07217714 -0.09651016 -0.009243027 0.023116963
-0.035411935 -0.05648994 -0.023893561 -0.00093397684 -0.020311918 -0.013295389 0.02334787 -0.09135039
0.020685673 -0.026459562 -0.077266306 0.030210018 -0.009362753 -0.017930463 -0.07225374 -0.06084703
-0.068435706 0.023300452 -0.06257558 -0.08001812 -0.019293807 -0.039053626 -0.066848636 -0.03542695
0.09711518 -0.026762921 -0.05568131 0.007968793 -0.081309676 -0.06719331 -0.086231776 -0.055815257
0.0039069266 -0.055925068 -0.04047161 -0.033551313 -0.07098244 -0.03434669 -0.009996401 0.0010892128
-0.07274452 -0.018092945 0.019030623 0.052325666 -0.018264817 0.0036575045 0.10061645 -0.11613065
-0.0031143755 -0.05340359 -0.07420549 0.031889338 -0.062408358 -0.06267823 -0.0112403855 0.029550996
-0.051526915 -0.010332544 0.12602912 0.047060706 -0.0327632 0.03056386 0.0141058555 -0.04217966
0.02324803 0.04844234 -0.10776371 0.10847278 -0.016644409 -0.11253431 0.048801374 0.017116256
-0.08876442 -0.026676629 -0.05461726 -0.012784959 -0.024609845 0.041716494 -0.08025768 0.07406695
-0.087930374 -0.027907671 -0.04424768 -0.031443648 0.006954765 0.0138328355 -0.07115846 -0.017851101
-0.06413288 -0.026710397 -0.056694295 -0.020309743 -0.05602306 -0.07037977 0.012059598 -0.04155048
0.0066501237 -0.06793743 0.009166371 -0.012943766 0.0006241937 -0.043327518 -0.07348105 -0.061752316
-0.04920934 -0.013961786 -0.005915704 0.04901054 0.00065411435 -0.0030594594 0.0007661513 -0.06958546
-0.061491437 0.0006073757 -0.0057591335 -0.07792075 -0.023900967 -0.024139412 -0.0068984246 -0.04774154
-0.11669093 -0.06593285 0.11165541 0.01254148 -0.11272514 -0.07007634 0.018792346 -0.08778664
-0.05274136 0.053574666 -0.024060488 -0.03261133 -0.028299492 -0.057100322 -0.07064994 -0.06990935
-0.04498795 0.040549483 0.02808755 -0.023756312 0.026399286 -0.020541696 -0.032856625 -0.08463421
-0.022242248 -0.047951683 0.011959958 -0.025060596 -0.025072092 0.018733514 -0.02721692 -0.013773015

conv2.0.bias f4 [64]
00000000: 63d0 02be dafa 293d 2877 c6bd 5247 11bd
00000010: 90dd 36bd 1415 ffbd f780 f3bd 19a4 08be
00000020: b1b5 aabe 631f 8abd 3fc8 f2bd b360 dfbd
00000030: aa32 37bd abe7 3fbd ac65 0cbe 9a85 25bd
00000040: e8ee f9bc 9201 8bbd abc5 02be 1622 83be
00000050: 55a7 35be b958 efbd 1588 c8bd d67a 95bd
00000060: b66a 05be 45db b2bc 455c 7fbe c795 98bd
00000070: 57d5 c1bd a3ab 16be e3bb eabd 4b1a 28bd
00000080: f58f 79bd 4458 71be 3919 eebd 23ea 8fbc
00000090: a1d8 15bd df50 4ebd 4e1f bcbd ca4f 8bbd
000000a0: f3fb b6bd b3b2 263b d7bb cfbc ee32 3bbe
000000b0: 0d2f bebd 33a8 21bd a80f 38be 0644 a6bd
000000c0: 9cc4 ebbd 413c 79bd c5e9 22bd 0a86 96bd
000000d0: 6def 63bd aaf2 d83c c857 d2bd 68cb bebc
000000e0: 20d0 e8bc d0bc c8bd d71c 5a3b 47a4 3abe
000000f0: a31c 2dbd 3a86 ebbd 5989 1abe 43ac 3fbd
-0.12774806 0.041498996 -0.09690696 -0.035468407 -0.044644892 -0.12455192 -0.118898325 -0.13343848
-0.33341745 -0.06744268 -0.118546 -0.10907116 -0.04472605 -0.046851795 -0.1371066 -0.040410616
-0.030509427 -0.06787409 -0.12770717 -0.25611943 -0.17739613 -0.116868444 -0.097915806 -0.0729882
-0.13028988 -0.021833071 -0.24937542 -0.07450443 -0.094645195 -0.14713912 -0.11461618 -0.0410407
-0.060928304 -0.23568827 -0.116259046 -0.0175677 -0.036583547 -0.050370093 -0.091856584 -0.06802328
-0.08934774 0.0025436103 -0.025358124 -0.18281147 -0.09286318 -0.039467048 -0.17974722 -0.08118443
-0.1151211 -0.06084848 -0.03977372 -0.07349785 -0.055648256 0.026482899 -0.10270649 -0.023290351
-0.028419554 -0.09801638 0.003328135 -0.1822673 -0.04226364 -0.11500211 -0.15091456 -0.04679514

fnn.weight f4 [10, 3136]
00000000: f804 31bd b061 5e3c 6cf4 003d 3a78 96bc
00000010: 67c6 8d3d 9a77 d53c e97e 7e3b b119 ee3b
00000020: e82f 3bbc 73b4 353d 213d 32bd 8077 653d
00000030: 1574 34bd 4831 32bd dc7c 39bd bf6e 7abb
00000040: 6688 9cbc 5a41 1cbc ee93 bb3d 4bed ae3c
00000050: e4cc 033d 00da de3c c093 3fbd a5a1 81bd
00000060: a969 fd3c cc0e 973c 54d4 e1b8 5499 af3c
00000070: 451f 66bb 3672 dfbc 1060 c5bd 0890 c0bc
00000080: 036a 6d3c 6b98 cc3c 35fd f03b 0fc8 e2bb
00000090: f271 95bc 8e8d 1e3d 5ec4 adbc f035 873c
000000a0: 6c54 203d a5cd 353d a692 e43c 11d7 ea3c
000000b0: f4bf 02bd c3b9 4ebd 13fd 08bd 0f9d a1ba
000000c0: b424 d3bc e42b 38bc 79ef 113c 9de1 f83b
000000d0: c850 0d3c 7d5f 84bd 4249 11bc 503f e53c
000000e0: 8314 1cbd f592 ecbb 1407 5d3d 6232 ca3c
000000f0: bd32 783d e74a 723d 1d07 0e3b d918 a43a
00000100: adc8 9bbb 0164 283d 1b06 fdbd 3ce6 603d
00000110: 418a 91bc 2d37 2cbc cf6b 21ba 40fa 133d
00000120: d2a5 83bd b386 b2bd 0464 323d 1607 bc3c
00000130: 2427 08bd 091b 1c3d d28d bcbd 75d7 f7bc
00000140: 5109 78bd e741 68bd 6307 1e39 325e f1bc
00000150: 6fa5 033d b047 b8bd 915b 8cbb 6e42 f63c
00000160: e2e9 9e3c f121 d73c e3dd 15bd a832 e83c
00000170: f470 c7bc 4256 a23c d152 ffbb 6f55 b9bc
00000180: b354 cf3c c969 fb3b 8812 32bd d9ae 923c
00000190: 39f3 ab3c db90 5e3d c73c 893d 812b bebc
000001a0: 89eb 3fbd 7876 e2bc fb0d cdbc be3e 08ba
000001b0: 4172 943c 6cc8 c03d 9ec2 543d 35d6 213c
000001c0: a084 62bd 73ca 8e3c 3833 08bd 8405 463c
000001d0: aba3 a13c 98da 133d 96cb 63bd f299 423c
000001e0: f894 863c 8eab 7c3b 6ba9 d03d b8c0 33bd
000001f0: 9972 1cbe c775 97bd ae37 dfbc cce1 93bc
00000200: add5 b63d 5da3 893d 229e 41bd aa17 8d3c
00000210: 14aa 87bd 4b1e 163b 3d20 9b3b e5a1 ecbc
00000220: d238 e53c 6b99 17bd 7a47 a23d 283f 1a3c
00000230: 010f 52bc 0e6d 43bb e1cb 82bc bf65 ecbc
00000240: 8d8b 9c3d a735 9439 3a2b d9bd 402d 803c
00000250: c05e 16bc 4253 a03b 892f 97bc f84f 933d
00000260: 101e ecbc 4888 0dbd f3a5 eebd 20d5 523d
00000270: 0868 ea3d 9cea d6bc 74fc c33c c596 df3d
00000280: d4c2 403c 8c92 c93b 57f8 c8bc caed fe3c
00000290: 6b90 923d 5801 ee3d 0d6f 2b3e 8666 2cbd
000002a0: d474 953d 40d8 a13d e19b 9a3d 23db 1abb
000002b0: 2f28 33bd b7f4 e33c 36b3 7dbd d16e 463d
000002c0: 8be5 e53c 18ba 773c 013f babd 50a2 13be
000002d0: 9866 06bd fc56 0ebe 0295 513d c81a 2e3d
000002e0: ea15 0f3d fbdb 0dbc 4374 27be e0bc c4bd
000002f0: 4cc3 5ebd d2be 70bd 7eab 97bd c83c b63c
00000300: 7b69 313d ffd2 4fbd cfb3 df3c 3160 303d
00000310: 75f9 1ebc b118 873c 5f39 df3a 3324 033d
00000320: 0702 c83b 8a5b 1bbb 0286 2e3d 8829 f43d
00000330: b81a 1b3d 2c52 cebb cb40 2b3d f500 1ebc
00000340: 45b6 b3bb 1e3a 903d 77dd afbd 96a5 933d
00000350: d348 51bc 5a75 743d 9f26 e53c 20ce 013c
00000360: d62c ccbd 6bf4 c13c 0b3d 433d 1414 e4bc
00000370: 21f2 0b3e 0435 5cbd dab6 31bd 3443 b13c
00000380: 3f4b fabb 12a0 afbd f101 663d 2927 fa3b
00000390: 2623 b0bb bca8 8dbc f5d8 0cbc 58a1 05bd
000003a0: 5a99 a03c c5cb d4bb 08a6 fabc 6b94 e53d
000003b0: c70f bfbb 34f7 6f3d 531d f23c 1064 1d3c
000003c0: 6909 d83a 48ef 0abd 3d60 933d 3f22 573b
000003d0: b046 3d3d 5e56 b6bb f99d 28bd 974b f4bc
000003e0: b34b 09bd 85ec 163d 8c67 09bd 848f ee3c
000003f0: 7585 753d 00fc c43c 67c3 133d ba09 48bd
-0.04321763 0.013573095 0.0314831 -0.018367875 0.06922608 0.026058007 0.0038832969 0.0072662462
-0.011424996 0.044361543 -0.04351533 0.056022167 -0.044056017 -0.04350403 -0.04528509 -0.0038212982
-0.019108009 -0.009537065 0.09159075 0.021353384 0.03217782 0.02720356 -0.046771765 -0.063296594
0.030934172 0.018439673 -0.00010768385 0.021435417 -0.0035113853 -0.02727614 -0.09637463 -0.02350618
0.014490607 0.024975022 0.0073544034 -0.0069208215 -0.01824281 0.038709216 -0.0212118 0.016505212
0.03914301 0.04438557 0.027901959 0.028667005 -0.031921342 -0.050470125 -0.033444475 -0.0012330132
-0.025774337 -0.011240933 0.008907192 0.0075952546 0.008625217 -0.064635254 -0.008867564 0.027984291
-0.0381055 -0.007219667 0.05396183 0.024682228 0.060595263 0.059153464 0.002167172 0.0012519612
-0.004754147 0.041110996 -0.1235468 0.05490707 -0.01776612 -0.010511202 -0.00061577273 0.03612733
-0.06428112 -0.08717098 0.043552414 0.022952598 -0.033240452 0.03811172 -0.092067376 -0.030254105
-0.06055576 -0.056703474 0.00015070806 -0.029463861 0.03214019 -0.08998048 -0.0042833765 0.030060973
0.019398633 0.026261302 -0.03658856 0.028344467 -0.024345852 0.019816522 -0.007791855 -0.022623746
0.025308942 0.0076725227 -0.043474704 0.01790564 0.020990001 0.054337364 0.067010455 -0.023214104
-0.046855483 -0.02764438 -0.02503108 -0.00051973376 0.018120887 0.094132274 0.051943414 0.009877731
-0.055302262 0.01743052 -0.03325197 0.012086276 0.019731363 0.03609714 -0.055614077 0.011877524
0.016428456 0.0038554403 0.10188564 -0.043884963 -0.1527809 -0.07395511 -0.02724823 -0.018052004
0.08927474 0.06720612 -0.047269948 0.017223198 -0.06624237 0.002290624 0.0047340677 -0.028885791
0.027981196 -0.037011545 0.07923789 0.009414472 -0.01282096 -0.002981964 -0.015966358 -0.02885711
0.07643805 0.00028268734 -0.10603948 0.015646577 -0.009177864 0.0048927376 -0.018455284 0.07192987
-0.028822929 -0.034553796 -0.11652746 0.051472783 0.11445624 -0.026234917 0.02392409 0.10917429
0.011765201 0.006151503 -0.02453248 0.031119246 0.07156452 0.1162135 0.16741581 -0.04208996
0.07297674 0.079025745 0.07549263 -0.002362915 -0.043739494 0.02782665 -0.061938487 0.048445527
0.028063556 0.015120052 -0.09094048 -0.14417386 -0.032812685 -0.1390037 0.051167496 0.04250601
0.03493301 -0.008658404 -0.16352944 -0.096063375 -0.05438547 -0.05877573 -0.074057564 0.02224578
0.043313485 -0.05073833 0.02730742 0.043060485 -0.00970303 0.016491266 0.0017030648 0.032016944
0.0061037573 -0.0023705685 0.04260827 0.11921984 0.037867278 -0.0062964167 0.04180984 -0.009643783
-0.0054843747 0.07042335 -0.08587163 0.072093174 -0.01277371 0.059682228 0.027972518 0.007922679
-0.09969489 0.023676118 0.047665637 -0.027841605 0.13666584 -0.053761497 -0.04338727 0.02163849
-0.0076383646 -0.08575453 0.056154195 0.007634063 -0.005375284 -0.017292373 -0.008596648 -0.032624573
0.019604374 -0.006494018 -0.030596748 0.11209949 -0.005830738 0.05858536 0.029554999 0.009606376
0.0016482297 -0.033919603 0.0719609 0.0032826809 0.04620999 -0.005564495 -0.04116628 -0.0298212
-0.033519458 0.036846656 -0.033546016 0.029121168 0.059941728 0.024045944 0.036075022 -0.0488374

fnn.bias f4 [10]
00000000: 565b 163d 9cba e03d e757 783c 088f 013d
00000010: 220e adbd 14e4 a2bc 00b6 963b 4b17 843c
00000020: 0c97 19bc af05 db3b
0.0367082 0.10973093 0.015157676 0.031630546 -0.08449961 -0.019884147 0.004599333 0.016124388
-0.009374391 0.006684027
