cnn/mnist/output/epoch_3.pt (torch, 202775 bytes, 6 tensors)

conv1.conv1.weight f4 [32, 1, 3, 3]
-0.14507677 0.100691795 0.020496788 -0.22103767 -0.2143085 0.24127 -0.069366336 -0.2348059
-0.22823687 0.035976864 0.13651577 0.14032406 -0.09034006 -0.29805273 -0.3175244 0.029597333
0.08665635 -0.026218567 -0.23303376 0.011913394 0.108083785 -0.014771782 0.032507107 -0.26133212
0.08915829 -0.27815542 0.118642054 -0.17637114 -0.1559415 -0.3434548 0.29486632 -0.28948292
-0.27698946 -0.24500726 0.051907007 -0.09091428 0.07625881 0.17229156 -0.374062 0.032445587
-0.29035556 -0.3292565 -0.104389526 0.0064445273 0.09050631 -0.22894299 -0.17948662 -0.13777676
-0.04370017 0.042126082 0.0023407978 -0.14412469 0.17909071 -0.07619376 0.08638797 -0.048496004
0.099759884 -0.30196646 -0.1513921 -0.3613646 -0.05851248 0.14269032 0.053286638 0.15396732
-0.14825751 0.10026396 -0.28008705 -0.016837304 0.14028959 0.16396223 0.18844327 -0.44849455
-0.060706925 0.07286713 -0.25005096 0.052621774 0.14277136 0.053570624 0.021913504 0.0075970725
0.031767275 -0.09966774 -0.3292313 -0.07234837 0.27158096 -0.28106013 -0.5128261 -0.13829078
-0.12294817 -0.1583392 0.13608916 0.18005624 -0.31653622 -0.12570377 -0.0929922 0.014476923
0.080512956 -0.11720161 0.12027175 -0.12850897 -0.04783578 -0.040270586 -0.12063622 -0.035360612
-0.028085748 0.10491951 0.046188515 0.002637822 -0.3536465 -0.05910592 -0.025805365 -0.21076258
0.035151336 0.06293074 -0.122403376 0.10812287 -0.17741783 -0.2651302 -0.19625778 -0.11968399
0.09772636 -0.13015442 -0.23007905 0.18891744 0.021991476 0.06514848 0.040595535 -0.14485574
0.04857736 0.14773956 -0.33205628 -0.12241113 0.026062548 0.059750758 -0.047617607 0.013044724
0.1405594 -0.3427276 -0.1570201 0.083580025 0.14174938 -0.005787003 -0.049904957 -0.046700638
-0.302085 0.16660117 -0.16188425 -0.040540807 0.21175274 -0.007701459 -0.17803521 -0.051738694
-0.010265572 0.100018844 -0.06114353 -0.2146816 0.16595717 -0.10635884 0.023904368 0.12189179
-0.048931196 -0.06417868 -0.27301046 -0.12514082 -0.0035817372 -0.17257068 -0.13793357 -0.09032877
-0.28542918 -0.009372857 0.18086208 0.14300308 -0.20315224 -0.3273879 -0.21670187 -0.19550674
0.10726994 -0.21610883 0.16449445 0.046355996 -0.38852483 -0.17988683 -0.2935819 0.034147553
-0.017053684 0.04363083 0.043217935 -0.31104708 -0.0004364894 -0.03160964 -0.035520498 0.11191161
0.088156804 0.14225747 -0.11215419 -0.24501047 -0.058355875 -0.17576908 0.07379122 -0.3023374
-0.1712662 -0.05894264 0.18231674 0.19710575 0.07703478 -0.31533405 0.021061948 0.12846868
-0.14599334 -0.14331125 -0.05912674 -0.21978763 0.20105207 0.16977496 -0.35141605 -0.35503623
-0.13114223 -0.015349594 0.050789047 0.12917447 0.12046759 -0.17976636 -0.049611147 -0.1512552
-0.09001175 0.02181697 0.13639848 0.10122125 -0.25093588 0.10593018 0.0134797655 -0.19895868
-0.048701108 -0.18489131 -0.035245705 -0.28671232 -0.12780401 0.00989936 -0.09973985 -0.14993536
0.06146618 0.051087406 -0.20508413 -0.29656994 -0.06406521 0.0960692 -0.054581877 0.0056636683
-0.28267694 0.07634425 0.0138683785 -0.015473108 0.12521447 -0.03527753 -0.04567499 -0.06598678
00000000: 018f 14be 8037 ce3d e1e8 a73c b357 62be
00000010: b073 5bbe 7c0f 773e f00f 8ebd f570 70be
00000020: edb6 69be 7a5c 133d caca 0b3e 1cb1 0f3e
00000030: 3604 b9bd 5e9a 98be 8f92 a2be 1b76 f23c
00000040: e278 b13d 52c8 d6bc 67a0 6ebe 6530 433c
00000050: 085b dd3d 5805 72bc 2c26 053d 53cd 85be
00000060: 9f98 b63d 636a 8ebe 9bfa f23d a39a 34be
00000070: 21af 1fbe 4fd9 afbe b8f8 963e 1b37 94be
00000080: 90d1 8dbe 2fe3 7abe 719c 543d 4431 babd
00000090: 942d 9c3d 336d 303e 0e85 bfbe aae5 043d
000000a0: 7ca9 94be 4f94 a8be 2dca d5bd 9d2c d33b
000000b0: 5f5b b93d 0870 6abe 57cb 37be 5a15 0dbe
000000c0: f3fe 32bd 668c 2c3d 1268 193b 6c95 13be
000000d0: 8e63 373e 790b 9cbd 2dec b03d bfa3 46bd
000000e0: e94e cc3d 599b 9abe 8806 1bbe c804 b9be
000000f0: c8aa 6fbd 691d 123e 1743 5a3d 9ca9 1d3e
00000100: d1d0 17be 3157 cd3d 9267 8fbe 63ee 89bc
00000110: 13a8 0f3e b7e5 273e 46f7 403e 14a1 e5be
00000120: d3a7 78bd 5d3b 953d ae06 80be ee89 573d
00000130: a832 123e df6c 5b3d f383 b33c ddf0 f83b
00000140: 671e 023d 9a1e ccbd 0191 a8be 622b 94bd
00000150: a90c 8b3e 1de7 8fbe 9248 03bf 199c 0dbe
00000160: 40cc fbbd ac23 22be f55a 0b3e aa60 383e
00000170: 0911 a2be 7db8 00be b272 bebd 9e30 6d3c
00000180: fae3 a43d 6607 f0bd 0951 f63d db97 03be
00000190: 73ef 43bd c5f2 24bd 1f10 f7bd 4ad6 10bd
000001a0: 1514 e6bc 0ae0 d63d 2b30 3d3d 4fdf 2c3b
000001b0: 2711 b5be 0d19 72bd c665 d3bc 25d2 57be
000001c0: d9fa 0f3d d5e1 803d 9fae fabd 866f dd3d
000001d0: 05ad 35be 25bf 87be cdf7 48be e11c f5bd
000001e0: c224 c83d 3347 05be d899 6bbe 9373 413e
000001f0: 7827 b43c 916c 853d 8147 263d 1055 14be
00000200: 0ef9 463d 0a49 173e 4803 aabe b0b2 fabd
00000210: 2081 d53c 36bd 743d ae0a 43bd 8ab9 553c
00000220: ceee 0f3e fe79 afbe e1c9 20be 012c ab3d
00000230: c026 113e e6a0 bdbb 2469 4cbd 2b49 3fbd
00000240: e3aa 9abe 7f99 2a3e fcc4 25be 1e0e 26bd
00000250: b6d5 583e 855c fcbb dd4e 36be f4eb 53bd
00000260: ee30 28bc aed6 cc3d a371 7abd 7ed5 5bbe
00000270: adf0 293e aad2 d9bd 18d3 c33c 67a2 f93d
00000280: 146c 48bd 1d70 83bd 07c8 8bbe ea24 00be
00000290: 94bb 6abb 5eb6 30be 753e 0dbe 4afe b8bd
000002a0: c623 92be 9d90 19bc e933 393e 666f 123e
000002b0: 2407 50be 639f a7be 18e7 5dbe eb32 48be
000002c0: 58b0 db3d a24b 5dbe 3c71 283e c9df 3d3d
000002d0: baec c6be 4134 38be 5e50 96be 4ede 0b3d
000002e0: 2bb4 8bbc 3eb6 323d 4a05 313d 9041 9fbe
000002f0: 9ed8 e4b9 1c79 01bd f17d 11bd ea31 e53d
00000300: 8e8b b43d f1ab 113e 19b1 e5bd 06e4 7abe
00000310: 9206 6fbd cffc 33be da1f 973d f8cb 9abe
00000320: 6860 2fbe d66d 71bd 3db1 3a3e 17d6 493e
00000330: 69c4 9d3d 7773 a1be 1b8a ac3c 4b8d 033e
00000340: 477f 15be 2fc0 12be e12e 72bd 0210 61be
00000350: 98e0 4d3e 7dd9 2d3e ceec b3be 4fc7 b5be
00000360: 264a 06be dd7c 7bbc 2d08 503d 5046 043e
00000370: b6b7 f63d ac14 38be 0f35 4bbd a5e2 1abe
00000380: 1558 b8bd 81b9 b23c 0bac 0b3e 164d cf3d
00000390: ab7a 80be ecf1 d83d 3cda 5c3c d3bb 4bbe
000003a0: d07a 47bd 2654 3dbe cd5d 10bd f5cb 92be
000003b0: 0edf 02be ed30 223c 6844 ccbd a888 19be
000003c0: f6c3 7b3d 0741 513d 9301 52be 04d8 97be
000003d0: 9f34 83bd eebf c43d 3f91 5fbd 4b96 b93b
000003e0: 08bb 90be 605a 9c3d 3238 633c eb82 7dbc
000003f0: 3938 003e 2c7f 10bd b315 3bbd 1424 87bd

conv1.conv1.bias f4 [32]
-0.17254865 -0.35876334 0.09036864 -0.030997116 0.41711345 0.3863651 -0.5638206 0.028323598
0.38610154 -0.115312785 -0.6237911 -0.39358813 0.17984611 0.18155505 0.38766325 -0.45889205
-0.33845505 0.39809453 0.30860728 0.074538946 -0.27926728 -0.42545882 0.4194088 0.29573542
-0.29627112 -0.27556795 0.1442712 0.2515415 -0.6175795 -0.36367744 0.29256877 -0.1018773
00000000: 98b0 30be d4af b7be 3213 b93d aaed fdbc
00000010: e58f d53e a5d1 c53e 8c56 10bf e406 e83c
00000020: 1aaf c53e 1c29 ecbd c6b0 1fbf 6284 c9be
00000030: 9429 383e 91e9 393e cc7b c63e e6f3 eabe
00000040: fb49 adbe 0cd3 cb3e c601 9e3e e0a7 983d
00000050: 1ffc 8ebe bdd5 d9be c0bc d63e a26a 973e
00000060: d9b0 97be 3e17 8dbe d4bb 133e 0cca 803e
00000070: b119 1ebf ee33 babe 93cb 953e 0ca5 d0bd

conv2.0.weight f4 [64, 32, 3, 3]
-0.03514969 -0.059231356 -0.015342865 -0.020673642 0.002927177 -0.035217933 0.018947247 -0.07460322
0.0041260337 0.011323848 -0.04629088 -0.0038261006 -0.051675923 -0.010850601 -0.06376527 0.020449739
-0.07616609 0.0031200896 -0.04221052 -0.058484204 0.015914705 -0.047450528 -0.018738098 -0.06299239
0.02603563 -0.051655583 -0.00909484 0.005094661 -0.032879993 0.01998912 0.022780089 -0.0583837
0.0292422 -0.04493789 0.02588319 0.010829266 -0.042774335 0.008332905 0.004103447 -0.061590854
0.010208773 -0.041894313 0.014053246 -0.029332561 -0.0036874036 -0.018490681 -0.0021302784 -0.07469733
0.009349311 -0.014010438 0.026050517 0.024714416 -0.052169804 -0.00016568683 0.019660877 -0.038170088
-0.0058200704 0.05583407 0.025018414 -0.015423984 -0.00602129 0.026265036 -0.01789711 -0.03406478
-0.025456017 -0.08156741 -0.05737381 -0.074223384 -0.046297874 0.00972564 -0.02556812 -0.10256028
-0.07658675 0.0023061046 0.023823492 -0.0029171198 -0.08097212 0.008332809 -0.053429473 -0.04048332
-0.049540978 -0.053001896 -0.0049949572 -0.041771114 -0.011297515 -0.027823033 -0.0055681686 0.050924763
-0.049788836 -0.027238576 0.018234203 -0.005477991 -0.02090931 -0.046469107 -0.0004919667 -0.09329302
0.01824385 -0.0012851659 -0.03966843 -0.086266235 0.006874943 -0.06706672 0.053322602 0.049613975
-0.02643805 -0.048670445 -0.0011829494 -0.0006348905 -0.007496738 -0.0066610873 0.025228722 -0.062599756
-0.00786753 -0.025333753 -0.05605921 0.046072017 -0.0078045316 -0.05440726 0.013736204 -0.06169447
-0.010699565 0.044427235 -0.017820008 -0.07738667 0.014747309 -0.036358126 -0.049477845 -0.020767342
0.023796735 0.0010776166 -0.052557774 -0.028842885 -0.082172655 -0.013580643 -0.08292572 -0.049891517
0.021740753 -0.035204742 0.009321757 -0.012261678 -0.068014696 0.030474713 0.03252718 0.021631949
-0.066904545 -0.060755715 0.01881794 0.041101266 -0.02591953 0.011083539 0.05540235 -0.08410684
-0.035315964 -0.0045760167 -0.046787985 0.0006298766 -0.0220442 -0.070960715 -0.051326606 0.03464472
0.008489936 -0.008048086 0.007827317 0.06683602 -0.00039619778 0.056667995 0.01932775 -0.015158042
0.010707907 -0.02678323 -0.07405228 0.019417938 -0.0025913764 -0.09037387 0.030243056 0.043214373
-0.071659625 0.022494433 -0.036386162 0.022596829 0.027429644 0.051123098 -0.069832146 0.073061466
-0.061378166 -0.027636748 -0.021469574 0.0026003725 0.0071731424 -0.06373926 -0.05198186 0.011547392
0.024220137 0.020714018 0.008609556 0.024160994 0.017839393 -0.060514003 -0.023374533 -0.06372578
-0.009519505 -0.032755733 0.008861995 0.008392652 0.037713114 -0.042805668 -0.069423415 -0.025560388
-0.026416352 0.0015319039 0.003696573 0.043322124 -0.008065784 0.007946751 0.01674005 -0.06555784
-0.07875702 -0.006262771 -0.044964224 -0.07158649 -0.010100679 -0.018520895 -0.0129200425 -0.01366167
-0.080732554 -0.04470788 0.037332743 0.027089885 -0.078496486 -0.069807604 0.020139784 -0.0638761
-0.002112416 0.024418738 -0.019242577 -0.027834104 -0.041944887 -0.050226826 -0.054606423 -0.06809768
-0.0423396 0.05638897 0.03040482 -0.028685007 0.04228324 -0.017112283 -0.007933687 -0.050837483
-0.008459473 -0.030361097 0.03069615 -0.020842489 0.008378391 0.040459648 -0.021592718 0.017665135
00000000: 1ff9 0fbd 949c 72bd a460 7bbc c55b a9bc
00000010: e1d5 3f3b ae40 10bd 4237 9b3c 93c9 98bd
00000020: ae33 873b a987 393c 819b 3dbd 51bf 7abb
00000030: 22aa 53bd b8c6 31bc 5e97 82bd 3686 a73c
00000040: f8fc 9bbd 6b7a 4c3b f0e4 2cbd 228d 6fbd
00000050: 8e5f 823c 7c5b 42bd a480 99bc 2702 81bd
00000060: ac48 d53c ce94 53bd 8602 15bc 1df1 a63b
00000070: 2cad 06bd 39c0 a33c 4f9d ba3c bf23 6fbd
00000080: 578d ef3c cb10 38bd fc08 d43c 3c6d 313c
00000090: 2434 2fbd bd86 083c 3576 863b b146 7cbd
000000a0: b342 273c 5f99 2bbd 963f 663c d74a f0bc
000000b0: 5ea8 71bb c579 97bc 249c 0bbb eafa 98bd
000000c0: da2d 193c 098c 65bc e567 d53c e375 ca3c
000000d0: 01b0 55bd 38bc 2db9 d90f a13c 3d58 1cbd
000000e0: 4ab6 bebb 44b2 643d 6bf3 cc3c e1b4 7cbc
000000f0: 3e4e c5bb c629 d73c f69c 92bc 8387 0bbd
00000100: 2389 d0bc d00c a7bd cd00 6bbd 6e02 98bd
00000110: d7a2 3dbd 4a58 1f3c 3c74 d1bc 200b d2bd
00000120: 84d9 9cbd 0422 173b 7c29 c33c 262d 3fbb
00000130: b6d4 a5bd 5686 083c ddd8 5abd d6d1 25bd
00000140: 7beb 4abd 8418 59bd bdac a3bb 3018 2bbd
00000150: 3619 39bc 21ed e3bc 2f75 b6bb 7c96 503d
00000160: 61ef 4bbd 6f23 dfbc e55f 953c b880 b3bb
00000170: 004a abbc 6456 3ebd 54f7 00ba 6910 bfbd
00000180: 2074 953c 0373 a8ba 5d7b 22bd 5aac b0bd
00000190: 3447 e13b 475a 89bd cd68 5a3d 0638 4b3d
000001a0: 9c94 d8bc a95a 47bd 320d 9bba c86e 26ba
000001b0: 32a7 f5bb 4045 dabb 77ac ce3c 4d34 80bd
000001c0: d0e6 00bc bb88 cfbc 589e 65bd 03b6 3c3d
000001d0: 28bd ffbb 26da 5ebd d10d 613c 57b3 7cbd
000001e0: 3a4d 2fbc 55f9 353d 44fb 91bc e77c 9ebd
000001f0: b29e 713c 42ec 14bd 48a9 4abd 4620 aabc
00000200: 5ff1 c23c d03e 8d3a d246 57bd ea47 ecbc
00000210: 234a a8bd 5881 5ebc f6d4 a9bd 0c5b 4cbd
00000220: aa19 b23c d932 10bd 48ba 183c 35e5 48bc
00000230: 4a4b 8bbd 1ba6 f93c 383b 053d 7c35 b13c
00000240: 4005 89bd fcda 78bd 1528 9a3c cd59 283d
00000250: 3255 d4bc bb97 353c 93ed 623d 3540 acbd
00000260: 79a7 10bd 69f2 95bb c2a4 3fbd 4e1e 253a
00000270: 0a96 b4bc da53 91bd d93b 52bd 9fe7 0d3d
00000280: 5f19 0b3c 1fdc 03bc 263e 003c 53e1 883d
00000290: c4b8 cfb9 b31c 683d 3b55 9e3c 7059 78bc
000002a0: 3870 2f3c 8168 dbbc b9a8 97bd 5e12 9f3c
000002b0: 15d4 29bb f015 b9bd 49c0 f73c 8e01 313d
000002c0: 48c2 92bd 3f46 b83c a809 15bd fc1c b93c
000002d0: 22b4 e03c 7466 513d 2804 8fbd 40a1 953d
000002e0: ac67 7bbd 7666 e2bc f6e0 afbc 036b 2a3b
000002f0: ae0c eb3b bb89 82bd eeea 54bd 4631 3d3c
00000300: 4f69 c63c 72b0 a93c 180f 0d3c 47ed c53c
00000310: eb23 923c 88dd 77bd f37b bfbc a982 82bd
00000320: b3f7 1bbc e02a 06bd e731 113c 5581 093c
00000330: 1179 1a3d ff54 2fbd dd2d 8ebd 0564 d1bc
00000340: 1b67 d8bc 2aca c83a 3442 723b 8a72 313d
00000350: 5a26 04bc 1733 023c 6e22 893c 3043 86bd
00000360: 5c4b a1bd ee37 cdbb 682c 38bd f09b 92bd
00000370: 517d 25bc 22b9 97bc 96ae 53bc 32d5 5fbc
00000380: 1c57 a5bd 9c1f 37bd 38ea 183d 9beb dd3c
00000390: c4c2 a0bd 4af7 8ebd 30fc a43c 79d1 82bd
000003a0: 7670 0abb ce09 c83c 9ca2 9dbc 5904 e4bc
000003b0: 67ce 2bbd a5ba 4dbd fcaa 5fbd cc76 8bbd
000003c0: 4a6c 2dbd 1ff8 663d 8713 f93c d2fc eabc
000003d0: 3131 2d3d 0f2f 8cbc 4cfc 01bc f73a 50bd
000003e0: 9a99 0abc d6b7 f8bc 7e76 fb3c debd aabc
000003f0: 8545 093c 04b9 253d 36e3 b0bc 79b6 903c

conv2.0.bias f4 [64]
-0.13260756 -0.0017089596 -0.055587776 -0.090767495 -0.04154164 -0.038646866 -0.11359939 -0.063151896
-0.17893222 -0.03228678 -0.08613558 -0.10558625 -0.07371235 0.024462927 -0.06999791 -0.039493315
-0.0041120574 -0.05756076 -0.095213495 -0.16433537 -0.12990703 -0.019852687 -0.060916636 -0.085220434
-0.07300706 -0.042818233 -0.17212781 -0.037801564 -0.02433639 -0.079219334 -0.073447 0.006566207
-0.03655178 -0.1852296 -0.08076025 0.0065133614 -0.026391467 -0.014608722 -0.06605071 -0.04088231
-0.08668698 -0.06565763 0.026913734 -0.110120475 -0.079660274 -0.0054003964 -0.14040373 -0.067618534
-0.06377022 -0.022352196 -0.0667066 -0.031800687 -0.04891105 -0.015949098 -0.082106456 -0.01193076
-0.0018410379 -0.051318895 0.019127104 -0.108555526 -0.04574527 -0.058720857 -0.10064309 -0.049995057
00000000: 47ca 07be 2bff dfba 02b0 63bd 4fe4 b9bd
00000010: 9127 2abd 2d4c 1ebd cca6 e8bd c855 81bd
00000020: 023a 37be 253f 04bd da67 b0bd 9b3d d8bd
00000030: 80f6 96bd 7a66 c83c 105b 8fbd bec3 21bd
00000040: 70be 86bb d5c4 6bbd 4bff c2bd 8847 28be
00000050: 5906 05be 1aa2 a2bc b983 79bd 0d88 aebd
00000060: ba84 95bd 2c62 2fbd 4642 30be d0d5 1abd
00000070: 1c5d c7bc bf3d a2bd 616b 96bd 5629 d73b
00000080: 52b7 15bd d4ac 3dbe a165 a5bd 096e d53b
00000090: eb32 d8bc 6c59 6fbc 9845 87bd 3674 27bd
000000a0: f288 b1bd 8277 86bd 317a dc3c d886 e1bd
000000b0: ed24 a3bd cff5 b0bb ffc5 0fbe 967b 8abd
000000c0: f699 82bd f41b b7bc 789d 88bd 7041 02bd
000000d0: f456 48bd afa7 82bc 6e27 a8bd 3c79 43bc
000000e0: fb4e f1ba c333 52bd 72b0 9c3c 5c52 debd
000000f0: 645f 3bbd 4885 70bd f71d cebd 9ec7 4cbd

fnn.weight f4 [10, 3136]
-0.04321763 0.010020955 0.032273717 -0.011852025 0.06583131 0.026074838 0.0038833257 0.00728778
-0.00086537644 0.035201978 0.007987838 0.021622926 -0.044056017 -0.043504015 -0.03809121 -0.036760077
-0.0009743436 -0.028240746 0.029825665 0.021352159 0.032177527 0.015170742 -0.0032322886 -0.031379595
0.009375062 0.03622544 -0.019934166 0.021435425 -0.0007103314 -0.00019109584 -0.04296442 -0.038268168
0.016273873 0.024766503 0.0073466604 -0.0070454394 -0.02050459 0.017711336 -0.014177102 0.01797686
0.039089486 0.048096318 0.027901882 0.028661542 -0.032210648 -0.048965406 -0.030545015 0.0006443655
-0.021958668 -0.011240933 0.008907192 0.0075955545 0.008705664 -0.031884108 0.0004485618 0.016817696
-0.038120843 0.015326533 0.025079649 0.0021518539 0.0049653416 0.042930327 0.006351726 -0.0036422615
-0.0045373244 0.043044288 -0.045543868 0.010071385 -0.028918525 -0.01858709 -0.006900852 -0.0018466476
-0.04112331 -0.040268034 0.013647629 -0.0154809635 -0.0074013 -0.035853945 -0.022570763 -0.041548576
-0.05993037 0.005035637 -0.04497578 -0.02902132 0.03159409 0.014941497 0.021734633 0.018498002
0.019594735 0.03053394 -0.03657119 0.028344467 -0.024345852 0.019816522 -0.007791834 -0.022623746
0.025308942 0.0076725227 -0.043474704 0.018756274 0.020230027 0.014436957 0.05677488 -0.0041878396
-0.06254878 -0.02764438 -0.024745323 -0.00010059656 -0.004230199 0.069248475 0.0773174 0.024401799
-0.055302262 0.03429184 -0.00046910776 -0.010042606 -0.008304683 0.030180223 -0.025499582 0.01187733
0.016437402 0.012366737 0.027734663 -0.030471878 -0.10927552 -0.043731634 -0.027247699 -0.017989747
0.037099116 0.05981424 0.014384221 0.020453123 -0.036248397 0.0022904233 0.004734102 -0.02817607
0.028008621 -0.046365153 0.030376002 0.015978811 -0.01282096 -0.002981964 -0.017661158 -0.030071532
-0.0068917377 0.054390166 -0.08819442 0.015646067 -0.008196168 0.023876758 0.023535138 0.018225502
-0.014974595 -0.008166532 -0.07114365 0.022244638 0.056133278 -0.034340184 0.029952845 0.046599783
-0.01769591 0.021736985 0.018160623 0.003913704 0.012039316 0.0601251 0.069028124 -0.00061123585
0.03535213 0.054971196 -0.008071699 -0.05181616 -0.025197353 0.026140003 0.0046150726 0.015354684
0.030354496 0.011926505 -0.08570952 -0.050001327 -0.02952861 -0.06439486 0.052075848 0.01405631
0.052299697 -0.021377962 -0.061328005 -0.06724328 -0.065392405 -0.037580125 -0.044898786 0.037235703
0.015855443 -0.042000625 0.026668975 0.043060504 0.009213451 -0.0067281676 -0.030535754 0.032473173
0.00792406 0.014713673 0.028536575 0.06920117 -0.029511912 -0.021253997 0.04430816 -0.010014759
0.0061917948 0.048865154 -0.03887948 0.04420675 0.025329156 -0.009979749 0.032873973 0.019058157
0.006078911 0.03433521 0.014181639 -0.016009511 0.06839207 -0.031319357 -0.06516209 0.05427576
-0.026648767 -0.07189078 0.041849103 0.029073764 -0.00045832797 -0.013697519 -0.066442005 -0.03693373
-0.019119082 -0.0045938375 -0.016410315 0.06408977 0.0012139481 0.074744985 -0.020688452 -0.0026150716
0.06078956 0.057370204 -0.04431912 -0.004312486 0.03479284 -0.005564495 -0.04119336 -0.029821346
-0.034668513 0.025942791 -0.02893733 0.027492879 0.059941728 0.02396237 0.035944976 -0.025616627
00000000: f804 31bd ee2e 243c 7231 043d ff2e 42bc
00000010: 91d2 863d e69a d53c 657f 7e3b 54ce ee3b
00000020: 6eda 62ba f32f 103d 6cdf 023c 9022 b13c
00000030: 1574 34bd 4431 32bd 8705 1cbd bc91 16bd
00000040: 186b 7fba 2359 e7bc f454 f43c b9ea ae3c
00000050: 95cc 033d b48e 783c ced4 53bb e487 00bd
00000060: dc99 193c 2161 143d fa4c a3bc 5899 af3c
00000070: 8935 3aba e660 48b9 76fb 2fbd 15bf 1cbd
00000080: c950 853c 1fe3 ca3c 41bc f03b 6edd e6bb
00000090: 3ef9 a7bc 5d17 913c 1347 68bc 3544 933c
000000a0: 4c1c 203d a500 453d 7d92 e43c 9ccb ea3c
000000b0: 50ef 03bd f38f 48bd 8a39 fabc a3ea 283a
000000c0: aae2 b3bc e42b 38bc 79ef 113c 21e4 f83b
000000d0: 34a2 0e3c e998 02bd f22c eb39 44c5 893c
000000e0: 9a24 1cbd 231c 7b3c d673 cd3c 1e06 0d3b
000000f0: 4eb4 a23b b6d7 2f3d 2422 d03b 02b3 6ebb
00000100: d6ad 94bb 354f 303d 358c 3abd 7302 253c
00000110: 8be6 ecbc f443 98bc 8b20 e2bb 360b f2ba
00000120: ea70 28bd 18f0 24bd 4e9a 5f3c dea3 7dbc
00000130: 9b86 f2bb 96db 12bd 52e6 b8bc d72e 2abd
00000140: 8c79 75bd fc01 a53b 8638 38bd 1fbe edbc
00000150: ce68 013d 2ecd 743c d40c b23c 1f89 973c
00000160: 2385 a03c 5022 fa3c accb 15bd a832 e83c
00000170: f470 c7bc 4256 a23c a452 ffbb 6f55 b9bc
00000180: b354 cf3c c969 fb3b 8812 32bd c2a6 993c
00000190: 71b9 a53c fd88 6c3c c78c 683d 253a 89bb
000001a0: 9319 80bd 7876 e2bc b4b6 cabc 5ef7 d2b8
000001b0: 7b9d 8abb 25d2 8d3d 9658 9e3d 48e6 c73c
000001c0: a084 62bd 9a75 0c3d 94f2 f5b9 be89 24bc
000001d0: 5d10 08bc 843c f73c 80e4 d0bc 2299 423c
000001e0: bba7 863c db9d 4a3c ce33 e33c 29a0 f9bc
000001f0: d8cb dfbd f11f 33bd 9136 dfbc 3c5f 93bc
00000200: 3ef5 173d c7ff 743d ccab 6b3c 4f8d a73c
00000210: 3379 14bd ed1a 163b 8720 9b3b 80d1 e6bc
00000220: 5672 e53c 63e9 3dbd 18d7 f83c ffe5 823c
00000230: 010f 52bc 0e6d 43bb 22ae 90bc 9358 f6bc
00000240: 16d4 e1bb 39c8 5e3d 479f b4bd 2e2c 803c
00000250: 3849 06bc 3199 c33c c3cc c03c a64d 953c
00000260: 0158 75bc ebcc 05bc c3b3 91bd 633a b63c
00000270: 02ec 653d 4ba8 0cbd ab5f f53c 6adf 3e3d
00000280: 03f7 90bc c311 b23c 96c5 943c 873e 803b
00000290: 8d40 453c bd45 763d 9e5e 8d3d 583b 20ba
000002a0: 65cd 103d 7a29 613d 293f 04bc 2f3d 54bd
000002b0: ae6a cebc 8f23 d63c 093a 973b 3692 7b3c
000002c0: fea9 f83c 6367 433c 7988 afbd 31ce 4cbd
000002d0: fce5 f1bc 74e1 83bd 7c4d 553d 704c 663c
000002e0: 3538 563d d620 afbc 1333 7bbd d8b6 89bd
000002f0: 74ec 85bd 9eed 19bd cae7 37bd 7784 183d
00000300: 46e3 813c d908 2cbd e578 da3c 3660 303d
00000310: 04f4 163c f677 dcbb 1e26 fabc 9702 053d
00000320: ebd3 013c 9e11 713c 89c5 e93c 58b9 8d3d
00000330: f7c2 f1bc dd1c aebc 797c 353d f214 24bc
00000340: 8ae4 ca3b d426 483d 1740 1fbd 2312 353d
00000350: 177f cf3c 1a82 23bc dca6 063d da1f 9c3c
00000360: 9a31 c73b 14a3 0c3d 1b5a 683c 6126 83bc
00000370: 2411 8c3d ba48 00bd b473 85bd 4250 5e3d
00000380: 844e dabc 793b 93bd f769 2b3d 1a2c ee3c
00000390: bd4b f0b9 8f6b 60bc bf12 88bd d347 17bd
000003a0: 9f9f 9cbc e787 96bb ed6e 86bc 7f41 833d
000003b0: 571d 9f3a e613 993d d47a a9bc 9f61 2bbb
000003c0: 79fe 783d 05fd 6a3d f787 35bd c14f 8dbb
000003d0: f082 0e3d 5e56 b6bb 5eba 28bd e54b f4bc
000003e0: 9200 0ebd fa85 d43c fb0d edbc bf38 e13c
000003f0: 7585 753d bb4c c43c 0a3b 133d f6d9 d1bc

fnn.bias f4 [10]
0.024285564 0.07048027 0.013104085 0.03573145 -0.056504086 -0.015122175 -0.000499484 0.017268503
0.007032823 0.00026112795
00000000: 85f2 c63c f657 903d 84b2 563c 245b 123d
00000010: d470 67bd 00c3 77bc ceef 02ba ad76 8d3c
00000020: 9873 e63b 00e8 8839
