cnn/mnist/output/epoch_10.pt (torch, 202775 bytes, 6 tensors)

conv1.conv1.weight f4 [32, 1, 3, 3]
-0.13558216 -0.034370296 0.006405585 -0.24823163 -0.2957153 0.16670859 -0.004798228 -0.42905566
-0.14683403 -0.004343629 0.04925005 0.048926134 -0.059518483 -0.14133832 -0.26453418 0.038572084
0.07430021 -0.023054447 -0.13352585 0.016892873 -0.056799963 0.011926647 -0.05027576 -0.24725994
0.005512673 -0.3870165 -0.010143292 -0.18452783 -0.059444647 -0.19054475 0.25078234 -0.21386395
-0.22429675 -0.2966432 0.059061773 -0.06505041 0.014668892 -0.014649352 -0.4898519 0.023167191
-0.36487153 -0.38135383 -0.069707006 -0.011984899 0.046595167 -0.30390745 -0.16926889 -0.13914844
-0.06328044 0.11222487 0.0407395 -0.21479093 0.13569634 -0.0942293 0.00087087037 -0.033250704
-0.0061035724 -0.40910292 -0.24989498 -0.32789478 -0.12535046 0.059805635 0.03192672 0.07506058
-0.08672022 0.019634143 -0.188391 0.07943602 0.06502331 0.10114424 0.15289111 -0.4036542
-0.03344466 0.039403014 -0.24588469 0.004049972 0.09093467 0.053153336 0.0057112346 0.009900132
0.028116845 -0.10552106 -0.3154968 -0.13704166 0.24209368 -0.33124527 -0.534724 -0.14689583
-0.032557756 -0.0012025135 0.06225489 0.12088264 -0.18978012 -0.059689604 -0.13448094 -0.06402454
0.026110433 -0.034594182 0.052161235 -0.004335091 -0.066613756 -0.1473384 -0.18211426 -0.020743182
-0.01652587 -0.015488013 0.0009773301 -0.030762821 -0.4523873 -0.09753007 -0.02244717 -0.20454666
0.022644324 0.011605651 -0.15714055 0.11509587 -0.27421212 -0.33522433 -0.08843531 -0.0049059866
0.06965691 -0.0435406 -0.19634642 0.10958104 0.026999088 0.0025096408 -0.0058503454 -0.13433316
0.03306491 0.085117675 -0.19694938 -0.04856551 -0.021529468 0.0524129 -0.014425645 -0.049915962
0.16240531 -0.30079207 -0.12527779 0.10623122 0.099162005 -0.072379425 -0.08316528 -0.06986961
-0.35565555 0.11635957 -0.15084435 -0.06946832 0.17621961 -0.09305783 -0.21481209 -0.023545582
-0.15566485 0.040482942 -0.02624021 -0.16771045 0.116752885 -0.0973126 -0.022817608 0.024256121
-0.022656897 -0.024898818 -0.19198808 -0.11852693 0.033748973 -0.11675526 -0.09582008 -0.052943874
-0.4485665 0.004052843 0.09663816 0.10709946 -0.12247832 -0.25456387 -0.19884546 -0.19809386
0.030760188 -0.16092181 0.14230503 -0.0061569773 -0.3840666 -0.21122141 -0.34806076 -0.011921499
-0.15099292 0.06335505 -0.026478479 -0.44217366 -0.020212417 -0.026620217 0.016666977 0.09990806
0.060785796 0.10877433 -0.09794743 -0.19538812 -0.07131163 -0.16162187 0.024781825 -0.27874565
-0.15472554 -0.08720051 0.19839934 0.149364 -0.020454284 -0.257021 -0.013385773 0.06470385
-0.16667996 -0.10561997 -0.028501412 -0.34440348 0.21917771 0.060834143 -0.42590502 -0.42617348
-0.14610669 -0.053138044 -0.005623181 0.05456974 0.06324773 -0.18903166 -0.09103673 -0.20346163
-0.093562484 -0.0013709979 0.06107166 0.038744103 -0.15018712 0.048762906 -0.03479151 -0.13324523
-0.08073356 -0.100678116 -0.15245229 -0.20357195 -0.092909634 -0.010292213 -0.14135249 -0.14004599
-0.00791459 -0.0057150736 -0.29948235 -0.30951524 -0.14842977 0.014245754 -0.08793438 0.07870861
-0.29814565 -0.019232525 -0.08220492 -0.014487625 0.044500884 -0.05030674 -0.06375861 -0.09450779
00000000: 0dd6 0abe dec7 0cbd f1e5 d13b 6f30 7ebe
00000010: ff67 97be a8b5 2a3e 743a 9dbb 2fad dbbe
00000020: a95b 16be 0055 8ebb 6cba 493d c566 483d
00000030: a7c9 73bd feba 10be 0671 87be c3fd 1d3d
00000040: b52a 983d aedc bcbc 00bb 08be ec62 8a3c
00000050: 14a7 68bd fc67 433c f5ed 4dbd b631 7dbe
00000060: a7a3 b43b 0727 c6be 0d30 26bc ddf4 3cbe
00000070: 3b7c 73bd 2a1e 43be 8b66 803e 27ff 5abe
00000080: 0cae 65be 9ee1 97be c2ea 713d 2639 85bd
00000090: cb55 703c d603 70bc decd fabe 1fc9 bd3c
000000a0: 71d0 babe cf40 c3be 8cc2 8ebd 4f5c 44bc
000000b0: 93da 3e3d c299 9bbe d354 2dbe ee7c 0ebe
000000c0: 2d99 81bd 27d6 e53d 76de 263d 27f2 5bbe
000000d0: fbf3 0a3e 4bfb c0bd 1f4b 643a e431 08bd
000000e0: 7a00 c8bb f075 d1be 78e4 7fbe d3e1 a7be
000000f0: df5b 00be c1f6 743d 98c5 023d 5db9 993d
00000100: 5f9a b1bd c8d7 a03c 92e9 40be 5aaf a23d
00000110: f12a 853d b624 cf3d 7d8f 1c3e c3ab cebe
00000120: 45fd 08bd 0e65 213d 32c9 7bbe a1b5 843b
00000130: f53b ba3d 50b7 593d 4f25 bb3b 2a34 223c
00000140: 4c55 e63c 6d1b d8bd cc88 a1be a654 0cbe
00000150: 68e7 773e fb98 a9be ace3 08bf dc6b 16be
00000160: 485b 05bd a89d 9dba fcfe 7e3d 5191 f73d
00000170: b855 42be 167d 74bd 5fb5 09be 4c1f 83bd
00000180: 8ce5 d53c a1b2 0dbd 05a7 553d 610d 8ebb
00000190: cb6c 88bd e1df 16be 297c 3abe 9bed a9bc
000001a0: 4361 87bc 6fc1 7dbc c219 803a 5002 fcbc
000001b0: 4f9f e7be d8bd c7bd 21e3 b7bc ae74 51be
000001c0: 9780 b93c a125 3e3c 74e9 20be 62b7 eb3d
000001d0: 8865 8cbe 86a2 abbe 921d b5bd 66c2 a0bb
000001e0: 48a8 8e3d a157 32bd 090f 49be 066c e03d
000001f0: 312d dd3c c978 243b 41b4 bfbb a28e 09be
00000200: 126f 073d 2d52 ae3d 19ad 49be a1ec 46bd
00000210: 915e b0bc e9ae 563d 8a59 6cbc ae74 4cbd
00000220: 944d 263e 6b01 9abe d248 00be c18f d93d
00000230: 7315 cb3d aa3b 94bd 8f52 aabd cc17 8fbd
00000240: 7c18 b6be ed4d ee3d f176 1abe 6845 8ebd
00000250: ea72 343e 1b95 bebd b3f7 5bbe aae2 c0bc
00000260: 9b66 1fbe 71d1 253d b5f5 d6bc 4abc 2bbe
00000270: 231c ef3d d44b c7bd feeb babc c6b4 c63c
00000280: f59a b9bc 9bf8 cbbc 8698 44be 3fbe f2bd
00000290: 5d3c 0a3d 621d efbd 513d c4bd addb 58bd
000002a0: 82aa e5be b6cd 843b 3aea c53d f656 db3d
000002b0: ead5 fabd 3256 82be 259e 4bbe 1ed9 4abe
000002c0: cafc fb3c b0c8 24be 69b8 113e 78c0 c9bb
000002d0: 61a4 c4be 6d4a 58be 0535 b2be 6452 43bc
000002e0: e39d 1abe 4bc0 813d 65e9 d8bc 9664 e2be
000002f0: 8394 a5bc a412 dabc 2f89 883c 999c cc3d
00000300: 87fa 783d 13c5 de3d aa98 c8bd d313 48be
00000310: d50b 92bd 3480 25be 4103 cb3c c0b7 8ebe
00000320: 5f70 1ebe 2e96 b2bd 3229 4b3e e0f2 183e
00000330: be8f a7bc 4298 83be 0050 5bbc 7483 843d
00000340: 27ae 2abe 484f d8bd cb7b e9bc a755 b0be
00000350: 1f70 603e 392d 793d 3910 dabe 6933 dabe
00000360: fe9c 15be 47a7 59bd a942 b8bb 8584 5f3d
00000370: 0788 813d 8491 41be 7771 babd 3f58 50be
00000380: b09d bfbd 0eb3 b3ba 4726 7a3d 23b2 1e3d
00000390: a7ca 19be 9dbb 473d 8b81 0ebd 7071 08be
000003a0: a357 a5bd 5430 cebd 741c 1cbe 2a75 50be
000003b0: 6847 bebd aca0 28bc b5be 10be 3768 0fbe
000003c0: 32ac 01bc 8345 bbbb c055 99be c878 9ebe
000003d0: f9fd 17be 0667 693c f116 b4bd fb31 a13d
000003e0: 8ca6 98be 878d 9dbc 0e5b a8bd 815d 6dbc
000003f0: 8f46 363d 710e 4ebd e093 82bd 4d8d c1bd

conv1.conv1.bias f4 [32]
-0.08889086 -0.5704841 0.07275317 -0.002224848 0.47700283 0.40812534 -0.88559383 -0.33671746
0.3614468 0.018832024 -1.0896349 -0.5600775 0.04939867 0.23030393 0.37306863 -0.8361059
-0.43477017 0.48266524 0.2797741 0.24074653 -0.25851053 -0.57798946 0.31114087 0.34482306
-0.5286421 -0.5241134 0.15942878 0.08555432 -0.8097093 -0.31002477 0.40710047 0.036972284
00000000: 690c b6bd 3f0b 12bf 9dff 943d c1ce 11bb
00000010: b739 f43e cef5 d03e 47b6 62bf 3b66 acbe
00000020: 8e0f b93e 9e45 9a3c 2879 8bbf 3d61 0fbf
00000030: 4356 4a3d cbd4 6b3e da02 bf3e 090b 56bf
00000040: 329a debe e61f f73e 8d3e 8f3e 4286 763e
00000050: 7e5b 84be 1ef7 13bf db4d 9f3e a68c b03e
00000060: 1755 07bf 4c2c 06bf 4c41 233e 1a37 af3d
00000070: 1c49 4fbf 91bb 9ebe 796f d03e 4070 173d

conv2.0.weight f4 [64, 32, 3, 3]
0.08904099 -0.28671452 -0.043130513 -0.115418136 -0.16249153 -0.08558364 -0.0026494903 -0.09701387
-0.07171931 0.009127432 0.075942434 -0.005071474 -0.15162653 -0.12375468 -0.14100073 -0.12738664
-0.1272069 -0.035206914 -0.013647174 -0.15152246 0.007767679 -0.1412185 -0.04473696 -0.051288635
0.08664442 -0.07999519 0.018531736 -0.028871616 0.037965372 -0.09627354 0.048792582 -0.07498801
0.078655206 -0.030075006 0.04321906 0.055741638 0.013747894 -0.077753164 -0.0192051 -0.12674771
-0.102444366 -0.037715785 0.02733503 -0.089257084 0.06885247 -0.024516929 -0.0453822 -0.052790735
-0.103406385 -0.004281716 -0.11595129 -0.0419249 -0.18864687 0.032816783 0.045965057 -0.08876556
-0.09658854 0.014008589 -0.0244984 -0.047741108 -0.017974567 0.09475906 -0.04291827 -0.13848083
-0.05240005 -0.21195349 -0.029000603 -0.16872601 -0.17042255 -0.03613484 -0.15438798 -0.2255012
-0.12600516 0.013052809 0.053993545 0.030967567 -0.05675759 -0.024924133 -0.053758457 -0.036399346
-0.15763576 -0.08690603 -0.040473413 -0.058663484 -0.050969016 -0.059802927 0.034020633 -0.03461254
-0.08182274 -0.05622611 0.04427179 -0.09846754 0.051229205 -0.13619293 -0.08098203 -0.089924134
0.11891425 -0.07087259 -0.03400749 -0.0923724 0.005237325 -0.019844772 0.038300842 0.019112715
-0.046713486 -0.059746474 -0.02387325 -0.0009335889 -0.037105095 0.08734651 -0.044033725 -0.12988198
0.05449997 -0.058173753 -0.051136363 -0.039563227 0.0304462 0.0018841515 0.042890966 0.04597575
-0.084539115 0.03310853 0.033638347 -0.11502716 -0.043183688 -0.056949127 -0.14888255 -0.063020825
0.13772956 -0.11079685 -0.071162835 -0.06334045 -0.1871636 -0.11058794 -0.107451454 -0.1720598
-0.01042047 -0.01656501 -0.086312376 -0.005547095 -0.028113833 0.058316384 0.054981936 0.05296669
-0.057951804 -0.051799808 0.028243957 0.043655824 -0.014017348 0.0035708223 0.14112794 -0.104847975
-0.024978992 -0.1765204 -0.08562609 0.046766825 -0.09075216 -0.05520926 -0.01761585 0.014982927
-0.05938413 -0.10478415 0.14460336 -0.00524181 -0.0374313 -0.0067902696 -0.011702254 -0.0627394
-0.02118524 -0.11978505 -0.1646321 0.16291955 -0.057203267 -0.11036741 0.07273422 0.12069277
-0.12952816 -0.05624444 -0.05841442 0.085733205 -0.052918606 -0.013217989 -0.08352511 -0.0023592226
-0.14132646 -0.027905256 0.06223297 0.025178537 0.00889098 2.1477883e-05 -0.059284497 -0.16464227
0.03749043 0.016648976 -0.04949479 0.026083615 -0.12365658 -0.06889229 0.052542258 -0.08468822
0.08822457 -0.0794612 -0.07469155 0.0027265686 0.17676942 -0.10978629 -0.07808229 -0.060469814
-0.14787818 -0.07932462 -0.044894997 -0.07620886 -0.054681018 0.020952126 -0.08827867 -0.043706637
-0.022115681 -0.019673362 -0.06783916 -0.08794398 -0.030140562 -0.03793281 -0.0549431 -0.05972982
-0.10275252 -0.15057275 0.13741332 -0.07564817 -0.1682944 -0.06794429 0.040707286 -0.100051634
0.011887721 0.03322065 -0.108729586 -0.10695196 -0.05298654 -0.07917944 -0.16035666 -0.12464504
-0.12829892 -0.020016504 0.07226613 -0.09961209 -0.060299516 -0.0038711438 -0.06717393 -0.13594751
-0.04091294 -0.1126936 -0.034038056 0.005384386 -0.049387317 -0.06410279 -0.056930013 0.068305865
00000000: 1f5b b63d 3fcc 92be 9fa9 30bd 5860 ecbd
00000010: 2e64 26be 7a46 afbd 12a3 2dbb 35af c6bd
00000020: 93e1 92bd 398b 153c b587 9b3d 9b2e a6bb
00000030: fc43 1bbe 1873 fdbd 7f62 10be a571 02be
00000040: 8742 02be 2035 10bd 6698 5fbc b428 1bbe
00000050: 0488 fe3b 959b 10be 1a3e 37bd 0814 52bd
00000060: a172 b13d 85d4 a3bd decf 973c 2b84 ecbc
00000070: 9481 1b3d 102b c5bd bbda 473d 5093 99bd
00000080: fb15 a13d dc5f f6bc 7806 313d 5851 643d
00000090: d93e 613c 0d3d 9fbd 0454 9dbc 27ca 01be
000000a0: 5ace d1bd de7b 1abd b6ed df3c 6bcc b6bd
000000b0: 8602 8d3d bad7 c8bc b0e2 39bd 193b 58bd
000000c0: bac6 d3bd a34d 8cbb df77 edbd 72b9 2bbd
000000d0: a52c 41be e46a 063d db45 3c3d b8ca b5bd
000000e0: 36d0 c5bd 4884 653c deb0 c8bc 2e8c 43bd
000000f0: 663f 93bc 0a11 c23d 11cb 2fbd ebcd 0dbe
00000100: 6fa1 56bd 560a 59be ac92 edbc 83c6 2cbe
00000110: 4083 2ebe 2002 14bd e217 1ebe c9e9 66be
00000120: 7f07 01be 73db 553c 5628 5d3d b2af fd3c
00000130: a67a 68bd b22d ccbc d431 5cbd 7b17 15bd
00000140: 456b 21be cafb b1bd 73c7 25bd 1f49 70bd
00000150: e3c4 50bd eaf3 74bd 3859 0b3d e1c5 0dbd
00000160: ae92 a7bd 594d 66bd 5656 353d 5aa9 c9bd
00000170: b7d5 513d 2976 0bbe e8d9 a5bd 252a b8bd
00000180: 5089 f33d a625 91bd 704b 0bbd be2d bdbd
00000190: de9d ab3b 8191 a2bc 58e1 1c3d 4592 9c3c
000001a0: a456 3fbd b8b8 74bd d591 c3bc 17bc 74ba
000001b0: 83fb 17bd bae2 b23d b55c 34bd c8ff 04be
000001c0: 5c3b 5f3d 9a47 6ebd 5d74 51bd 0d0d 22bd
000001d0: 4f6a f93c a2f5 f63a 70ae 2f3d 1151 3c3d
000001e0: d822 adbd cf9c 073d 5dc8 093d 5c93 ebbd
000001f0: 61e1 30bd 7d43 69bd ab74 18be 1011 81bd
00000200: fa08 0d3e 75e9 e2bd d2bd 91bd a3b8 81bd
00000210: d1a7 3fbe ee7b e2bd 820f dcbd 7230 30be
00000220: 9eba 2abc 58b3 87bc 8bc4 b0bd 68c4 b5bb
00000230: fb4e e6bc 29dd 6e3d bd34 613d 9af3 583d
00000240: df5e 6dbd 092c 54bd df5f e73c 73d0 323d
00000250: 05a9 65bc 7504 6a3b d883 103e 89ba d6bd
00000260: bea0 ccbc c4c1 34be bb5c afbd 928e 3f3d
00000270: 45dc b9bd 1b23 62bd 1d4f 90bc f37a 753c
00000280: c63c 73bd 1399 d6bd e712 143e 7dc3 abbb
00000290: 9051 19bd e980 debb d0ba 3fbc 847d 80bd
000002a0: ab8c adbc dd51 f5bd 5195 28be 62d4 263e
000002b0: f94d 6abd 4f08 e2bd aef5 943d c52d f73d
000002c0: 08a3 04be 9260 66bd f543 6fbd e494 af3d
000002d0: 2ec1 58bd 4490 58bc 360f abbd 309d 1abb
000002e0: e2b7 10be 9099 e4bc 00e8 7e3d 3843 ce3c
000002f0: 79ab 113c 672b b437 4dd4 72bd fc97 28be
00000300: 918f 193d 6f63 883c 0dbb 4abd 4ead d53c
00000310: a93f fdbd 6717 8dbd 8d36 573d 0471 adbd
00000320: 15af b43d 8ebc a2bd e2f7 98bd 3bb0 323b
00000330: 0b03 353e a2d7 e0bd 9ce9 9fbd 32af 77bd
00000340: 616d 17be f274 a2bd d1e3 37bd 6413 9cbd
00000350: 34f9 5fbd cba3 ab3c 73cb b4bd bb05 33bd
00000360: f22b b5bc 082a a1bc 42ef 8abd f91b b4bd
00000370: 57e9 f6bc 6f5f 1bbd 040c 61bd 41a7 74bd
00000380: ea6f d2bd be2f 1abe 14b6 0c3e 6eed 9abd
00000390: 5e55 2cbe 6026 8bbd afbc 263d dfe7 ccbd
000003a0: b7c4 423c 6012 083d 9ead debd a109 dbbd
000003b0: 6a08 59bd d528 a2bd 8934 24be e645 ffbd
000003c0: cb60 03be a7f9 a3bc 4400 943d 6c01 ccbd
000003d0: a0fc 76bd 04b3 7dbb 7c92 89bd d335 0bbe
000003e0: 5494 27bd e7cb e6bd 7d6b 0bbd 816f b03b
000003f0: 5b4a 4abd 5348 83bd 722f 69bd f2e3 8b3d

conv2.0.bias f4 [64]
-0.21428317 0.08656392 -0.10635243 -0.0075480095 -0.04861652 -0.18045588 -0.14009723 -0.16117261
-0.4729728 -0.07716155 -0.13737808 -0.12622826 -0.055849697 -0.13382538 -0.14235455 -0.046434153
-0.050843414 -0.0791037 -0.12583926 -0.35935175 -0.21642265 -0.17523856 -0.17278616 -0.10060199
-0.13039224 -0.03428194 -0.34228808 -0.10166034 -0.12845114 -0.21891727 -0.1320472 -0.119563684
-0.13989168 -0.30223212 -0.11933833 -0.0013519656 -0.05623836 -0.12353681 -0.10676808 -0.24563147
-0.0557621 -0.011557296 0.051406287 -0.2311365 -0.12812597 -0.07288715 -0.18632525 -0.10525134
-0.1136891 -0.041892752 -0.05626559 -0.09143717 -0.050597582 0.01664494 -0.14327048 -0.03944743
-0.05606574 -0.044475835 -0.04603359 -0.26043257 -0.057986464 -0.15050209 -0.14315678 -0.038156122
00000000: 0c6d 5bbe 6d48 b13d 4ecf d9bd 4b55 f7bb
00000010: 1e22 47bd 6dc9 38be a675 0fbe 6f0a 25be
00000020: 7e29 f2be e006 9ebd d7ac 0cbe fb41 01be
00000030: a7c2 64bd 8509 09be 64c5 11be bd31 3ebd
00000040: 2f41 50bd 1f01 a2bd 02dc 00be f4fc b7be
00000050: e69d 5dbe bd71 33be dbee 30be 6b08 cebd
00000060: 8b85 05be 386b 0cbd 6240 afbe 4c33 d0bd
00000070: b288 03be d92b 60be 6237 07be cedd f4bd
00000080: c43f 0fbe 2bbe 9abe a867 f4bd 7034 b1ba
00000090: 325a 66bd de00 fdbd 39a9 dabd d186 7bbe
000000a0: cd66 64bd d05a 3dbc 668f 523d 0caf 6cbe
000000b0: 7433 03be dc45 95bd 0ccc 3ebe 048e d7bd
000000c0: d5d5 e8bd bc97 2bbd bf76 66bd 6943 bbbd
000000d0: 693f 4fbd f85a 883c 7fb5 12be a193 21bd
000000e0: 30a5 65bd 4b2c 36bd b88d 3cbd 6b57 85be
000000f0: 3783 6dbd 381d 1abe b197 12be 9849 1cbd

fnn.weight f4 [10, 3136]
-0.04321763 0.013522081 0.034483366 -0.03099253 0.037482742 0.0059084604 0.030852351 0.0072662462
-0.074724056 0.12949374 -0.093550995 0.14865799 -0.07604685 -0.04350284 -0.04528509 -0.0138693135
-0.02871424 0.010739934 0.18979363 0.04401593 0.05977227 0.027191496 -0.036281604 -0.13821717
-0.040640246 -0.049245674 -0.02627072 0.02143027 -0.0030965165 -0.027279228 -0.17924179 0.0041133557
-0.048544113 0.025364917 0.0073544034 -0.0068147522 0.0303833 0.038214535 -0.024326595 0.016495569
0.039133552 0.04438557 0.027901959 0.028887408 -0.016957069 -0.04818297 -0.033444993 -0.0012343139
-0.025774337 -0.011240933 0.008907177 0.039304808 0.0017459862 -0.12706073 -0.052215356 0.009475388
-0.0381055 -0.018287165 -0.062522404 -0.004084717 0.07778152 -0.024805933 -0.0021704237 -0.020455213
0.058309577 -0.052601863 -0.13791895 0.052523162 -0.102443404 0.05003385 0.067353636 -0.0053325915
-0.050686494 -0.13464636 0.15683216 -0.016152423 0.012040229 0.09101318 -0.13477427 -0.035506267
-0.15033272 -0.011651223 -0.020657636 0.0437024 0.07015792 -0.018566983 0.028531345 0.12917468
-0.0017467659 0.0058215777 -0.08530302 0.028344467 -0.017852891 0.0051145223 0.020583915 -0.024607984
0.026943823 0.0076394835 -0.043474704 -0.00509185 0.026505575 0.002787615 0.23552434 -0.07761424
-0.05135449 0.0034649514 0.008528771 0.06761752 0.025655992 0.09643983 0.052782077 0.07079455
-0.052755542 0.023429118 -0.06018776 0.010060266 -0.041397993 0.09772915 -0.09423743 0.03027349
0.042917486 0.014514399 0.030940017 -0.1607022 -0.27300733 -0.06489322 -0.036521077 -0.0567688
0.17455319 0.04505721 -0.09549528 0.06065075 -0.06778564 -0.022493342 0.01851492 -0.008241537
0.031960495 -0.04592292 0.019688124 -0.016333416 -0.024598198 -0.06083612 0.10203667 -0.08795944
0.08171181 0.0007185807 -0.13307394 0.021968652 -0.019016419 -0.08256675 -0.043539725 0.05115491
-0.07051465 -0.007170709 -0.14193358 0.00981696 0.12945071 0.021346658 -0.054951854 0.15336585
-0.052002054 0.013842756 -0.051922735 0.061721034 0.09522598 0.09207816 0.2368785 -0.014749956
0.057617422 0.11534991 0.07030639 -0.0660785 -0.12758633 0.0096636545 -0.13608481 0.025082052
0.05111902 0.041536823 -0.17939013 -0.13480884 -0.011248007 -0.14244075 0.18609789 0.011226303
0.06433347 -0.04420165 -0.3154471 -0.15334229 0.009038285 -0.06864384 -0.04221664 -0.020692986
-0.052082133 -0.08166753 0.052220535 0.010114307 -0.00970303 0.016488817 0.001703064 0.032016944
0.006103695 -0.021144545 0.0066776467 0.15498401 0.06829383 -0.0065782666 0.04180984 -0.009652904
-0.0064786295 0.07021231 -0.097021 0.04246737 0.040940132 0.05305986 0.029714946 0.00032394778
-0.114491224 0.017160099 0.10909867 0.0031972583 0.14578432 -0.05206871 -0.046119258 -0.01453384
-0.05505542 -0.07477959 0.059235487 0.009293824 -0.022291355 -0.023709308 0.03328791 0.006477583
-0.023415307 -0.04116931 -0.04422141 0.07224893 -0.029777322 0.093288 0.18837836 -0.0068089585
0.021248579 -0.13303676 0.15562204 0.005048946 0.045415293 -0.005731358 -0.04131532 0.0020596792
-0.020182544 -0.022782722 -0.03933475 0.024742521 0.059943747 0.02404552 0.088255584 -0.067033395
00000000: f804 31bd b88b 5d3c 6e3e 0d3d 0ce4 fdbc
00000010: 8187 193d c29b c13b 12be fc3c b119 ee3b
00000020: ed08 99bd 029a 043e aa97 bfbd cd39 183e
00000030: 73be 9bbd 0930 32bd dc7c 39bd 1e3c 63bc
00000040: 203a ebbc 8cf6 2f3c 4359 423e 0c4a 343d
00000050: c5d3 743d b3c0 de3c 059c 14bd cd88 0dbe
00000060: 6376 26bd d5b5 49bd b135 d7bc 898e af3c
00000070: edee 4abb b078 dfbc 298b 37be 54c9 863b
00000080: 31d6 46bd 16ca cf3c 35fd f03b 494e dfbb
00000090: 66e6 f83c d886 1c3d 9148 c7bc b721 873c
000000a0: 814a 203d a5cd 353d a692 e43c 49a5 ec3c
000000b0: 8de9 8abc 825b 45bd 9efd 08bd b4c8 a1ba
000000c0: b424 d3bc e42b 38bc 68ef 113c 14fe 203d
000000d0: 93d9 e43a 351c 02be c5df 55bd a83e 1b3c
000000e0: 8314 1cbd f7ce 95bc bf0b 80bd 17d9 85bb
000000f0: eb4b 9f3d d035 cbbc ab3d 0ebb b191 a7bc
00000100: 06d6 6e3d 0d75 57bd a03a 0dbe 8722 573d
00000110: d9cd d1bd 4bf0 4c3d b4f0 893d 05bd aebb
00000120: a49c 4fbd bce0 09be 9c98 203e 1652 84bc
00000130: 6144 453c 1e65 ba3d 4402 0abe 056f 11bd
00000140: d2f0 19be c5e4 3ebc 343a a9bc 4a01 333d
00000150: f5ae 8f3d c919 98bc 91ba e93c 5e46 043e
00000160: bdf3 e4ba efc2 be3b 5ab3 aebd a832 e83c
00000170: 3a40 92bc b997 a73b 999f a83c af96 c9bc
00000180: 4bb9 dc3c a254 fa3b 8812 32bd 89d9 a6bb
00000190: 3822 d93c 6bb0 363b 4b2d 713e 37f4 9ebd
000001a0: 1659 52bd 3d14 633b 42bc 0b3c 0e7b 8a3d
000001b0: 842c d23c 3f82 c53d 0532 583d bcfc 903d
000001c0: 3216 58bd 6cee bf3c 7187 76bd d0d3 243c
000001d0: f190 29bd 3826 c83d 8eff c0bd 1c00 f83c
000001e0: 3fca 2f3d cdcd 6d3c eb75 fd3c 1e8f 24be
000001f0: 9ec7 8bbe bde6 84bd 2097 15bd 6786 68bd
00000200: 12be 323e e98d 383d 0893 c3bd ec6c 783d
00000210: 33d3 8abd f543 b8bc 9aac 973c 8307 07bc
00000220: 02e9 023d ac19 3cbd fd48 a13c a8cd 85bc
00000230: 2982 c9bc 4c2f 79bd 9af8 d03d 1424 b4bd
00000240: 8558 a73d 225f 3c3a 8944 08be 9af7 b33c
00000250: 52c8 9bbc c218 a9bd b656 32bd d087 513d
00000260: fc69 90bd 44f8 eabb 0957 11be 51d7 203c
00000270: ba8e 043e 30df ae3c 3215 61bd f00b 1d3e
00000280: 1b00 55bd bacc 623c efac 54bd 32cf 7c3d
00000290: d705 c33d 7993 bc3d 4790 723e cda9 71bc
000002a0: 3f00 6c3d 933c ec3d ccfc 8f3d 2a54 87bd
000002b0: fea5 02be 4e54 1e3c d159 0bbe e078 cd3c
000002c0: 2d62 513d 8422 2a3d 0cb2 37be 540b 0abe
000002d0: 9049 38bc fddb 11be 7290 3e3e 87ee 373c
000002e0: 44c1 833d ca0c 35bd 4882 a1be c305 1dbe
000002f0: 5115 143c 2495 8cbd 5beb 2cbd 5684 a9bc
00000300: 1354 55bd 4e41 a7bd 33e5 553d 7ab6 253c
00000310: 75f9 1ebc 8e13 873c 5839 df3a 3324 033d
00000320: 8101 c83b 5337 adbc 29d0 da3b 21b4 1e3e
00000330: a3dd 8b3d 808e d7bb cb40 2b3d 3727 1ebc
00000340: af4a d4bb 79cb 8f3d f2b2 c6bd 44f2 2d3d
00000350: d7b0 273d 4c55 593d c26c f33c 89d7 a939
00000360: 607a eabd 5693 8c3c 206f df3d 1889 513b
00000370: 7c48 153e 0046 55bd 8ce7 3cbd 581f 6ebc
00000380: cb81 61bd 0b26 99bd e9a0 723d 2045 183c
00000390: 5c9c b6bc 063a c2bc e758 083d e841 d43b
000003a0: 75d1 bfbc 27a1 28bd 8221 35bd 3ff7 933d
000003b0: 92ef f3bc c70d bf3d 42e6 403e af1d dfbb
000003c0: 8011 ae3c ca3a 08be 625b 1f3e a171 a53b
000003d0: 6305 3a3d 1ece bbbb 413a 29bd affb 063b
000003e0: dd55 a5bc d5a2 babc 7a1d 21bd d4b0 ca3c
000003f0: 9387 753d 1cfb c43c 58bf b43d ce48 89bd

fnn.bias f4 [10]
0.05134403 0.11541789 0.04227569 0.035077937 -0.11861166 -0.038899098 -0.013650412 0.02805121
-0.018650474 0.020233942
00000000: 1e4e 523d 3760 ec3d 4629 2d3d e2ad 0f3d
00000010: acea f2bd a954 1fbd faa5 5fbc a7cb e53c
00000020: e1c8 98bc a7c1 a53c
