cnn/mnist/output/epoch_4.pt (torch, 202775 bytes, 6 tensors)

conv1.conv1.weight f4 [32, 1, 3, 3]
00000000: 7f97 32be 400b cc3c 3e0a 193b d1c1 6bbe
00000010: fe1b 77be 76b4 743e 6d46 19bd 7bac 6cbe
00000020: 3e14 42be b1ca 743c 544d f83d c770 d33d
00000030: 5369 a6bd f3cb 86be d307 87be 5943 8d3c
00000040: 344e 413d 388a 22bd 64ac 64be f1b9 8f3c
00000050: 5d97 8a3d 9125 0dbd 4307 523d 8b8b 8cbe
00000060: e58f 913d 29e6 85be e6f6 a93d cbb0 49be
00000070: 61e3 32be 7346 83be 8ffb 8f3e 0840 92be
00000080: 10d1 81be cc70 90be 1216 f53c 6f35 76bd
00000090: c363 413d fe26 083e 8a41 c2be 1625 523d
000000a0: 9483 8fbe 98fb b8be 7cb0 78bd 4a3c 8a3c
000000b0: 04b4 9d3d bcc6 6fbe 6649 1bbe f580 16be
000000c0: 94f8 79bd 7116 1b3d b0a8 57bc d4b2 36be
000000d0: 4762 203e 64b9 aabd 1020 4e3d 35dc a1bd
000000e0: 2e11 b43d d70b 9fbe 8669 27be 7506 a8be
000000f0: d7e0 3ebd d7c1 0a3e 0379 083d 78eb 1d3e
00000100: 6d27 ffbd f13a 943d 6037 75be c6f1 b33c
00000110: 3977 113e e433 203e a26e 383e dbe5 ebbe
00000120: bbf8 8dbd 8a38 6d3d 4db4 7abe 2b0e 293d
00000130: 2ba0 f63d 97da 503d ac19 633c d353 21bc
00000140: 3dce bc3c 6626 e9bd fa7e b3be 1d35 c9bd
00000150: 1e11 833e acfb 89be 2e4f febe 48e5 2dbe
00000160: c58a e6bd d664 13be 5a4c a03d 234f 063e
00000170: e515 98be a318 0cbe 575d f9bd 1231 94ba
00000180: 9554 a03d e29f e0bd c327 cc3d c74f 97bd
00000190: 960b 4bbd 21bf 80bd 3ed7 e4bd c80e 2dbd
000001a0: 7859 cfbc 793a 973d 4548 b33c 0629 81bb
000001b0: ee96 bdbe 32f9 a8bd 2fcf 81bc 098e 6ebe
000001c0: 5cce 013c 5bbe 793d a57d e8bd 0a28 ee3d
000001d0: 6a54 3bbe 0756 87be c74a 10be 8b7b 69bd
000001e0: e75b c93d 4b62 a6bd 3ee3 4abe d9cd 273e
000001f0: fcf8 9c3c f258 4b3d 0417 423d 33b0 05be
00000200: 8556 843d 3988 183e 3840 8fbe 63d1 dcbc
00000210: 4414 c43c 7b0f a43d d963 3abc 1cd6 893b
00000220: e731 203e a80e a6be 50f9 12be 993f d13d
00000230: e296 223e bc12 8cbc 8842 5cbc 0df4 10bd
00000240: f29b a1be 1cf3 1e3e 2ff9 21be e9a0 83bd
00000250: 1f84 473e d253 dabc 8c0d 5cbe 9f24 36bd
00000260: bb80 68bc da86 913d 0f2a 41bd 5eed 7abe
00000270: 7ab5 0b3e 13f3 e6bd 5b17 de3c 3129 b93d
00000280: 92ba 2fbd 336d 33bd 2a4b 85be 1357 d7bd
00000290: 3d64 b83c cb12 1bbe ec95 b8bd fcec 93bd
000002a0: 6123 9ebe 821a 89bc f6cb 163e c74d 0c3e
000002b0: 5b4d 41be cd99 8fbe 7a3b 3ebe 0b4b 42be
000002c0: 62eb c33d 50d2 5fbe a9ca 2f3e 4084 193d
000002d0: 7075 ccbe cc4e 2cbe a001 98be 0e79 2e3d
000002e0: 8007 e4bc 1768 363d 0f55 e53c 1937 a6be
000002f0: 37b7 0bbc 0519 2dbc f4c9 e9bc 7b60 d93d
00000300: 70f7 b23d 1b8e 1d3e 5c5d cbbd 7d0d 70be
00000310: c81d fbbc 9483 04be dd1b 923c 6afb 8fbe
00000320: d6e1 41be 4f2f 95bd db26 493e 27d8 2e3e
00000330: 799f 503d 9d4b a7be 3701 53bc 1b08 d73d
00000340: 5853 26be 1a1b 1cbe 44ce 8ebd b5ef 78be
00000350: 6756 5a3e 2283 063e b48b bebe 6dae b4be
00000360: 2e8d 09be e165 8ebc f804 7a3d 82dd ce3d
00000370: 46fa d13d 437f 30be 27bd 76bd c3a5 10be
00000380: 5293 8bbd 667d 1f3c 525b f63d 12d6 733d
00000390: 03c5 70be 1b93 d43d 0d8d 2abb cca6 3bbe
000003a0: 0e5c 99bc dd3c 25be c545 69bd 1a5c 93be
000003b0: c315 d8bd d902 0bbb 62c6 d9bd ff9b 16be
000003c0: 7c8b 223d 4f20 0fbb f339 75be 5c6e 9cbe
000003d0: 24de c6bd 47fe 813d d319 c4bc 3feb 623d
000003e0: 2907 81be ef27 543d fd8a dd39 4051 c6bc
000003f0: 7885 b73d 331e b1bc 8a98 b0bc 448a afbd
-0.17440604 0.024907708 0.0023352052 -0.23023154 -0.24131772 0.23896965 -0.03742068 -0.23112671
-0.18953034 0.0149409035 0.12124124 0.10324245 -0.08125558 -0.26327476 -0.26373157 0.017244028
0.04719372 -0.039682597 -0.22331387 0.017544718 0.067671515 -0.034459654 0.051276457 -0.27450213
0.07107524 -0.2615216 0.08299045 -0.19696347 -0.1746955 -0.25639686 0.2812161 -0.28564477
-0.25354815 -0.28211057 0.02991775 -0.060109552 0.04721428 0.13296124 -0.37940627 0.0513049
-0.28030074 -0.3612945 -0.060715184 0.016874451 0.07700351 -0.23415655 -0.15164718 -0.1469763
-0.06102808 0.0378632 -0.013162777 -0.17841655 0.1566249 -0.08336142 0.050323546 -0.07903329
0.08792339 -0.3106372 -0.16348848 -0.32817426 -0.046601143 0.13550507 0.03331853 0.15421855
-0.12458692 0.07237805 -0.23946905 0.021965872 0.14205636 0.15644795 0.18010953 -0.46073803
-0.06932207 0.057915248 -0.24482842 0.041273277 0.12042268 0.050989714 0.013861101 -0.009846645
0.02304756 -0.11384277 -0.35057813 -0.09824584 0.25598997 -0.26949823 -0.49669784 -0.16981995
-0.11256937 -0.14393935 0.07827063 0.13116126 -0.29704204 -0.13681273 -0.12176006 -0.0011306128
0.07828633 -0.10967995 0.099685214 -0.07388263 -0.049571596 -0.06286455 -0.11173867 -0.042250425
-0.025311217 0.073842 0.021885047 -0.003941658 -0.37029213 -0.08250655 -0.015845863 -0.2329637
0.007922735 0.060972553 -0.1135209 0.116287306 -0.1829392 -0.2643282 -0.14091025 -0.057002585
0.09831982 -0.08124217 -0.19813249 0.16387118 0.019161694 0.04964537 0.04738523 -0.13055496
0.06461815 0.14895715 -0.27978683 -0.026955312 0.023935445 0.08010765 -0.011376345 0.004206432
0.15644036 -0.32433057 -0.14352918 0.102172084 0.1587787 -0.017098777 -0.013443597 -0.035388995
-0.3156429 0.15522426 -0.15817712 -0.064271756 0.19483994 -0.026651297 -0.21489543 -0.04446852
-0.014190848 0.07105799 -0.04715925 -0.24504611 0.13643447 -0.112768315 0.027110746 0.0904106
-0.042902537 -0.043805312 -0.26033908 -0.10514655 0.022508735 -0.15143888 -0.0901297 -0.072229356
-0.30886367 -0.016736273 0.14726242 0.13701545 -0.18877165 -0.28047028 -0.18577376 -0.18973939
0.0956638 -0.21857572 0.17167152 0.03747964 -0.39933348 -0.16826934 -0.2968874 0.042595915
-0.027835608 0.04453286 0.02799466 -0.3246391 -0.008527569 -0.010565047 -0.028538682 0.10614105
0.08738601 0.1538624 -0.09929916 -0.23442645 -0.03065385 -0.12940818 0.017835552 -0.281215
-0.18933806 -0.07284414 0.19643728 0.17074643 0.050933335 -0.32674876 -0.012878708 0.10499593
-0.1624273 -0.15244713 -0.06972936 -0.24310191 0.21322022 0.1313596 -0.3721596 -0.35289326
-0.13432762 -0.017382564 0.061039895 0.10100843 0.10252814 -0.17236046 -0.060238983 -0.14125733
-0.068152085 0.009734487 0.12029137 0.059530325 -0.23512654 0.10379621 -0.0026024014 -0.18325347
-0.018720653 -0.16136499 -0.056951303 -0.28781205 -0.10551026 -0.0021211414 -0.10633542 -0.14707945
0.039683804 -0.0021839326 -0.23947887 -0.30552948 -0.09710339 0.06347328 -0.023938095 0.05540013
-0.25200775 0.051795896 0.0004225596 -0.024208665 0.08961004 -0.021620845 -0.021557111 -0.08571294

conv1.conv1.bias f4 [32]
00000000: 24d5 21be 4349 d3be 6e18 9c3d d56d 7bbc
00000010: 60b6 eb3e 2e6b d43e 7547 27bf 0f5e 553d
00000020: 7c97 d23e ad69 cdbd 2948 39bf b4ee e3be
00000030: 6061 363e 7fa6 693e 6231 d03e 1c07 02bf
00000040: 0912 c0be 1b5f dc3e 4105 973e 7969 0b3e
00000050: 9552 91be ef1a e3be 867c d83e ab2b a83e
00000060: 3212 b0be f3d9 a8be 137f 4f3e 873b 7d3e
00000070: 0db4 2bbf eabb aebe cc7e a53e 566e 9dbd
-0.15803963 -0.41266832 0.07621847 -0.01534601 0.4603758 0.41488022 -0.6534341 0.052091654
0.41131198 -0.10029922 -0.7237573 -0.44518054 0.17810583 0.2281742 0.40662676 -0.507921
-0.3751376 0.4304131 0.29496196 0.13614453 -0.28383318 -0.44356486 0.42282504 0.32845816
-0.34388882 -0.32978782 0.20263319 0.24729739 -0.6707161 -0.34127742 0.323233 -0.076870605

conv2.0.weight f4 [64, 32, 3, 3]
00000000: 6dea 81bb 30df 65bd 3d9e 14bd 9b8e 7ebc
00000010: 1877 a23c 6bc4 4dbd 1266 bc3c df1d 7cbd
00000020: c8c5 133c d9cc 013c 68be 4cbd d90e 8ebb
00000030: dc9a 7fbd 66d4 16bd 9382 a2bd 6ffc 993c
00000040: 2edd 9abd 2699 14bc e4fc 10bd 041e 81bd
00000050: 332a 853c 11dc b7bd efa3 443c 2d1a 8abd
00000060: e946 683d 8a43 50bd f104 56bc 45e7 a73b
00000070: b47b 02bd 9a0a 3d3c cafe 7b3c fbab 81bd
00000080: fc84 ef3c 9222 2cbd a76a 713c aa1b 293c
00000090: 7c36 3ebd c4db f2ba ea73 7c3c a311 d3bd
000000a0: 6982 7c3c 04b2 3dbd aff9 3e3c a6ae 0abd
000000b0: d995 f5bc 1cc1 75bc f875 96bb 03f1 96bd
000000c0: 47d8 8abc ac62 06bd 6e23 af3b 9d5e b9bc
000000d0: 13de a7bd a99c 10bb c0eb bf3c 198d 81bd
000000e0: 79a5 0e3b 508c 023d 841e 7d3c a5c6 dcbc
000000f0: cc42 8bbc 528b e13c c01f b5bc a9c3 07bd
00000100: a2dc bfbc 5b74 b8bd 5f0b 63bd 840c acbd
00000110: 6132 a8bd 4e6f 12bc 57e4 3dbd 5a74 e7bd
00000120: 9443 9abd 58c3 183c 6045 713d b686 2bbb
00000130: 6055 a3bd 72c0 a23c e565 a0bd 9fd4 02bd
00000140: 484e 1abd ac1b 59bd c3ac a3bb 3018 2bbd
00000150: c500 44bc 20ee e3bc 2175 b6bb 2cde 503d
00000160: 6674 88bd bf2b e1bc 4b7b a03c 16e8 87bb
00000170: 99b1 82bc 698f 8fbd 771b f5bb 0b68 c7bd
00000180: ca5c 753c 3c97 b43c df92 4abd 2c0e 9bbd
00000190: e77f 8cbb 4b81 7abd f301 e33c 4d70 c43c
000001a0: df12 debc 967d 97bd ab09 c1bc 8ce3 74ba
000001b0: 5e48 d5bb d5f1 1fbc d174 cb3c e364 82bd
000001c0: 6242 54bc cf6e d1bc 09fb 53bd 3069 553d
000001d0: 76d2 08bc 9316 3fbd 5e9d 0e3c 64b9 43bd
000001e0: bef5 16bd e66d 043d 2562 20bd fcde b0bd
000001f0: e96e 9ebc 5955 1abd 2a56 2fbd e9dd a1bc
00000200: 9cbe 0b3d cf1a 24bc 00c1 8fbd 8008 30bd
00000210: 742e a3bd 5250 11bd 816b b9bd 4879 5bbd
00000220: 82bb 0a3c f4a7 a4bc eadf 7c3c 4843 dfbc
00000230: 8c26 76bd 67ac 8ebc a953 af3c b1e4 2c3c
00000240: 6915 85bd b355 06bd 12c3 1d3d 17e3 513d
00000250: 4328 bfbc d886 bf3c 4e20 8c3d d307 e7bd
00000260: d402 19bd 9b3c cebb fdd6 41bd c9a5 463c
00000270: f93f b0bc e9b1 a5bd a9de 90bd 7fa3 0b3d
00000280: 95d5 d6bc ca48 83bc 91f7 593d bd88 b93d
00000290: 0a80 0ebb 84e3 1a3d d72f 1a3d 0be5 e0bc
000002a0: 716d f43c c12a 6f3d 82af c5bd 66f8 3e3d
000002b0: e6f9 93bb 7c22 74bd ece6 5a3c 3159 813d
000002c0: 1479 a0bd fc1b 02bc 99bc 6cbb e38f 9a3c
000002d0: e457 afbc 3795 4f3d cf76 d6bd 5829 a13d
000002e0: 7773 a3bd b09e e4bc c8e1 21bd 9577 673a
000002f0: 2ae4 e33b 2e0f 51bd 3a2a 51bd 6584 26bb
00000300: 566d d43c 62f4 673b 394c 96bc 135f fc3b
00000310: 63f6 bbbb fd30 7cbd 2cc5 a8bc 9536 82bd
00000320: 4d59 83bb 0f29 49bc 714e 343c 2af1 1b3c
00000330: 30ac 053d 722f 8fbc 9018 91bd 0a57 d0bc
00000340: 603d 02bd 24ec 9f3a 0ed0 ab3b d7ea 083d
00000350: a92e 0abc 3f5d 2c3c f706 d63a a8f7 91bd
00000360: d6ad 95bd 32b8 eebb 7c30 46bd 675d 93bd
00000370: 9d33 7bbc c3f8 c1bc c098 87bc f0fe d0bc
00000380: 4e79 b3bd 2888 35bd bfd9 3e3d 03cf e33c
00000390: 4232 a5bd 3759 8ebd 44f1 ba3c ba00 98bd
000003a0: bee0 a4bb 48df c63c d118 9ebc 6a04 e6bc
000003b0: b77e 2cbd 6285 4ebd 782e 87bd ad0a 8cbd
000003c0: cdda 29bd 18f1 303d 0315 f43c 189c adbc
000003d0: da6c 1e3d f0d8 81bc f74b 6dbc 8cdf 99bd
000003e0: 6279 b0bc 160e 1abd 97b8 7a3c 7ee5 c6bc
000003f0: 341e 623b 31f7 4c3d c4be aabc b302 f8bb
-0.0039647133 -0.05612105 -0.03628372 -0.0155369295 0.019832179 -0.050236147 0.02299789 -0.061551925
0.009019323 0.007922375 -0.049986273 -0.004335266 -0.062403545 -0.036823653 -0.07935061 0.018797128
-0.07561718 -0.009069717 -0.035397425 -0.06304553 0.016255474 -0.08977521 0.012001975 -0.06743274
0.05670825 -0.05084566 -0.013062702 0.005124005 -0.031856254 0.011538172 0.015380571 -0.06331631
0.029238217 -0.042025156 0.014734901 0.010321537 -0.04643868 -0.001852863 0.015408495 -0.10306098
0.015411952 -0.046312347 0.011656209 -0.033857964 -0.02997868 -0.014999654 -0.0045916997 -0.07370188
-0.016948832 -0.032808945 0.0053447997 -0.022628123 -0.08196654 -0.0022066033 0.023427844 -0.0632574
0.002176611 0.031872094 0.01544917 -0.02695019 -0.016999625 0.027532253 -0.022109866 -0.03314558
-0.023420636 -0.09006568 -0.055430766 -0.08400825 -0.08212734 -0.00893767 -0.04636034 -0.11301489
-0.07532421 0.009323917 0.05890405 -0.0026172823 -0.07975268 0.019867156 -0.07831935 -0.031941053
-0.03767231 -0.053004906 -0.00499496 -0.041771114 -0.011963074 -0.027823508 -0.005568162 0.05099313
-0.06662826 -0.02748668 0.01959004 -0.00414754 -0.015953826 -0.07009775 -0.0074800807 -0.097366415
0.014975736 0.02204477 -0.049456473 -0.075710624 -0.004287708 -0.06115846 0.02771089 0.02397933
-0.027108608 -0.073970005 -0.02356418 -0.00093417685 -0.006508871 -0.009762247 0.024835976 -0.06366899
-0.01295528 -0.025565533 -0.051753078 0.052102268 -0.008350959 -0.046652388 0.008704511 -0.047784224
-0.03685545 0.03233137 -0.039156098 -0.08636281 -0.019339995 -0.03767905 -0.04280678 -0.019759135
0.034117326 -0.010016157 -0.07019234 -0.042976856 -0.079678446 -0.03547699 -0.09053708 -0.05358246
0.008467557 -0.020099618 0.015434245 -0.027253762 -0.060095355 -0.017416192 0.021402197 0.010552571
-0.06498224 -0.032796573 0.03851611 0.05124196 -0.023334628 0.023379728 0.06842099 -0.11280789
-0.037356213 -0.006293846 -0.04732417 0.012124487 -0.02151488 -0.08090574 -0.07073719 0.03409147
-0.02622489 -0.01602592 0.053214613 0.09059284 -0.0021743798 0.037814632 0.03764328 -0.027452966
0.029837342 0.058390383 -0.09652616 0.04662361 -0.004515874 -0.0596032 0.01336072 0.0631584
-0.07835594 -0.007941242 -0.0036123155 0.018867439 -0.021404214 0.05067941 -0.1047188 0.07869214
-0.079810075 -0.0279077 -0.039521962 0.000882977 0.0069546895 -0.051039867 -0.05106566 -0.0025408503
0.025931042 0.0035393466 -0.018346893 0.0077017634 -0.0057361587 -0.061570156 -0.020601831 -0.06358067
-0.004008448 -0.012277856 0.01100503 0.009517947 0.032634914 -0.017478678 -0.07084763 -0.025432128
-0.031796813 0.0012201113 0.005243308 0.033427086 -0.008433976 0.0105202785 0.001632898 -0.07127315
-0.07308547 -0.0072851414 -0.048386082 -0.071955495 -0.01533213 -0.02367819 -0.016552329 -0.025512189
-0.087633714 -0.0443193 0.046594378 0.027808672 -0.080662265 -0.0695061 0.022820123 -0.074220136
-0.005031674 0.02427639 -0.019298943 -0.028078277 -0.042113032 -0.050420173 -0.0660066 -0.06837974
-0.04146843 0.043198675 0.029795175 -0.021192595 0.038678028 -0.015850514 -0.014483443 -0.07513341
-0.021542255 -0.03761109 0.015302799 -0.024279352 0.0034502866 0.050040428 -0.020842917 -0.007568681

conv2.0.bias f4 [64]
00000000: 5af7 fabd d068 fabb dd32 98bd 2194 c5bd
00000010: ad90 4dbd c4de 37bd 95b4 fdbd fb0a e0bd
00000020: 08e2 62be de68 58bd 6895 d3bd 2bb0 fcbd
00000030: 6db8 86bd 7c12 1fbc e313 bfbd 49e5 54bd
00000040: 62b5 38bd 5da5 29bd 2b97 debd 6954 39be
00000050: 508f 0bbe 1c93 43bd 80b8 87bd 0678 c2bd
00000060: 5448 abbd 88f1 88bd 6ca4 47be d478 9fbd
00000070: 6eb3 a2bd 3ace dbbd b748 90bd cee3 49bb
00000080: 1730 53bd aa65 4fbe 5cda a3bd 22a4 643b
00000090: 123a edbc c474 12bd a222 abbd 6bba 1dbd
000000a0: 5676 f2bd 4e7e fdbc 561a c9ba 9c27 14be
000000b0: 2183 90bd a3af d7bc a840 2cbe b400 6bbd
000000c0: 4e93 a6bd 7a07 03bd 1e94 6abd 37c3 56bd
000000d0: b729 7ebd 44fc babc 572e a6bd fc88 f0bc
000000e0: 08b1 92bb acd0 8ebd 9b1c e03c 6a63 0abe
000000f0: 659d 2dbd af13 88bd f310 f7bd 8f02 00bd
-0.1225421 -0.007641889 -0.074315764 -0.09647394 -0.0501868 -0.04489018 -0.12387959 -0.10939594
-0.22156537 -0.052834384 -0.10331231 -0.12338289 -0.06578145 -0.009708997 -0.09329965 -0.051976476
-0.045094855 -0.04141747 -0.10868677 -0.18098606 -0.13628888 -0.047747716 -0.066269875 -0.09495549
-0.08363405 -0.066866934 -0.19496316 -0.07786718 -0.0794438 -0.10732694 -0.07045119 -0.0030805948
-0.051559534 -0.20253626 -0.08000633 0.003488787 -0.028958354 -0.035755888 -0.08356215 -0.03850786
-0.11838977 -0.030944016 -0.0015342932 -0.14468235 -0.07056261 -0.026328867 -0.1682154 -0.057373717
-0.08133565 -0.031989552 -0.05727016 -0.052432265 -0.0620515 -0.022825368 -0.081143074 -0.029362194
-0.00447667 -0.06973395 0.02735739 -0.13514486 -0.04238643 -0.06644379 -0.1206378 -0.03125244

fnn.weight f4 [10, 3136]
00000000: f804 31bd b061 5e3c 6cf4 003d 3a78 96bc
00000010: 67c6 8d3d 9a77 d53c e97e 7e3b 54ce ee3b
00000020: 4d5b 2039 30a4 e93c a9d4 d93b f0ab 9a3c
00000030: 1574 34bd 4831 32bd a501 1cbd 9a08 57bc
00000040: f0a3 c3bc 3d68 a2bc fa0d d83c b9ea ae3c
00000050: e4cc 033d 86bf ca3b b747 d0bc 234e 4bbd
00000060: 3a11 c13c 33f7 203d a7d8 a0bc 5899 af3c
00000070: a0cc 38bc ccaf f1bc a8ef 47bd c39c 1cbd
00000080: 2238 8b3c 1fe3 ca3c 41bc f03b ddd6 e6bb
00000090: 0ca0 a6bc 18af 903c 4547 68bc 3544 933c
000000a0: 4c1c 203d a500 453d 7d92 e43c 9ccb ea3c
000000b0: 50ef 03bd f38f 48bd 8a39 fabc a3ea 283a
000000c0: aae2 b3bc e42b 38bc 79ef 113c fee1 f83b
000000d0: af78 0d3c a49e 02bd d337 18ba c5c3 893c
000000e0: 8314 1cbd 11fd 1d3d daf6 483d a76a c13b
000000f0: 3374 8f3c 756b 2e3d c2df d03b 9208 a43a
00000100: 1da3 a33c b52b da3b 7bf3 acbd 70d6 273b
00000110: ad0f 2abd fb93 9ebc f8a5 083b ea44 d63b
00000120: 239e 9cbd 0027 9dbc 4ca6 823d c183 8e3b
00000130: 647e f2bb 1140 ae3c 5fe2 5abd ee0f 4bbd
00000140: 6df5 2cbd dd13 ecbc db61 2bbd d828 eebc
00000150: 5f6d 033d acba 13bd 0ac1 223d 3403 db3c
00000160: 7e56 a03c ee21 fa3c e3dd 15bd a832 e83c
00000170: f470 c7bc 4256 a23c d152 ffbb 6f55 b9bc
00000180: b354 cf3c c969 fb3b 8812 32bd 764b 963c
00000190: b86e 9f3c 920e 233c d5a1 243d 01a6 c4bb
000001a0: a245 62bd 7876 e2bc cab6 cabc 4f52 7739
000001b0: f394 20bc 6c8c a53d 7f43 413d da4c c83c
000001c0: a084 62bd 2b72 0c3d bcea f4bc 67ca 1dbc
000001d0: 9cf4 bf3c 0353 e03b 810d 8abb 2299 423c
000001e0: 52a7 863c 858a 643b f3dc 233d 6799 07bd
000001f0: b532 24be a032 bbbd 9136 dfbc b7e7 93bc
00000200: 6ea9 743d 14b0 843d 9fd9 293c 51c9 d23c
00000210: f3e5 3ebd ed1a 163b 8720 9b3b f62b edbc
00000220: 92b7 e43c c482 69bd 58f3 b73d 2e6a 6ebb
00000230: 010f 52bc 0e6d 43bb 4fbb 82bc a23d 28bd
00000240: fe78 683d bcc5 2a3d 3f49 d2bd 402d 803c
00000250: fab3 e3bb ff37 953c e47d ab3c a006 933d
00000260: 6ed3 ecbc 35a9 49bc de3f acbd 1ae1 a43c
00000270: e1d6 943d 3778 33bd cc0d a03c 104a e13d
00000280: 0273 b33a 7f79 2bba f457 3239 f81e e03c
00000290: d2d9 073d 2037 9b3d 1680 093e 0b27 823c
000002a0: 0924 b83c 294c 653d 7ad0 f43c 9ba8 7ebd
000002b0: 515d 2cbd 9ce3 9b3b 6962 40bd c754 0a3d
000002c0: e028 2e3d b168 033c fade e0bd c6fb a1bd
000002d0: aab0 5abd 581c e1bd 1b76 573d 4834 4a3c
000002e0: 1b79 c83c 3eff 3fbc 4f35 e9bd acc2 cabd
000002f0: f1b3 6bbd 9a4d 86bd 6c47 4dbd bb66 053d
00000300: 4417 cc3c 370d 31bd 83f4 d83c 3160 303d
00000310: 04f4 163c 3278 dcbb b528 fabc 405d 043d
00000320: 0702 c83b 8a5b 1bbb 0286 2e3d 2d33 b33d
00000330: 8bb4 f8bc cc96 7bbc b96e 353d f2e6 16bc
00000340: b938 abbb 87b2 903d d4fa a2bd e757 2c3d
00000350: fdae cc3c e2f3 bdbb 2c6e 093d e6b0 083c
00000360: 49ee 44bc 1598 673c dc48 363c 1dac 77bc
00000370: 39b6 9f3d b693 f3bc 8b0f 8ebd f5ea 9e3d
00000380: 5e15 99bc 74eb a7bd 4330 363d ebbc 913c
00000390: 064b bdba 4e03 37bc edb4 4cbd 7c42 0abd
000003a0: 9cdd 503c 32cc 01bc 90df 94bc cd83 7b3d
000003b0: 65b8 a93b 8d38 0a3d 1ad7 a5bc 853f 69bc
000003c0: a988 9f3c aa91 393c 8427 973c ce5e a8bb
000003d0: eda7 1c3d 5e56 b6bb 5eba 28bd e54b f4bc
000003e0: 9200 0ebd fa85 d43c fb0d edbc fb35 e13c
000003f0: 7585 753d bb4c c43c 0a3b 133d f6d9 d1bc
-0.04321763 0.013573095 0.0314831 -0.018367875 0.06922608 0.026058007 0.0038832969 0.00728778
0.00015292801 0.028520674 0.0066476655 0.018880814 -0.044056017 -0.04350403 -0.038087506 -0.013124609
-0.023881882 -0.019825095 0.026373852 0.021352159 0.03217782 0.006187382 -0.025424821 -0.049635064
0.023567785 0.039298248 -0.019634558 0.021435425 -0.011279255 -0.029502772 -0.04881254 -0.038235437
0.01699454 0.024766503 0.0073466604 -0.0070446567 -0.020339988 0.017661616 -0.014177148 0.01797686
0.039089486 0.048096318 0.027901882 0.028661542 -0.032210648 -0.048965406 -0.030545015 0.0006443655
-0.021958668 -0.011240933 0.008907192 0.0075952997 0.00863473 -0.031889573 -0.00058066583 0.016816983
-0.0381055 0.03857142 0.04906354 0.0059026065 0.017511463 0.042582948 0.0063743303 0.0012514761
0.01997524 0.0066580423 -0.08444878 0.0025609992 -0.041518856 -0.019357672 0.0020850878 0.006538977
-0.0764735 -0.019183636 0.06379375 0.0043492024 -0.007400321 0.021270784 -0.05343854 -0.04957574
-0.042226244 -0.028818065 -0.04184137 -0.02907221 0.032086726 -0.036066696 0.039734878 0.026734926
0.019572493 0.030533757 -0.03658856 0.028344467 -0.024345852 0.019816522 -0.007791855 -0.022623746
0.025308942 0.0076725227 -0.043474704 0.01834653 0.019461975 0.009952204 0.040193398 -0.0060012345
-0.05524219 -0.02764438 -0.024745364 0.00023586418 -0.009801137 0.08083424 0.04718351 0.024450708
-0.055302262 0.034288567 -0.029897086 -0.009630776 0.023432069 0.0068458333 -0.0042130356 0.01187733
0.016437206 0.0034872603 0.040005635 -0.03310528 -0.16034968 -0.09140515 -0.027247699 -0.018054826
0.059731893 0.06478897 0.010366826 0.02573076 -0.046606015 0.0022904233 0.004734102 -0.028951626
0.027919564 -0.057009473 0.08981961 -0.0036379206 -0.01282096 -0.002981964 -0.015958456 -0.041074403
0.056756012 0.04169248 -0.10267877 0.015646577 -0.006948945 0.018215178 0.020934053 0.07178998
-0.028909411 -0.0123084085 -0.08410619 0.020126868 0.072675474 -0.043815818 0.019537829 0.110004544
0.0013690891 -0.00065412367 0.00017008168 0.027358517 0.033166714 0.07578874 0.13427767 0.015887758
0.02247812 0.055980835 0.029884566 -0.062172513 -0.04208118 0.0047573578 -0.04696885 0.033772256
0.04251945 0.008020566 -0.109800294 -0.0790935 -0.053391136 -0.10991734 0.05260287 0.012341566
0.02447181 -0.011718569 -0.11387121 -0.09900412 -0.057544652 -0.0655777 -0.05011694 0.032568675
0.024913438 -0.043225493 0.02648378 0.043060485 0.009213451 -0.0067281956 -0.030536989 0.032315493
0.0061037573 -0.0023705685 0.04260827 0.087499954 -0.030359527 -0.015355777 0.044295046 -0.009210335
-0.0052252677 0.070653014 -0.07957998 0.042076018 0.024985785 -0.0057968954 0.033552334 0.008342957
-0.012019702 0.01413538 0.0111257695 -0.015116719 0.07798428 -0.02973352 -0.06936558 0.07759658
-0.018686946 -0.08199206 0.04447962 0.017790278 -0.0014441914 -0.0111702215 -0.04997723 -0.03375481
0.012748148 -0.007922219 -0.01817301 0.061404992 0.0051794522 0.033745337 -0.02024417 -0.014236336
0.019474344 0.011326233 0.01845146 -0.0051382547 0.038246084 -0.005564495 -0.04119336 -0.029821346
-0.034668513 0.025942791 -0.02893733 0.02749156 0.059941728 0.02396237 0.035944976 -0.025616627

fnn.bias f4 [10]
00000000: af3a ba3c a115 ab3d 492d d13c 5475 133d
00000010: 7796 8abd 143b 8abc db82 dbb9 b9b3 8d3c
00000020: c898 64bb 0f5e 163b
0.02273306 0.08353735 0.025534289 0.036000565 -0.0676698 -0.016873874 -0.0004186843 0.017297613
-0.0034881104 0.0022944247
