cnn/mnist/output/epoch_5.pt (torch, 202775 bytes, 6 tensors)

conv1.conv1.weight f4 [32, 1, 3, 3]
-0.19720125 0.0055069774 0.012512113 -0.22986682 -0.25553694 0.21336123 -0.008083822 -0.29710907
-0.2043236 0.009338348 0.107530475 0.09127373 -0.10221942 -0.2206452 -0.21772829 0.008435416
0.051923864 -0.06046656 -0.22222495 0.0042401706 0.056993786 -0.026968941 0.08525901 -0.24622746
0.056080915 -0.2867815 0.06373925 -0.15015498 -0.16800034 -0.27865773 0.28933567 -0.28777987
-0.32681325 -0.28135204 0.037911557 -0.047376037 0.051305335 0.11381144 -0.40228313 0.049614266
-0.24603534 -0.36435747 -0.077341974 0.012995318 0.07465032 -0.2545106 -0.13353913 -0.152596
-0.068103865 0.074448176 -0.0025312637 -0.19055294 0.1632338 -0.0713906 0.030689057 -0.044454403
0.096522674 -0.3228966 -0.18022443 -0.319574 -0.07160914 0.11039789 0.025287058 0.14310633
-0.11406312 0.04071526 -0.21971954 0.050353266 0.11685396 0.15192644 0.1829706 -0.44010475
-0.07225571 0.055982098 -0.23557313 0.021450747 0.107215784 0.038084295 0.009055148 -0.010546737
0.02145839 -0.117723174 -0.37090144 -0.13611463 0.24226058 -0.31049198 -0.5207682 -0.15442953
-0.14320089 -0.084136456 0.08926182 0.12355688 -0.30801302 -0.075946495 -0.08692588 0.0017233188
0.06365807 -0.10391757 0.07502885 -0.01033407 -0.05705628 -0.08686735 -0.1434908 -0.026182776
-0.01868661 0.06089143 0.016178029 -0.015023422 -0.37396884 -0.06430135 -0.030045183 -0.21610889
0.015887057 0.04056131 -0.07605084 0.13438906 -0.19544639 -0.2983912 -0.092009164 0.020051355
0.08464413 -0.05295551 -0.21148983 0.14135268 0.016530108 0.043061096 0.041402873 -0.14045516
0.031430677 0.11650422 -0.26898712 -0.05174488 -0.0073859347 0.06991953 -0.036437258 -0.0024922474
0.15332443 -0.32749003 -0.15807563 0.08902361 0.13611105 -0.040636282 -0.048789695 -0.070594266
-0.3237279 0.14865442 -0.16365546 -0.054522496 0.189686 -0.04339946 -0.20353793 -0.047446642
-0.03642936 0.0810954 -0.0040795845 -0.16586752 0.13289143 -0.073778346 0.05407267 0.08436241
-0.03405153 -0.03638006 -0.2408368 -0.13487987 -7.454045e-05 -0.1731557 -0.10753554 -0.0778295
-0.37335473 -0.011994581 0.12735775 0.120936975 -0.19401522 -0.29249874 -0.22138049 -0.18168609
0.09290697 -0.21516821 0.15904844 0.03417029 -0.42337826 -0.16938032 -0.29521558 0.036941323
0.005301146 0.013919037 0.038491532 -0.33271506 -0.016317926 -0.035079725 -0.028530316 0.076793574
0.055658434 0.1423645 -0.09918337 -0.25933585 -0.0543894 -0.15202622 0.009920299 -0.23670335
-0.15640657 -0.0686802 0.24774463 0.18806626 0.054798108 -0.29352635 -0.009567447 0.10118086
-0.16189411 -0.19021305 -0.038888816 -0.2762078 0.17683378 0.09453457 -0.39905655 -0.40010962
-0.100478135 -0.0071363635 0.050297894 0.1315061 0.14111643 -0.12405353 -0.052035555 -0.11578441
-0.056824457 0.017174708 0.11162304 0.066788495 -0.23746121 0.09240215 0.0030905956 -0.18415247
-0.021276355 -0.11777722 -0.07377519 -0.2892106 -0.104538076 0.0007485399 -0.099583894 -0.15015131
0.026820503 0.008621244 -0.2575061 -0.30879542 -0.11269988 0.04676898 -0.04491171 0.07322847
-0.2526671 0.010503735 -0.016388992 -0.00650337 0.06305687 -0.022221565 -0.020830767 -0.09823914
00000000: 20ef 49be e073 b43b 9bff 4c3c 3562 6bbe
00000010: bdd5 82be 5e7b 5a3e 0272 04bc ae1e 98be
00000020: 353a 51be dfff 183c f038 dc3d b9ed ba3d
00000030: 6a58 d1bd d1f0 61be 2af4 5ebe b334 0a3c
00000040: 1eae 543d c9ab 77bd f08e 63be 21f1 8a3b
00000050: 5172 693d f8ed dcbc 479c ae3d 0d23 7cbe
00000060: 1ab5 653d 06d5 92be b989 823d 3ac2 19be
00000070: 4808 2cbe 3aac 8ebe ce23 943e e257 93be
00000080: 1154 a7be 600d 90be 2649 1b3d 600d 42bd
00000090: 8b25 523d f915 e93d 0ef8 cdbe 5438 4b3d
000000a0: b0f0 7bbe 108d babe 7865 9ebd 50ea 543c
000000b0: 44e2 983d 374f 82be 7bbe 08be 2042 1cbe
000000c0: 0a7a 8bbd 4978 983d 8fe3 25bb 4f20 43be
000000d0: c326 273e 3c35 92bd 9e67 fb3c d215 36bd
000000e0: aead c53d b452 a5be c18c 38be 349f a3be
000000f0: d0a7 92bd 4a18 e23d ce26 cf3c 778a 123e
00000100: ed99 e9bd 0bc5 263d 29fe 60be 3a3f 4e3d
00000110: 2151 ef3d 9b92 1b3e a55c 3b3e 6955 e1be
00000120: cdfa 93bd 7c4d 653d 153a 71be 7ab9 af3c
00000130: f393 db3d 47fe 1b3d 0b5c 143c 39cc 2cbc
00000140: 81c9 af3c d918 f1bd cbe6 bdbe a261 0bbe
00000150: 2813 783e cef8 9ebe 1151 05bf c622 1ebe
00000160: 41a3 12be bc4f acbd e7ce b63d 640b fd3d
00000170: e2b3 9dbe d689 9bbd 3206 b2bd fce0 e13a
00000180: 2a5f 823d bcd2 d4bd baa8 993d 3b50 29bc
00000190: d9b3 69bd 82e7 b1bd 41ef 12be 437d d6bc
000001a0: a914 99bc 4b69 793d c987 843c cd24 76bc
000001b0: d878 bfbe 6db0 83bd 5121 f6bc a64b 5dbe
000001c0: 9325 823c 9e23 263d 8bc0 9bbd 499d 093e
000001d0: 1923 48be bbc6 98be 4d6f bcbd bd42 a43c
000001e0: e759 ad3d e0e7 58bd ca90 58be c2be 103e
000001f0: 266a 873c d560 303d 0f96 293d 7ad3 0fbe
00000200: 74bd 003d c499 ee3d aeb8 89be 70f2 53bd
00000210: b605 f2bb f831 8f3d 3c3f 15bd f954 23bb
00000220: 1401 1d3e c6ac a7be 94de 21be 0352 b63d
00000230: b260 0b3e 3b72 26bd b4d7 47bd ba93 90bd
00000240: aabf a5be dd38 183e 4c95 27be fb52 5fbd
00000250: 0c3d 423e a2c3 31bd 3f6c 50be 6957 42bd
00000260: f436 15bd 5815 a63d 09ae 85bb 2dd9 29be
00000270: b114 083e 1a19 97bd 4e7b 5d3d 33c6 ac3d
00000280: 9e79 0bbd 4203 15bd ec9d 76be f31d 0abe
00000290: 9952 9cb8 ba4f 31be 983b dcbd 1365 9fbd
000002a0: 5a28 bfbe eb84 44bc 126a 023e cead f73d
000002b0: edab 46be 65c2 95be 91b1 62be eb0b 3abe
000002c0: 0246 be3d 0e55 5cbe 98dd 223e 25f6 0b3d
000002d0: 09c5 d8be 0972 2dbe 7f26 97be c94f 173d
000002e0: 3cb5 ad3b ac0c 643c 4ca9 1d3d a159 aabe
000002f0: 2cad 85bc c2af 0fbd 69b8 e9bc f345 9d3d
00000300: 19fa 633d 00c8 113e a720 cbbd abc7 84be
00000310: 6bc7 5ebd c3ac 1bbe c088 223c 5d62 72be
00000320: 0b29 20be 34a8 8cbd c5b0 7d3e 7194 403e
00000330: fb73 603d 1649 96be c8c0 1cbc e937 cf3d
00000340: 92c7 25be 36c7 42be e149 1fbd 1c6b 8dbe
00000350: ea13 353e 579b c13d 2451 ccbe 2bdb ccbe
00000360: 7bc7 cdbd 28d8 e9bb 2a05 4e3d 89a9 063e
00000370: d380 103e c70f febd 3c23 55bd 6020 edbd
00000380: c3c0 68bd f9b1 8c3c 9f9a e43d 68c8 883d
00000390: 0829 73be 573d bd3d 978b 4a3b 7792 3cbe
000003a0: c04b aebc 2f35 f1bd 7217 97bd 6913 94be
000003b0: 0f18 d6bd aa39 443a a4f2 cbbd 44c1 19be
000003c0: acb6 db3c 1e40 0d3c d7d7 83be 6f1a 9ebe
000003d0: 32cf e6bd d490 3f3d 57f5 37bd cff8 953d
000003e0: 955d 81be dc17 2c3c 3542 86bc 391a d5bb
000003f0: f623 813d 000a b6bc 49a5 aabc 9a31 c9bd

conv1.conv1.bias f4 [32]
-0.13569227 -0.44046274 0.04870014 -0.019840574 0.44152176 0.3995708 -0.6902448 -0.01964456
0.38193086 -0.09171245 -0.8338191 -0.46833426 0.13328916 0.21256441 0.38523164 -0.5751718
-0.37061894 0.42205712 0.2870214 0.13568051 -0.2940721 -0.47670978 0.3875557 0.29981878
-0.37103444 -0.3455255 0.18960786 0.21876827 -0.72998565 -0.3070765 0.30235216 -0.0700936
00000000: eaf2 0abe 5584 e1be cc79 473d b388 a2bc
00000010: 240f e23e 8b94 cc3e e2b3 30bf a1ed a0bc
00000020: 718c c33e bdd3 bbbd 2b75 55bf 82c9 efbe
00000030: f47c 083e 7caa 593e 153d c53e 763e 13bf
00000040: c4c1 bdbe df17 d83e 78f4 923e d5ef 0a3e
00000050: 9e90 96be 4e13 f4be b36d c63e d981 993e
00000060: 3af8 bdbe b8e8 b0be 9028 423e ca04 603e
00000070: 57e0 3abf 2239 9dbe e7cd 9a3e 3c8d 8fbd

conv2.0.weight f4 [64, 32, 3, 3]
0.007013104 -0.08218303 -0.033453587 -0.07188973 -0.006185375 -0.049960356 -0.0010462042 -0.040760536
-0.007210166 0.016915146 -0.047356915 -0.006398166 -0.06720886 -0.041643962 -0.07935061 0.018385641
-0.072008826 -0.009162181 -0.040500123 -0.08366844 0.0156049635 -0.11637756 0.008491929 -0.06743274
0.035650257 -0.043405127 -0.0130323535 0.005401464 -0.030429628 0.011538161 0.015846217 -0.06328009
0.02923819 -0.041846607 0.014751769 0.010321545 -0.055210028 -0.017231097 0.02783642 -0.12737478
0.008107271 -0.046312347 -0.004144637 -0.03232808 -0.029975852 -0.04885338 -0.022412928 -0.08955806
-0.02070801 -0.03438758 -0.01935944 -0.025787186 -0.08202357 -0.002206644 0.022948999 -0.07550426
-0.00509063 0.017166335 0.011099245 -0.02695019 -0.025729932 0.029035635 -0.022262143 -0.03369413
-0.029328674 -0.09637861 -0.056005392 -0.0821853 -0.07856103 -0.0052998005 -0.051448986 -0.12845226
-0.09242062 -0.022367505 0.06858233 0.0021529864 -0.0764023 0.019319437 -0.09261228 -0.03960444
-0.058971893 -0.05302066 -0.0049949917 -0.041771114 -0.011965171 -0.027823485 -0.0055681164 0.050997347
-0.06662826 -0.02748668 0.020976232 -0.029900461 -0.01588499 -0.077389985 -0.016384313 -0.09736712
-0.014429196 -0.003973415 -0.04945632 -0.07381506 -0.016132686 -0.05906879 0.041157566 0.025317661
-0.027128898 -0.08086476 -0.023943525 -0.00093418296 -0.009776957 -0.008775607 0.024835758 -0.06545999
-0.010765935 -0.025565533 -0.05150232 0.052725755 -0.008350919 -0.05800126 -0.006497548 -0.07491716
-0.051147517 0.029495277 -0.039078567 -0.097198196 -0.01861868 -0.037678383 -0.03324802 -0.019824384
0.04827418 -0.017997773 -0.06375284 -0.042839393 -0.08689891 -0.04175532 -0.09064278 -0.06977779
-0.021040345 -0.037408665 0.01271149 -0.025968684 -0.053830072 -0.0284353 0.010704901 0.0029383402
-0.06498043 -0.03851231 0.044792846 0.05098878 -0.019364158 0.028714651 0.0681206 -0.12015666
-0.030273966 -0.0105921 -0.05613404 0.021302624 -0.018705923 -0.08196189 -0.061278593 0.033488993
-0.03191048 -0.01521688 0.07993154 0.061994657 -0.02115484 0.030260468 0.012944556 -0.02782373
0.004002778 0.041251305 -0.098806515 0.053637896 -0.037336744 -0.08358173 0.024856571 0.039108194
-0.087411 -0.049122214 -0.047787156 0.018866904 -0.05560175 0.031227212 -0.104869395 0.074261196
-0.08482889 -0.02790768 -0.038352214 -0.030273015 0.0069546825 -0.038706005 -0.073164284 0.007909542
0.009942965 0.00015638697 -0.020551758 -0.006821406 -0.017318435 -0.06937534 -0.016295409 -0.056852512
-0.0051655862 -0.013191525 0.005069667 0.009418297 0.022511642 -0.03612791 -0.07033573 -0.025784757
-0.029677475 0.0012197718 0.0038094418 0.03381221 -0.008433978 0.012422986 0.0020365077 -0.07127315
-0.067161724 -0.0071524247 -0.048027266 -0.07402226 -0.018638713 -0.02367819 -0.015591976 -0.023921104
-0.08763382 -0.030327179 0.06662872 0.042466335 -0.07721155 -0.07065744 0.0238288 -0.06739407
-0.017884897 0.045229618 -0.020281663 -0.027558813 -0.042113256 -0.051548515 -0.06666961 -0.06837974
-0.041235093 0.043118875 0.029795175 -0.01879269 0.03223945 -0.02020962 -0.027742364 -0.0781863
-0.021542255 -0.04489882 0.0162181 -0.024279492 -0.006606782 0.039531488 -0.021790963 -0.025642483
00000000: 2ece e53b 944f a8bd a106 09bd ec3a 93bd
00000010: b0ae cabb 3ba3 4cbd ca20 89ba 85f4 26bd
00000020: 4243 ecbb a291 8a3c 53f9 41bd b5a7 d1bb
00000030: cca4 89bd dc92 2abd 9382 a2bd 7c9d 963c
00000040: 5d79 93bd f91c 16bc 75e3 25bd 5c5a abbd
00000050: f6ab 7f3c 5c57 eebd bb21 0b3c 2d1a 8abd
00000060: 0106 123d 93c9 31bd a785 55bc c4fe b03b
00000070: 8e47 f9bc 8e0a 3d3c edcf 813c fe98 81bd
00000080: ee84 ef3c 5967 2bbd 67b1 713c b31b 293c
00000090: e923 62bd 3b28 8dbc 3409 e43c 896e 02be
000000a0: 5cd4 043c 04b2 3dbd bccf 87bb 736a 04bd
000000b0: eb8f f5bc 7b1a 48bd 519b b7bc 376a b7bd
000000c0: d8a3 a9bc fed9 0cbd b097 9ebc a63f d3bc
000000d0: f9fb a7bd 589d 10bb 8aff bb3c faa1 9abd
000000e0: 4dcf a6bb 6aa0 8c3c 9cd9 353c a5c6 dcbc
000000f0: 94c7 d2bc 24dc ed3c 195f b6bc db02 0abd
00000100: b042 f0bc 2662 c5bd e965 65bd c450 a8bd
00000110: 9be4 a0bd f3a9 adbb 2cbc 52bd fd88 03be
00000120: 0647 bdbd 0f3c b7bc e574 8c3d 1e19 0d3b
00000130: cf78 9cbd cc43 9e3c 82ab bdbd 4438 22bd
00000140: 838c 71bd 312c 59bd 07ad a3bb 3018 2bbd
00000150: 9109 44bc 14ee e3bc bf74 b6bb 98e2 503d
00000160: 6674 88bd bf2b e1bc 59d6 ab3c d0f1 f4bc
00000170: 3d21 82bc a47e 9ebd 6538 86bc 6a68 c7bd
00000180: 6f68 6cbc 6c33 82bb b692 4abd 5a2c 97bd
00000190: b228 84bc 1ef2 71bd d694 283d fc66 cf3c
000001a0: 6c3d debc 6c9c a5bd 3625 c4bc f5e3 74ba
000001b0: 882f 20bc 90c7 0fbc 5c74 cb3c e30f 86bd
000001c0: 9b63 30bc cf6e d1bc 19f4 52bd f6f6 573d
000001d0: 4bd2 08bc bb92 6dbd 62e9 d4bb 2b6e 99bd
000001e0: 0f80 51bd 14a0 f13c d910 20bd d90f c7bd
000001f0: 3486 98bc a654 1abd 132f 08bd bf66 a2bc
00000200: 26bb 453d 1170 93bc d990 82bd 5c78 2fbd
00000210: 0ef8 b1bd a007 2bbd eca2 b9bd a8e7 8ebd
00000220: cd5c acbc d439 19bd da43 503c 47bc d4bc
00000230: ec7c 5cbd 25f1 e8bc 9c63 2f3c 2b91 403b
00000240: 7614 85bd 15bf 1dbd b478 373d 9cd9 503d
00000250: 95a1 9ebc fd3a eb3c d082 8b3d b214 f6bd
00000260: 1c01 f8bc 7d8a 2dbc cfec 65bd d782 ae3c
00000270: 2a3d 99bc a3db a7bd 43ff 7abd c12b 093d
00000280: 90b4 02bd 3850 79bc 26b3 a33d 1cee 7d3d
00000290: ea4c adbc cde4 f73c 6715 543c 97ee e3bc
000002a0: bc29 833b 21f7 283d 125b cabd 69b3 5b3d
000002b0: 6aee 18bd e62c abbd 02a0 cb3c ea2f 203d
000002c0: 8a04 b3bd 6034 49bd 77bc 43bd c48e 9a3c
000002d0: a9be 63bd 36d0 ff3c c4c5 d6bd 4116 983d
000002e0: c5ba adbd a69e e4bc 3617 1dbd 1dff f7bc
000002f0: 1be4 e33b 308a 1ebd 28d7 95bd 0697 013c
00000300: d1e7 223c cffb 2339 295c a8bc 1a86 dfbb
00000310: 64df 8dbc a914 8ebd f37d 85bc 2ede 68bd
00000320: 1444 a9bb 4421 58bc 731f a63b 334f 1a3c
00000330: 566a b83c dcfa 13bd 2e0c 90bd 8e3a d3bc
00000340: 2d1e f3bc c0e0 9f3a d4a7 793b ac7e 0a3d
00000350: ab2e 0abc c889 4b3c ee76 053b a8f7 91bd
00000360: 168c 89bd e35e eabb 3db8 44bd fc98 97bd
00000370: 37b0 98bc c3f8 c1bc 7d75 7fbc 31f6 c3bc
00000380: 5c79 b3bd b470 f8bc a374 883d 2ef1 2d3d
00000390: 1721 9ebd d9b4 90bd 9e34 c33c e705 8abd
000003a0: 5983 92bc b142 393d bb25 a6bc 05c3 e1bc
000003b0: f37e 2cbd 8924 53bd 148a 88bd ad0a 8cbd
000003c0: 21e6 28bd 6b9d 303d 0315 f43c 21f3 99bc
000003d0: 830d 043d a58e a5bc f443 e3bc 2420 a0bd
000003e0: 6279 b0bc d3e7 37bd d2db 843c c9e5 c6bc
000003f0: b47d d8bb c5eb 213d f682 b2bc 2f10 d2bc

conv2.0.bias f4 [64]
-0.11792522 0.012504515 -0.10148977 -0.065259725 -0.039798718 -0.09478901 -0.13462275 -0.10752831
-0.2742246 -0.06411522 -0.103085876 -0.12397803 -0.076119415 -0.02840336 -0.116784364 -0.034372374
-0.037581645 -0.080024034 -0.11763968 -0.22320955 -0.15784402 -0.07391161 -0.07549999 -0.08377855
-0.10014034 -0.035431776 -0.21466497 -0.077617764 -0.10802439 -0.14907388 -0.087586835 -0.05719952
-0.02987645 -0.21911396 -0.09319009 -0.002362801 -0.03051936 -0.048794124 -0.09608509 -0.055864997
-0.07986053 -0.010684106 -0.0029635408 -0.16247486 -0.067712694 -0.03880092 -0.14842118 -0.05371457
-0.095295794 -0.03400004 -0.039441746 -0.09131245 -0.049464427 -0.008685055 -0.11984592 -0.05939069
-0.019911855 -0.076894745 -0.008451809 -0.16375707 -0.031469285 -0.086534075 -0.15479122 -0.036474023
00000000: c782 f1bd bddf 4c3c ded9 cfbd e4a6 85bd
00000010: fb03 23bd be20 c2bd 8cda 09be cd37 dcbd
00000020: 2b67 8cbe d74e 83bd b01e d3bd 32e8 fdbd
00000030: 7fe4 9bbd 2aae e8bc a42c efbd 0cca 0cbd
00000040: 36ef 19bd a4e3 a3bd 13ed f0bd 0b91 64be
00000050: dda1 21be f85e 97bd bd9f 9abd 1794 abbd
00000060: 6116 cdbd e920 11bd 22d1 5bbe 10f6 9ebd
00000070: e43b ddbd d3a6 18be ba60 b3bd 0b4a 6abd
00000080: 75bf f4bc 695f 60be 72da bebd 39d9 1abb
00000090: bd03 fabc 59dc 47bd 42c8 c4bd b2d2 64bd
000000a0: eb8d a3bd 630c 2fbc f737 42bb cf5f 26be
000000b0: f4ac 8abd b7ed 1ebd b9fb 17be cf03 5cbd
000000c0: 712a c3bd a043 0bbd ab8d 21bd 0602 bbbd
000000d0: 369b 4abd c34b 0ebc c771 f5bd a743 73bd
000000e0: 301e a3bc fe7a 9dbd 7579 0abc efaf 27be
000000f0: f0e5 00bd c738 b1bd 9781 1ebe c965 15bd

fnn.weight f4 [10, 3136]
-0.04321763 0.013573095 0.0314831 -0.018367875 0.06922608 0.026058007 0.0038832969 0.007287647
-0.011393768 0.026377443 -0.01567862 0.021929497 -0.044056017 -0.04350403 -0.038062878 -0.03326566
-0.050588854 -0.03781554 0.02648146 0.021353105 0.03217782 0.025891121 -0.032108895 -0.07327646
0.022883186 0.040922344 -0.019576432 0.021435425 -0.0035319573 -0.039914045 -0.06720312 -0.038598616
0.014536647 0.024766503 0.0073466604 -0.007012337 -0.018849146 0.017644364 -0.014177148 0.017451504
0.039089486 0.048096318 0.027901882 0.028661542 -0.032210648 -0.048965406 -0.030545015 0.0006443655
-0.021958668 -0.011240933 0.008907192 0.0075952546 0.008625217 -0.064635254 -0.008867564 0.027984291
-0.0381055 0.016063886 0.045928903 0.022016956 0.055033598 0.059153464 0.0021671834 0.0012515866
0.006566251 -0.0059922086 -0.09325052 0.04226597 -0.018038038 -0.010511239 0.0023627034 0.024326721
-0.10719862 -0.053117257 0.062184364 0.02016588 -0.033240452 0.024386205 -0.09328668 -0.012934466
-0.074296765 -0.027892476 -0.032013625 -0.029463861 0.03210487 -0.02513373 -0.0015659705 0.0414915
0.019402815 0.026406826 -0.03658856 0.028344467 -0.024345852 0.019816522 -0.007791855 -0.022623746
0.025308942 0.0076725227 -0.043474704 0.018006615 0.040900726 0.05999887 0.06796952 -0.03825032
-0.081067555 -0.02764438 -0.024856161 0.00039437978 -0.010352114 0.07268414 0.09325271 0.039830673
-0.055302262 0.034288567 -0.030386524 0.012133032 0.024089525 0.009944918 -0.020388585 0.011877524
0.0164293 -0.0034212845 0.10012639 -0.043124836 -0.14827496 -0.061484545 -0.02724823 -0.018041363
0.079232395 0.05397023 -0.0142815 0.032350346 -0.0661427 0.002290624 0.0047340677 -0.028885791
0.02792378 -0.06639037 0.0769638 0.009348334 -0.01282096 -0.002981964 -0.015958456 -0.053372674
0.041182075 0.03732306 -0.10441182 0.015646577 -0.009302313 0.04039375 0.015883762 0.05830053
-0.026124872 -0.028466068 -0.084696114 0.062147986 0.11228383 -0.066093795 0.027706632 0.13216919
0.0030280114 0.0060057873 0.037147556 0.03341985 0.07300876 0.07412063 0.14138237 -0.0082380595
0.052121893 0.07867261 0.064310096 -0.027156869 -0.07238926 9.4956795e-06 -0.047211602 0.039931413
0.024426328 0.013839138 -0.10341496 -0.1110625 -0.06255048 -0.1257371 0.06553088 0.013600599
0.05325156 -0.016350597 -0.10654238 -0.109329075 -0.05394717 -0.04560801 -0.07399435 0.022881247
0.039589904 -0.049951807 0.027701791 0.043060485 0.009213451 -0.0067281956 -0.030536989 0.032315493
0.0061037573 -0.0023705685 0.04260827 0.09413946 -0.030366197 -0.015355777 0.044295046 -0.009582582
-0.0053703394 0.070397675 -0.11196658 0.04187338 0.024770128 0.030902646 0.028374914 0.017617963
-0.06338359 0.013916864 0.042228933 -0.013184288 0.10778721 -0.0578602 -0.044298604 0.059229214
-0.018868284 -0.08213773 0.044842962 0.0022258442 -0.0031474617 -0.017812872 -0.04086639 -0.03228566
0.02032678 -0.0080822045 -0.018957967 0.10071684 -0.018599916 0.03247287 0.0030300156 0.002083639
0.0046273223 -0.03988905 0.025883598 0.0033820916 0.03370714 -0.005564495 -0.04119336 -0.02982139
-0.03466765 0.025798671 -0.028938483 0.027490802 0.059941728 0.024056617 0.03606077 -0.025610337
00000000: f804 31bd b061 5e3c 6cf4 003d 3a78 96bc
00000010: 67c6 8d3d 9a77 d53c e97e 7e3b 37cd ee3b
00000020: edac 3abc 8215 d83c 7370 80bc 7da5 b33c
00000030: 1574 34bd 4831 32bd d2e7 1bbd 9341 08bd
00000040: 4236 4fbd 78e4 1abd a6ef d83c b5ec ae3c
00000050: e4cc 033d 9e19 d43c 9e84 03bd f811 96bd
00000060: 8575 bb3c 309e 273d c15e a0bc 5899 af3c
00000070: 6978 67bb e97c 23bd caa1 89bd 9519 1ebd
00000080: 1e2b 6e3c 1fe3 ca3c 41bc f03b bfc7 e5bb
00000090: 8669 9abc ea8a 903c 4547 68bc 75f6 8e3c
000000a0: 4c1c 203d a500 453d 7d92 e43c 9ccb ea3c
000000b0: 50ef 03bd f38f 48bd 8a39 fabc a3ea 283a
000000c0: aae2 b3bc e42b 38bc 79ef 113c 9de1 f83b
000000d0: c850 0d3c 7d5f 84bd 4249 11bc 503f e53c
000000e0: 8314 1cbd 6998 833c f21f 3c3d e75c b43c
000000f0: e96a 613d e74a 723d 4e07 0e3b 470c a43a
00000100: b529 d73b 4a5a c4bb 21fa bebd 151f 2d3d
00000110: 82c4 93bc 5537 2cbc 96d7 1a3b d548 c73c
00000120: f38a dbbd 7b91 59bd 08b5 7e3d ea32 a53c
00000130: 2427 08bd 94c5 c73c 160d bfbd 15eb 53bc
00000140: e728 98bd c37e e4bc b820 03bd 325e f1bc
00000150: 6580 033d 41e5 cdbc 4041 cdba fef2 293d
00000160: a7f2 9e3c 2153 d83c e3dd 15bd a832 e83c
00000170: f470 c7bc 4256 a23c d152 ffbb 6f55 b9bc
00000180: b354 cf3c c969 fb3b 8812 32bd 9c82 933c
00000190: 8587 273d 60c1 753d 9b33 8b3d 5eac 1cbd
000001a0: bf06 a6bd 7876 e2bc 269f cbbc c2c4 ce39
000001b0: ea9b 29bc 6cdb 943d 47fb be3d 7d25 233d
000001c0: a084 62bd 2b72 0c3d 29ed f8bc a0c9 463c
000001d0: 6557 c53c 02f0 223c f605 a7bc f299 423c
000001e0: bd96 863c a137 60bb 110f cd3d aba3 30bd
000001f0: 64d5 17be 38d7 7bbd ae37 dfbc 7bcb 93bc
00000200: 9844 a23d e30f 5d3d f4fc 69bc cc81 043d
00000210: d375 87bd 4b1e 163b 3d20 9b3b e5a1 ecbc
00000220: 69c0 e43c adf7 87bd 329f 9d3d c129 193c
00000230: 010f 52bc 0e6d 43bb 4fbb 82bc 4e9d 5abd
00000240: 89ae 283d 11e0 183d ddd5 d5bd 402d 803c
00000250: bb68 18bc eb73 253d aa1e 823c 89cc 6e3d
00000260: d403 d6bc ac31 e9bc 2875 adbd e38e 7e3d
00000270: 11f5 e53d 2f5c 87bd 05f9 e23c 5c57 073e
00000280: 9a71 463b 32cc c43b 0928 183d 41e3 083d
00000290: 9e85 953d 8fcc 973d 8ac6 103e edf8 06bc
000002a0: c47d 553d 1b1f a13d 03b5 833d 1578 debc
000002b0: d240 94bd a24f 1f37 f460 41bd 1f8f 233d
000002c0: b919 c83c 8dbd 623c 39cb d3bd bc74 e3bd
000002d0: 771a 80bd 3ac1 00be 0e35 863d 0cd5 5e3c
000002e0: 4f1e 5a3d b0f1 85bc e432 dabd ece7 dfbd
000002f0: b5f7 5cbd 77cf 3abd 5a8a 97bd 7471 bb3c
00000300: 0629 223d 449a 4cbd deee e23c 3160 303d
00000310: 04f4 163c 3278 dcbb b528 fabc 405d 043d
00000320: 0702 c83b 8a5b 1bbb 0286 2e3d 30cc c03d
00000330: 88c2 f8bc cc96 7bbc b96e 353d 4300 1dbc
00000340: acf9 afbb a82c 903d bc4e e5bd 6c83 2b3d
00000350: b9ea ca3c 8c27 fd3c 8272 e83c 8c53 903c
00000360: 41cf 81bd 8f03 643c 3ff8 2c3d e902 58bc
00000370: 8abf dc3d d1fe 6cbd 7472 35bd 559a 723d
00000380: a991 9abc d437 a8bd 41ad 373d 78df 113b
00000390: a545 4ebb 4dec 91bc 8463 27bd f83d 04bd
000003a0: 5984 a63c 396b 04bc bd4d 9bbc a144 ce3d
000003b0: da5e 98bc 4602 053d 3a93 463b a98d 083b
000003c0: cba0 973b b362 23bd d709 d43c 15a6 5d3b
000003d0: 7f10 0a3d 5e56 b6bb 5eba 28bd fd4b f4bc
000003e0: aaff 0dbd bc57 d33c 6610 edbc 6434 e13c
000003f0: 7585 753d 6212 c53c 75b4 133d c5cc d1bc

fnn.bias f4 [10]
0.030146265 0.098548025 0.026119767 0.03534585 -0.06764271 -0.023454119 -0.001270003 0.012716793
-0.0028415276 -0.0037828165
00000000: 4df5 f63c 8cd3 c93d 1ff9 d53c cfc6 103d
00000010: 4388 8abd da22 c0bc 3b76 a6ba 195a 503c
00000020: ec38 3abb 21e9 77bb
