cnn/mnist/output/epoch_7.pt (torch, 202775 bytes, 6 tensors)

conv1.conv1.weight f4 [32, 1, 3, 3]
0	0xbe2454ad	-0.16047926
1	0x3bd800ee	0.0065919077
2	0x3cd4b22a	0.025963861
3	0xbe602e51	-0.21892668
4	0xbe9171fe	-0.28407282
5	0x3e371f54	0.17883044
6	0xbd337286	-0.04381039
7	0xbeb1cbe9	-0.34725884
8	0xbe39d590	-0.18147874
9	0xbb081e52	-0.0020770025
10	0x3d9771d2	0.073947564
11	0x3d422965	0.04740276
12	0xbda8cb5e	-0.08241914
13	0xbe40bce4	-0.18822056
14	0xbe778ad4	-0.24174052
15	0x3cc69789	0.02424218
16	0x3d9d79e4	0.076892644
17	0xbcc02fae	-0.023460235
18	0xbe50bfc9	-0.2038566
19	0xbcbaf050	-0.022819668
20	0xbbcf2dec	-0.006322613
21	0xbd720388	-0.0590854
22	0x3d070e05	0.032972354
23	0xbe8e6e7c	-0.27818668
24	0x3ce04446	0.027376305
25	0xbeb3926f	-0.35072657
26	0x3d0c2f9b	0.034225088
27	0xbe315221	-0.17316486
28	0xbe2768a7	-0.16348515
29	0xbe7c626e	-0.24646923
30	0x3e85c1a2	0.26124293
31	0xbe83cf18	-0.25743937
32	0xbe9e283c	-0.3089007
33	0xbe878a4e	-0.26472706
34	0x3d9b36d4	0.07578817
35	0xbd43a544	-0.04776503
36	0x3cb5489d	0.022129351
37	0x3dd3c62a	0.10340531
38	0xbebc34b8	-0.3675897
39	0x3ca05936	0.01957379
40	0xbe8b11f7	-0.27162144
41	0xbec9d4c5	-0.39420143
42	0xbd6d1fef	-0.057891782
43	0x3ce352bf	0.027749417
44	0x3d691896	0.056908213
45	0xbeaaf50d	-0.33390084
46	0xbe2c7ac7	-0.16843711
47	0xbe07448c	-0.13209742
48	0xbda6e486	-0.08149056
49	0x3dec116b	0.1152676
50	0x3ca535a4	0.02016718
51	0xbe2e9a4e	-0.1705105
52	0x3e1ad43d	0.15120025
53	0xbdc2d80e	-0.095138654
54	0x3cca7c87	0.024717582
55	0xbddd0174	-0.10791293
56	0x3c1bb3d3	0.009503323
57	0xbeb80162	-0.35938555
58	0xbe4c65ae	-0.19960663
59	0xbeab903b	-0.33508477
60	0xbd9dff99	-0.07714767
61	0x3dcee7ac	0.10102782
62	0x3cc2eb4f	0.023793845
63	0x3de040a6	0.10949831
64	0xbda7326e	-0.081639156
65	0x3cd86afc	0.026418202
66	0xbe65ebee	-0.22453281
67	0x3d864aa5	0.06557206
68	0x3dd28c4d	0.102806665
69	0x3df3f302	0.119115844
70	0x3e23ddb4	0.16002542
71	0xbed2422b	-0.41066107
72	0xbd7268b5	-0.059181888
73	0x3d363ce9	0.044491682
74	0xbe741385	-0.23835571
75	0x3b1d1947	0.0023971365
76	0x3dbef96e	0.09324919
77	0x3d3f640b	0.046726268
78	0x3cb7533a	0.022378553
79	0x3c6169e1	0.013758154
80	0x3cfadf73	0.030624127
81	0xbdc57cdd	-0.096429564
82	0xbe98bbde	-0.2983083
83	0xbdf81543	-0.1211343
84	0x3e84bd3b	0.2592562
85	0xbe948f0c	-0.29015386
86	0xbf120da6	-0.57052076
87	0xbdf93de9	-0.121700116
88	0xbd53b199	-0.051683042
89	0xbdd7ec85	-0.105431594
90	0x3d489000	0.048965454
91	0x3dd60185	0.104495086
92	0xbe8a92f6	-0.27065247
93	0xbd87af52	-0.066252366
94	0xbdd17f6e	-0.102293834
95	0xbd0c8adc	-0.034312114
96	0x3d3ec890	0.04657799
97	0xbd819279	-0.063267656
98	0x3d7ed52c	0.062215015
99	0xbba72cf7	-0.005101796
100	0xbd68ea88	-0.05686429
101	0xbe173fc6	-0.14770421
102	0xbe2daaae	-0.1695964
103	0xbc53f04d	-0.01293571
104	0xbc39a00f	-0.011329665
105	0x3d09a00d	0.033599902
106	0x3c9ea68d	0.019366527
107	0xbca8f479	-0.020624386
108	0xbed95873	-0.42450294
109	0xbd8a898f	-0.067645185
110	0xbcf324a6	-0.029680561
111	0xbe6d1ccd	-0.23155518
112	0x3d361709	0.04445556
113	0x3ca31e4d	0.01991191
114	0xbe02f0b8	-0.1278714
115	0x3e0ff0ca	0.14056697
116	0xbe7227e0	-0.23648024
117	0xbeb70ec4	-0.35753453
118	0xbde941e9	-0.113895245
119	0xbc91a0ae	-0.017776813
120	0x3d4505e0	0.048101306
121	0xbd5c1183	-0.053727638
122	0xbe455202	-0.19269565
123	0x3e0a72a7	0.13520299
124	0x3ce877be	0.02837741
125	0x3cf994e9	0.030466514
126	0x3bf06bfd	0.007337092
127	0xbe228ff6	-0.15875229
128	0x3d33b27d	0.04387139
129	0x3dd8c69a	0.10584755
130	0xbe847d7c	-0.25876987
131	0xbd188cc8	-0.037243634
132	0x3b8c2b63	0.004277633
133	0x3d6ab133	0.057297897
134	0xbd3306ad	-0.04370754
135	0xbccbc4c4	-0.024874099
136	0x3e186b7e	0.14884755
137	0xbe9c8cf0	-0.30576277
138	0xbe1abb30	-0.15110469
139	0x3daef33b	0.08542486
140	0x3e07bd56	0.1325582
141	0xbd751e18	-0.059843153
142	0xbd4ab405	-0.049488086
143	0xbd97a6b4	-0.07404843
144	0xbeb0ae9b	-0.34508213
145	0x3e151651	0.14559294
146	0xbe2efe73	-0.17089252
147	0xbd191321	-0.03737176
148	0x3e398f0c	0.18120974
149	0xbdcc88cd	-0.0998703
150	0xbe1190a3	-0.14215331
151	0xbc8ee523	-0.017443245
152	0xbda8e651	-0.08247054
153	0x3d4916e6	0.049094103
154	0xbd02a232	-0.031892963
155	0xbe427b63	-0.18992381
156	0x3de7ef67	0.11324959
157	0xbdcf6f97	-0.10128706
158	0x3c84e7e2	0.016223852
159	0x3d6e4ec3	0.05818058
160	0xbd1005b1	-0.035161678
161	0xbd11b377	-0.03557154
162	0xbe53572d	-0.20638724
163	0xbe50154c	-0.20320624
164	0x3b151bdc	0.0022752201
165	0xbe443740	-0.19161701
166	0xbdcace3b	-0.099026166
167	0xbd12ce0b	-0.03584103
168	0xbecb3ea4	-0.39696229
169	0xbbaf523f	-0.0053503807
170	0x3dcaa73e	0.0989518
171	0x3dd96c9b	0.10616418
172	0xbe24d164	-0.16095501
173	0xbe841f75	-0.2580525
174	0xbe401cbc	-0.18760961
175	0xbe0f8fe7	-0.14019738
176	0x3db217ce	0.08695947
177	0xbe318d1f	-0.1733899
178	0x3e1df38b	0.15424936
179	0x3bff9c39	0.0078006056
180	0xbed5d8c2	-0.41766936
181	0xbe645147	-0.2229663
182	0xbe85792d	-0.26069012
183	0xbd0acb4c	-0.033885285
184	0xbd1c7563	-0.038197886
185	0x3dcb3bbb	0.09923502
186	0xbbee1ee6	-0.007266867
187	0xbeb2d239	-0.34926012
188	0xbba316e8	-0.004977096
189	0xbc77adb0	-0.015117094
190	0xbc1c49cf	-0.009539082
191	0x3dbc080f	0.091812246
192	0x3d566033	0.052337836
193	0x3df54dc9	0.11977727
194	0xbdbc1dd5	-0.091853775
195	0xbe80b773	-0.2513996
196	0xbda08408	-0.07837683
197	0xbe040299	-0.12891616
198	0xbd36eb3f	-0.044657942
199	0xbe8c49e0	-0.27400112
200	0xbe1c9317	-0.15290485
201	0xbda7e237	-0.08197444
202	0x3e59ce64	0.21270138
203	0x3e233068	0.15936434
204	0x3d30ccf1	0.043164197
205	0xbe8eadf6	-0.27867097
206	0xbc127975	-0.00894009
207	0x3da53f5b	0.08068725
208	0xbe592d0e	-0.21208593
209	0xbe07957b	-0.13240616
210	0xbcb76fba	-0.022392143
211	0xbea0203c	-0.31274593
212	0x3e5f1f54	0.21789294
213	0x3d9f9eeb	0.07793983
214	0xbee3f473	-0.44522437
215	0xbeca6def	-0.39536998
216	0xbe045f50	-0.12926984
217	0xbd10cb65	-0.035350222
218	0x3c908e88	0.01764609
219	0x3dd53988	0.10411364
220	0x3dd571ac	0.10422072
221	0xbe2015ab	-0.15633266
222	0xbd9bc629	-0.076061554
223	0xbe36cb37	-0.17850958
224	0xbd98ae49	-0.07455117
225	0x3c947fa7	0.018127276
226	0x3da5ede9	0.081020184
227	0x3d25dead	0.040495563
228	0xbe435b62	-0.19077829
229	0x3dd7e769	0.10542185
230	0xbc85cd62	-0.016333286
231	0xbe7aaae3	-0.2447925
232	0xbd20f4b8	-0.039295882
233	0xbdce9e1a	-0.10088749
234	0xbe03eb89	-0.12882818
235	0xbe9a0b56	-0.30086774
236	0xbdb879c0	-0.09007597
237	0x3c001caf	0.007819339
238	0xbdcaea70	-0.09907997
239	0xbe10a074	-0.14123708
240	0x3c10d94c	0.00884087
241	0x3acf6123	0.0015821796
242	0xbe8cc2fd	-0.27492514
243	0xbe9fa71f	-0.3118219
244	0xbdef8104	-0.1169453
245	0x3c7ef932	0.0155623425
246	0xbd82c795	-0.063857235
247	0x3d4129cb	0.047158998
248	0xbe9be1fd	-0.30445853
249	0xbbdbf0f0	-0.0067120716
250	0xbd5593eb	-0.05214302
251	0xbc3bd600	-0.011464596
252	0x3cbea9fc	0.023274414
253	0xbd369e23	-0.044584405
254	0xbc8fff56	-0.017577808
255	0xbe04e5ae	-0.12978241

conv1.conv1.bias f4 [32]
0	0xbdf8353d	-0.121195294
1	0xbf036a1f	-0.513338
2	0x3d89b7b5	0.067244925
3	0xbca135a1	-0.019678893
4	0x3ef0d692	0.47038704
5	0x3ecdea28	0.4021771
6	0xbf49fea8	-0.789042
7	0xbe1f4d5d	-0.15556855
8	0x3ec3c1ea	0.38233882
9	0xbcf0b20a	-0.02938177
10	0xbf7a6274	-0.9780648
11	0xbf07bdf9	-0.5302425
12	0x3dba6507	0.09101301
13	0x3e817986	0.25288028
14	0x3ebfae06	0.37437457
15	0xbf250cb9	-0.6447254
16	0xbec236d7	-0.37932464
17	0x3ee2581d	0.4420785
18	0x3e92a24f	0.28639457
19	0x3e33dc8e	0.17564604
20	0xbe906131	-0.2819915
21	0xbefbf4cc	-0.49210203
22	0x3ec2dece	0.3806061
23	0x3ead1a9d	0.33809367
24	0xbee22c54	-0.44174445
25	0xbed9c0c3	-0.42529878
26	0x3e34d921	0.17660953
27	0x3e4d79a1	0.20065929
28	0xbf3ece89	-0.745339
29	0xbea279b0	-0.31733465
30	0x3eb01e38	0.34398055
31	0xbd19c30d	-0.03753953

conv2.0.weight f4 [64, 32, 3, 3]
0	0x3d3812ff	0.04493999
1	0xbe2acce0	-0.16679716
2	0xbd1e115a	-0.038590766
3	0xbdfc9b4e	-0.123343095
4	0xbd72ccf9	-0.05927751
5	0xbd50cf58	-0.05097899
6	0x3b9ff8a3	0.0048819347
7	0xbd622901	-0.055214886
8	0xbd1f829f	-0.03894293
9	0x3c6e6bce	0.01455207
10	0xbc9744b4	-0.018465377
11	0xbd6137b4	-0.054984763
12	0xbd8a5e82	-0.06756307
13	0xbd69187c	-0.056908116
14	0xbd928f62	-0.07156254
15	0xbda5782e	-0.08079563
16	0xbdeaea9c	-0.114705294
17	0xbd396276	-0.045259915
18	0xbca71568	-0.02039595
19	0xbdcce836	-0.10005228
20	0x3bf63c71	0.0075145294
21	0xbdc17eda	-0.09448023
22	0xb8057add	-3.1824096e-05
23	0xbd8a9a9b	-0.0676777
24	0x3d5aada7	0.053388264
25	0xbd668e94	-0.056288317
26	0xbc531ee3	-0.012885782
27	0x3c556a8c	0.013025891
28	0xbd7f91d6	-0.06239494
29	0x3993a793	0.00028162877
30	0x3c7ad65b	0.015309895
31	0xbd819872	-0.06327905
32	0x3cee4587	0.029085888
33	0xbd2dc625	-0.042425293
34	0x3c2f34a9	0.0106937075
35	0x3c291bae	0.010321541
36	0xbca79654	-0.020457424
37	0xbd4edc1d	-0.050502885
38	0xbcb07995	-0.02154235
39	0xbda442dd	-0.08020566
40	0xbca8deb6	-0.02061401
41	0xbc92bc55	-0.01791207
42	0x3cd16ed9	0.025565552
43	0xbd9745fd	-0.07386396
44	0xbc20f35a	-0.0098236445
45	0x3c6d4eb5	0.014484097
46	0xbb24ab6b	-0.0025126587
47	0xbd395ecc	-0.04525642
48	0xbd433125	-0.04765429
49	0xbd1deab6	-0.038553916
50	0xbcd4aeee	-0.02596232
51	0x3c09f4bf	0.008420168
52	0xbdbc1f4d	-0.09185658
53	0xbbf7faec	-0.007567754
54	0x3ce2ec27	0.027700497
55	0xbe062a06	-0.13101968
56	0xbd2d35e9	-0.04228774
57	0x3c85f828	0.016353682
58	0xbc3c2d67	-0.011485434
59	0xbcda9e10	-0.026686698
60	0xbd155da6	-0.036466263
61	0x3c4a149d	0.012334016
62	0xbd1a9b1c	-0.03774558
63	0xbdc0a86e	-0.094071254
64	0xbd1db5bc	-0.038503394
65	0xbe0f15d8	-0.13973176
66	0xbd73df4b	-0.05953912
67	0xbe003e54	-0.12523776
68	0xbde6cfe0	-0.11270118
69	0xbcf8440d	-0.030305887
70	0xbd86bdbc	-0.06579158
71	0xbe50d402	-0.20393375
72	0xbd89e6a0	-0.06733441
73	0x3d5464e1	0.051854018
74	0x3d3a5044	0.045486704
75	0x3d3bb229	0.045824204
76	0xbd639fba	-0.05557225
77	0xbc7908e9	-0.015199878
78	0xbd7cda9a	-0.061731912
79	0xbd0f37a5	-0.034965176
80	0xbdecd34a	-0.11563738
81	0xbdac1c8b	-0.08403882
82	0xbba3adf5	-0.0049951025
83	0xbca213e2	-0.019784871
84	0xbc17a898	-0.0092565045
85	0xbce3ee96	-0.027823728
86	0xbc826766	-0.015918445
87	0x3d4f649a	0.05063305
88	0xbd887aac	-0.06664023
89	0xbd6be660	-0.05759275
90	0x3d2aa3fa	0.041660286
91	0xbce43bc1	-0.027860524
92	0x3cca3d3d	0.024687404
93	0xbdc205c1	-0.09473754
94	0xbc34a427	-0.011025465
95	0xbdf51626	-0.11967115
96	0x3beedecc	0.007289743
97	0xbdbe286f	-0.09285056
98	0xbd8a8135	-0.067629255
99	0xbdee09ba	-0.11622949
100	0x3cb1977b	0.021678677
101	0xbca3a3d1	-0.019975575
102	0x3d0fcbaa	0.03510634
103	0x3cbbe93d	0.022938365
104	0xbd28d52b	-0.041218918
105	0xbd63d27e	-0.055620663
106	0xbcc392e4	-0.023873754
107	0xba74b994	-0.00093355146
108	0xbbdf7837	-0.0068197506
109	0xbc4134f8	-0.011792414
110	0x3cbd9d6d	0.023146356
111	0xbd8a78db	-0.067613326
112	0x3ca912ea	0.020638902
113	0xbcd8c0c3	-0.026459103
114	0xbd1f8ec2	-0.038954504
115	0x3cf5c717	0.03000216
116	0xbc18fbd7	-0.009337387
117	0x3cce4262	0.025178138
118	0x3c8b6b95	0.017019073
119	0x3cc4f752	0.024043713
120	0xbcf3c73b	-0.029758086
121	0x3ccc8d15	0.024969617
122	0xbd391fe6	-0.045196436
123	0xbd8f41f4	-0.069950014
124	0xbcb556d6	-0.022136133
125	0xbd2009ce	-0.03907185
126	0xbd1d3991	-0.038384978
127	0xbdaa4134	-0.08313218
128	0x3e1879a5	0.14890154
129	0xbd0a43f8	-0.033756226
130	0xbd6a1930	-0.057152927
131	0xbce487fd	-0.027896876
132	0xbdd38cb2	-0.1032957
133	0xbd2c9765	-0.04213657
134	0xbdd2f16c	-0.10299954
135	0xbda6239e	-0.08112262
136	0x3dbde092	0.09271349
137	0xba2c5061	-0.00065732567
138	0x3ae49765	0.0017440139
139	0xbca8afa7	-0.02059157
140	0xbd4048ff	-0.046944614
141	0xbd29af8e	-0.041427188
142	0x3c04d664	0.008107755
143	0x3d4af689	0.04955152
144	0xbd951146	-0.07278685
145	0xbbd3a129	-0.006458421
146	0x3cb82c73	0.022482133
147	0x3d253c37	0.04034063
148	0xbc98ab42	-0.01863635
149	0x3b7014a9	0.0036633408
150	0x3da96460	0.08271098
151	0xbe16354d	-0.1466877
152	0xbb4c68e0	-0.003119044
153	0xbd61d35f	-0.05513322
154	0xbdbeaa01	-0.093097694
155	0x3d074f33	0.033034515
156	0xbd72c694	-0.05927141
157	0xbdc8c4b4	-0.09803143
158	0xbcf32601	-0.029681208
159	0x3d24fcbf	0.0402801
160	0xbd81d57d	-0.06339548
161	0xbda0889d	-0.07838557
162	0x3e042808	0.12905896
163	0x3d68653c	0.05673717
164	0xbd211495	-0.03932627
165	0x3d3e870f	0.04651552
166	0x3c9fa3c5	0.019487271
167	0xbd2cc6fe	-0.04218196
168	0x3d0a497d	0.03376149
169	0x3cc7a8f8	0.024372563
170	0xbddd14b4	-0.107949644
171	0x3dd6b531	0.10483778
172	0x3c65d976	0.0140288975
173	0xbd97f966	-0.07420616
174	0x3d9bfdc5	0.07616762
175	0x3daab2ff	0.08334922
176	0xbde05ef5	-0.109556116
177	0xbd3ec9e0	-0.04657924
178	0xbd8f69c0	-0.07002592
179	0x3b269c7b	0.002542286
180	0xbcd99b55	-0.026563326
181	0x3d5df473	0.054188203
182	0xbda4812b	-0.08032449
183	0x3d81589c	0.06315729
184	0xbdb779e1	-0.089587934
185	0xbce49eba	-0.027907718
186	0xbc3c3232	-0.011486577
187	0xbcf1aa05	-0.029500017
188	0x3be3e44c	0.0069547053
189	0xbbf3fac2	-0.007445664
190	0xbd989db8	-0.074519575
191	0xbd484f9d	-0.04890405
192	0xbd5b42de	-0.053530566
193	0xbd2ebd57	-0.042661037
194	0xbd496c62	-0.049175628
195	0xbcf2b3ab	-0.029626688
196	0xbd5ad753	-0.053428005
197	0xbd444bea	-0.04792396
198	0x3d4bb380	0.04973173
199	0xbd4a9d6d	-0.04946654
200	0x3d9b0020	0.07568383
201	0xbd72fdcd	-0.059324075
202	0x3bc710b2	0.0060749883
203	0x3b637fec	0.0034713699
204	0x3d996e17	0.07491701
205	0xbd8fc163	-0.070193075
206	0xbd94334c	-0.072363466
207	0xbd078b92	-0.03309209
208	0xbd426932	-0.047463603
209	0xbc942df5	-0.01808832
210	0x3affa3fa	0.0019503825
211	0x3d494953	0.049142193
212	0xbd801e62	-0.06255795
213	0xbce41f15	-0.027846852
214	0x3acc26ce	0.001557553
215	0xbd92a5aa	-0.07160504
216	0xbd8b46c9	-0.068006106
217	0x3a1e4885	0.0006038028
218	0xbd1d6076	-0.03842207
219	0xbd88802f	-0.06665074
220	0xbccf240e	-0.025285747
221	0xbcc4fe6e	-0.024047103
222	0xbbd02d7a	-0.0063530775
223	0xbd380283	-0.04492427
224	0xbdd1cd0f	-0.1024419
225	0xbdc90cbf	-0.09816884
226	0x3dda0e23	0.106472276
227	0x3c4061ee	0.011742098
228	0xbe1927ee	-0.14956638
229	0xbcb2bd1c	-0.02181869
230	0x3c74c1b1	0.014938758
231	0xbde2a471	-0.11066521
232	0xbcc8d823	-0.024517125
233	0x3d33a6cd	0.043860245
234	0x35e36f84	1.6945273e-06
235	0xbcfd770b	-0.030940553
236	0xbca40d60	-0.020025909
237	0xbd19f4c4	-0.037586942
238	0xbd90daf2	-0.070730105
239	0xbd8f2c56	-0.06990878
240	0xbd024140	-0.03180051
241	0x3d258e65	0.040419
242	0x3ce6902a	0.028144915
243	0xbb9b37bc	-0.0047368687
244	0x3cdfe365	0.02733011
245	0xbc994920	-0.018711627
246	0xbc984ba0	-0.018590748
247	0xbdae5479	-0.08512206
248	0xbcb634ce	-0.022241976
249	0xbd132ed1	-0.03593332
250	0x3c476310	0.012169614
251	0xbccd2626	-0.025042605
252	0xbc952f59	-0.018211054
253	0x3d24cd8f	0.0402351
254	0xbcc9a626	-0.024615359
255	0x3d299259	0.041399334

conv2.0.bias f4 [64]
0	0xbe1eba4d	-0.15500756
1	0x3d07a8a4	0.033119813
2	0xbdf86e45	-0.12130407
3	0xbcae4661	-0.021273794
4	0xbd54eba2	-0.05198253
5	0xbdf79cb9	-0.12090439
6	0xbe0142f1	-0.12623192
7	0xbe272673	-0.16323261
8	0xbebf900a	-0.3741458
9	0xbd83dd79	-0.06438727
10	0xbdff3b74	-0.12462512
11	0xbdbe4885	-0.09291176
12	0xbd99ad39	-0.07503743
13	0xbdb5b2c5	-0.08871988
14	0xbde90a75	-0.11378948
15	0xbd16dc48	-0.03683117
16	0xbccbd29f	-0.024880705
17	0xbda3271b	-0.07966443
18	0xbe02c6fd	-0.1277122
19	0xbe903da5	-0.2817203
20	0xbe44c9fb	-0.19217674
21	0xbe2e457d	-0.17018695
22	0xbe02cc70	-0.12773299
23	0xbdbb6675	-0.091504015
24	0xbe14ca87	-0.14530383
25	0xbd3893de	-0.045062892
26	0xbe89adf4	-0.26890528
27	0xbdd0a0f1	-0.10186947
28	0xbe0c1ba5	-0.1368242
29	0xbe2c3c7e	-0.16819951
30	0xbe16fa5d	-0.14743944
31	0xbd8881b4	-0.06665364
32	0xbdbc4f8b	-0.09194859
33	0xbe7ed848	-0.24887192
34	0xbdfb3298	-0.12265509
35	0xbc23db7f	-0.010001062
36	0xbd1c37b1	-0.03813905
37	0xbd2e32d1	-0.04252893
38	0xbde1e984	-0.11030868
39	0xbe00760b	-0.1254503
40	0xbd49211d	-0.049103845
41	0xbc5e63d2	-0.013573604
42	0x3cd6d767	0.026225759
43	0xbe298368	-0.16554034
44	0xbdc10230	-0.09424245
45	0xbd89ab0d	-0.067220785
46	0xbe319d72	-0.17345217
47	0xbe00112a	-0.12506548
48	0xbdf3cf77	-0.11904805
49	0xbd93cad0	-0.07216418
50	0xbcd0df11	-0.025496991
51	0xbdb55ccc	-0.0885559
52	0xbd80055a	-0.06251021
53	0x3cc1cf9c	0.023658566
54	0xbe148e6c	-0.14507455
55	0xbcf306b0	-0.029666275
56	0xbd112d51	-0.035443608
57	0xbde68c48	-0.11257225
58	0xbd102ff8	-0.035201997
59	0xbe542eba	-0.2072095
60	0xbd51fc60	-0.051266074
61	0xbdcf78b9	-0.10130448
62	0xbe148168	-0.1450249
63	0xbd82e9ec	-0.06392273

fnn.weight f4 [10, 3136]
0	0xbd3104f8	-0.04321763
1	0x3c5e61b0	0.013573095
2	0x3d00f46c	0.0314831
3	0xbc96783a	-0.018367875
4	0x3d8dc667	0.06922608
5	0x3cd5779a	0.026058007
6	0x3b7e7ee9	0.0038832969
7	0x3bee19b1	0.0072662462
8	0xbd0e333c	-0.03471683
9	0x3dbd2181	0.09234906
10	0xbdc50795	-0.09620587
11	0x3d98e0de	0.07464765
12	0xbd347415	-0.044056017
13	0xbd323148	-0.04350403
14	0xbd397cdc	-0.04528509
15	0x3c42f5ba	0.011899406
16	0xbc5f54d9	-0.013631069
17	0xbbfbf626	-0.0076892553
18	0x3d81a3ca	0.063300684
19	0x3caeed57	0.021353407
20	0x3d03cce4	0.03217782
21	0x3cdec0d0	0.02719155
22	0xbd543d3b	-0.051816206
23	0xbd133756	-0.035941444
24	0xbc99e463	-0.018785661
25	0xbc156bab	-0.009119908
26	0xbb0dd8a3	-0.0021644018
27	0x3caf9954	0.021435417
28	0xbb4aeeec	-0.0030965162
29	0xbd203593	-0.039113592
30	0xbe31591c	-0.17319149
31	0x3c08dab3	0.008352923
32	0x3b737eaf	0.0037154367
33	0x3ccc9824	0.02497489
34	0x3bf0fd35	0.0073544034
35	0xbbe2c80f	-0.0069208215
36	0xbc95fb9d	-0.018308455
37	0x3d1e88e6	0.038704775
38	0xbcadc470	-0.021211833
39	0x3c8724e6	0.016497087
40	0x3d20546c	0.03914301
41	0x3d35cda5	0.04438557
42	0x3ce492a6	0.027901959
43	0x3cead711	0.028667005
44	0xbd02bff4	-0.031921342
45	0xbd4eb9c3	-0.050470125
46	0xbd08fd13	-0.033444475
47	0xbaa19d0f	-0.0012330132
48	0xbcd324b4	-0.025774337
49	0xbc382be4	-0.011240933
50	0x3c11ef79	0.008907192
51	0x3d210095	0.039307196
52	0x3c0c8e3e	0.008578835
53	0xbd84e5ea	-0.06489165
54	0xbc114942	-0.008867564
55	0x3ce53f50	0.027984291
56	0xbd1c1483	-0.0381055
57	0x3cc6a68d	0.02424934
58	0x3d4b1a04	0.049585357
59	0x3c52cfbb	0.01286691
60	0x3d8c14f4	0.06839934
61	0x3d723812	0.059135504
62	0x3b0e071d	0.002167172
63	0x3aa416b2	0.0012518971
64	0x3d742c0a	0.05961231
65	0x3d78f2d4	0.060778454
66	0xbe082adf	-0.13297604
67	0x3d8122ef	0.06305491
68	0xbc8f5fef	-0.0175018
69	0xbc2c3735	-0.010511209
70	0x3ab8d441	0.0014101343
71	0x3c9b8513	0.018984353
72	0xbd2b41ae	-0.041810684
73	0xbe061c6a	-0.13096777
74	0x3d86be0d	0.06579218
75	0x3d669c50	0.056301415
76	0xbc2208e9	-0.00988982
77	0x3d2c544a	0.04207257
78	0xbd951f66	-0.072813794
79	0x3c10594b	0.008810352
80	0xbdb75c04	-0.089530975
81	0xbd305330	-0.043048084
82	0x3cfeeebb	0.031119695
83	0xbcf15e32	-0.029463861
84	0x3d03a6d9	0.03214154
85	0xbd68be2d	-0.05682199
86	0xbc3f9f3b	-0.011695678
87	0x3d32faa4	0.04369606
88	0x3c9e6b9b	0.01933842
89	0x3caed342	0.02134097
90	0xbd15dde3	-0.03658856
91	0x3ce832a8	0.028344467
92	0xbcc770f4	-0.024345852
93	0x3ca25642	0.019816522
94	0xbbff52d1	-0.007791855
95	0xbcb9556f	-0.022623746
96	0x3ccf54b3	0.025308942
97	0x3bfb69c9	0.0076725227
98	0xbd321288	-0.043474704
99	0x3c92ad4d	0.017904902
100	0x3cac5136	0.021034818
101	0x3d6425f1	0.055700246
102	0x3e02a8cd	0.12759705
103	0xbc8f6352	-0.017503414
104	0xbd355b54	-0.04427655
105	0xbce2823c	-0.027649991
106	0xbcae832b	-0.02130278
107	0xb95bf6be	-0.00020977386
108	0x3c81cb6d	0.015844071
109	0x3da3d8fd	0.080003716
110	0x3d1e81f1	0.03869814
111	0x3c0dd775	0.008657326
112	0xbd6288cb	-0.055306237
113	0x3c88df75	0.016708115
114	0xbd68a5d4	-0.05679877
115	0x3c45c640	0.012071192
116	0xbc7e04cb	-0.015504072
117	0x3dc822c9	0.0977226
118	0xbd53d141	-0.051713232
119	0x3c78700e	0.015163435
120	0x3c7f2bb7	0.015574387
121	0x3bc8ae47	0.006124291
122	0x3dd120fa	0.10211368
123	0xbd337800	-0.043815613
124	0xbe401420	-0.18757677
125	0xbde33f57	-0.110960655
126	0xbcdf5d7e	-0.02726626
127	0xbc96e0a7	-0.01841767
128	0x3df6f77c	0.12058923
129	0x3d62e54d	0.05539446
130	0xbd488a45	-0.04895999
131	0x3d6f5400	0.058429718
132	0xbda94070	-0.082642436
133	0x3b0fc9c7	0.0021940337
134	0x3ce84091	0.0283511
135	0xbcfe6afa	-0.03105687
136	0x3d15cc4f	0.036571797
137	0x3b57adbd	0.0032909953
138	0x3d8b1138	0.067903936
139	0xbbe6bbd2	-0.007041433
140	0xbb954849	-0.004555736
141	0xbd9b0841	-0.07569934
142	0x3d7d1f81	0.061797623
143	0xbce5454d	-0.027987147
144	0x3cebd10d	0.028786207
145	0x3aad7c60	0.0013235919
146	0xbe08710f	-0.13324378
147	0x3c802d40	0.015646577
148	0xbc17e3b0	-0.0092705935
149	0x3b9e4f68	0.0048312433
150	0xbadd0db9	-0.0016865052
151	0x3db0d3fb	0.08634182
152	0xbcff5514	-0.031168498
153	0xbd15f978	-0.036614865
154	0xbdeea687	-0.11652856
155	0x3d394797	0.04523429
156	0x3e1e75ee	0.15474674
157	0x3c9cbf96	0.019134324
158	0x3caac0b4	0.020843841
159	0x3dc92904	0.09822276
160	0xbb92e2b2	-0.0044825906
161	0x3ad63329	0.0016342151
162	0xbb05420a	-0.0020333552
163	0x3d80c0ec	0.06286797
164	0x3d4bcbf3	0.049755048
165	0x3e02a367	0.12757646
166	0x3e325e48	0.17418778
167	0xbd86a0e0	-0.06573653
168	0x3cad40c4	0.021149047
169	0x3d874c70	0.06606376
170	0x3cb6afc0	0.022300601
171	0xbd0d93c7	-0.03456476
172	0xbd85cad9	-0.06532831
173	0x3ca6e3ff	0.020372389
174	0xbd86ddf4	-0.06585303
175	0x3c8c5125	0.017128536
176	0x3d205963	0.039147746
177	0x3ce9ec79	0.028555142
178	0xbe2ab604	-0.16670996
179	0xbe2e7a67	-0.1703888
180	0xbd35a2f6	-0.044344865
181	0xbdf2626b	-0.11835178
182	0x3d9bd2c6	0.07608561
183	0x3c498d7a	0.012301797
184	0x3cbe6e4a	0.02324595
185	0xbd392648	-0.045202523
186	0xbe413ab6	-0.18870053
187	0xbd973a83	-0.07384207
188	0xbcb6680f	-0.022266416
189	0xbd70bed2	-0.05877573
190	0xbd97b4d7	-0.07407539
191	0x3cb22e36	0.02175055
192	0x3acd9fc3	0.0015687871
193	0xbd6340e9	-0.055481825
194	0x3d582ad5	0.052775223
195	0x3d2ba466	0.04190483
196	0xbc1ef975	-0.00970303
197	0x3c8718b1	0.016491266
198	0x3adf395f	0.0017030648
199	0x3d032433	0.032016944
200	0x3bc80207	0.0061037573
201	0xbb1b5b8a	-0.0023705685
202	0x3d2e8602	0.04260827
203	0x3e1a8134	0.1508835
204	0x3d1b183f	0.03786492
205	0xbbce5312	-0.006296524
206	0x3d2b40cb	0.04180984
207	0xbc1e03a9	-0.009644427
208	0xbbc8f19a	-0.006132317
209	0x3d8fc508	0.070200026
210	0xbdac6131	-0.08416975
211	0x3d93bbc9	0.072135516
212	0xbc5148ff	-0.012773751
213	0x3d74763c	0.05968307
214	0x3ce52676	0.027972441
215	0x3bb02c5e	0.0053763827
216	0xbdb78c6c	-0.0896233
217	0x3cc01adb	0.023450306
218	0x3d9efd49	0.07763154
219	0xbce3adb0	-0.027792782
220	0x3e1b3b6e	0.1515939
221	0xbd554491	-0.052067343
222	0xbd340a65	-0.043955225
223	0xbc2647f2	-0.010148989
224	0xbbf9df86	-0.007625523
225	0xbdb20b14	-0.08693519
226	0x3d72ffd0	0.059325993
227	0x3c0b5973	0.008505213
228	0xbbb19522	-0.0054193893
229	0xbccab724	-0.024745531
230	0x3c44fa9d	0.0120226415
231	0xbcec4874	-0.028843142
232	0x3ca06471	0.019579144
233	0xbc160afb	-0.009157891
234	0xbd345c90	-0.044033587
235	0x3de4935b	0.11160918
236	0xbd0d7cae	-0.034542732
237	0x3d931194	0.07181087
238	0x3d223b89	0.03960756
239	0xb979c6e6	-0.00023820586
240	0x3b82ce7d	0.0039919005
241	0xbd93f900	-0.07225227
242	0x3d9413f5	0.07230369
243	0xbcc86fd6	-0.02446739
244	0x3d666272	0.05624623
245	0xbbb6565e	-0.005564495
246	0xbd289df9	-0.04116628
247	0xbcf44b97	-0.0298212
248	0xbd094b90	-0.033519328
249	0x3d16eca0	0.036846757
250	0xbd09678c	-0.033546016
251	0x3cee8f84	0.029121168
252	0x3d758575	0.059941728
253	0x3cc4fc00	0.024045944
254	0x3d13c367	0.036075022
255	0xbd4809e8	-0.048837572

fnn.bias f4 [10]
0	0x3d2e1a97	0.042505827
1	0x3df8c74a	0.12147386
2	0x3c5e7fe2	0.013580294
3	0x3d072341	0.032992605
4	0xbdcd38f0	-0.100206256
5	0xbc9e77ef	-0.019344298
6	0xbb2abf5b	-0.0026053998
7	0x3cacb433	0.02108202
8	0xbc2c619d	-0.01052132
9	0x3c33bfe0	0.0109710395
