cnn/mnist/output/epoch_8.pt (torch, 202775 bytes, 6 tensors)

conv1.conv1.weight f4 [32, 1, 3, 3]
00000000: 2973 36be 5ba5 e3bc 6a25 ca3c 945f 7cbe
00000010: 2e8c 8bbe 8643 3d3e 2be1 62bd 82d5 c4be
00000020: 711d 30be e774 5e3c d23e aa3d 712e 633d
00000030: 2791 86bd 4d05 23be b2de 7fbe 9b7d 1f3c
00000040: 97a6 8a3d d88b 3dbd f360 2fbe 7573 e4bc
00000050: dda2 adbc be7c 5bbd c9a8 f03c cc53 86be
00000060: 3fbd 093d 8314 b5be 59de c33c d6b8 53be
00000070: aa96 00be 2517 39be 8b2f 793e 53c7 69be
00000080: 3b77 8ebe 6f66 86be 3175 643d c00c 8abd
00000090: 130a 803c fd1c a63d 462a cfbe 5351 223c
000000a0: 6638 98be 1248 c0be fc09 92bd 45b7 ed3c
000000b0: c064 723d b7cc c0be 862b 3abe dc20 33be
000000c0: d350 b9bd 5191 c03d 4e24 13bb 8adb 4bbe
000000d0: f6f0 043e e946 e2bd 3311 703d ce95 93bc
000000e0: a9ac 8b3b bbfe c2be 2d34 76be 3b10 b3be
000000f0: b050 d5bd bde6 8d3d ca49 c83c 6242 ca3d
00000100: 6ae5 9abd 2a69 4c3c bc85 47be 3268 813d
00000110: 06d2 ae3d aa0d e53d 97f8 213e fcb0 d1be
00000120: 18be 2cbd fe8c 7b3d 04d8 80be 1800 b43b
00000130: 311d a23d f8e5 aa3c 7433 ac3c b5bc 59bb
00000140: dc24 bc3c 7709 ccbd 0ce5 98be 3b1d fabd
00000150: f073 723e cfec b3be 5132 1bbf a598 18be
00000160: f3fd 01be b45e ecbd 1fc5 4f3d 6785 f93d
00000170: 50d0 5cbe cf83 86bd 4376 dfbd 426c 58bd
00000180: 19a2 203d 3dae 79bd 6e5d 833d 718e 8ebb
00000190: 5f75 88bd e1df 16be 557f 3abe da97 61bc
000001a0: ff3f 86bc ec75 00bc caa1 cd3b d10f f6bc
000001b0: 39fc f5be 04ea a2bd 9349 c5bc 1bd0 64be
000001c0: e929 1b3d d093 c23c 7c1b f5bd 23de 073e
000001d0: c31f 75be fa22 bfbe 6899 fbbd 1ee1 58bb
000001e0: 1c6b 473d f27f f3bc dfd4 42be 2698 ff3d
000001f0: 135a d93c 3fb2 ae3c 918f 933c 3d45 11be
00000200: d32b 6f3d 78b8 e43d 7c2b 7ebe 2436 20bd
00000210: 2fa2 64bc ff92 023d d844 4dbd b9d6 b8bc
00000220: 7b08 0d3e 16a6 a5be b017 01be 0218 b13d
00000230: 1d8f fb3d 0b01 51bd 8380 9bbd be30 a1bd
00000240: 2462 b4be fda4 053e 1dd7 33be 93ca 86bd
00000250: 795e 1a3e e741 d6bd 6665 3ebe a70b 32bd
00000260: e3c3 c5bd b553 373d 9c7f f8bc 5080 2fbe
00000270: 2350 ef3d 67e9 d2bd 5555 2fbb 427b 1c3d
00000280: b7f9 14bd 551e 16bd 7380 6abe 2d47 dfbd
00000290: 70fe 283d dcf3 22be 6959 99bd 79ed febc
000002a0: a4c9 c3be d350 6fbc ff12 cd3d ef65 d33d
000002b0: 39ae 1cbe 771f 6cbe 8062 65be 6c16 26be
000002c0: da1c ab3d 0e93 0cbe ddfa 0c3e df91 34bb
000002d0: 0c68 d1be 68cc 5abe 7d2e 94be 0b59 d7bc
000002e0: 6f49 90bd 2a35 733d 9938 37ba ac85 c6be
000002f0: 01cb 30bd 5796 efbb c178 653b 9bc2 c83d
00000300: 08d3 363d 342f ea3d 4e84 bbbd d105 72be
00000310: 755d 84bd 0048 01be 9d37 56bd 91d5 98be
00000320: 9836 12be 273c afbd a275 493e 77cf 1b3e
00000330: 0a6e 0b3d bcc0 9dbe 3ab0 aebb 4335 8d3d
00000340: cc3c 6cbe a2e8 e7bd 1777 31bd 7f5e a3be
00000350: 0bd8 5c3e 8742 753d f172 dbbe 67de d9be
00000360: 2c41 00be f7fe 00bd 7eae eb3c 44ff f63d
00000370: e538 e53d 3754 24be d598 75bd 4216 2dbe
00000380: e7b0 9abd b4c7 683c 1a7f b53d 5263 653d
00000390: dc03 49be 2134 b23d c2ab d5bc 1647 48be
000003a0: 22d2 60bd 2a72 c7bd fc61 0fbe 9966 74be
000003b0: 0054 c8bd 4d10 733c 7309 e4bd 5aa0 f9bd
000003c0: 8e64 a83c 72f6 983c 3c5d 8ebe 4099 9fbe
000003d0: 16b9 00be 52ad 79bc 2496 91bd f02f 983d
000003e0: 053f 92be abc5 30bc cb10 83bd 2214 0cbc
000003f0: 1b0c 863d f0ff c2bc 5703 54bd 69ea c5bd
-0.17817368 -0.027788809 0.024676044 -0.24645835 -0.27255386 0.1848279 -0.05539052 -0.38444144
-0.17198731 0.013577676 0.08312763 0.05546421 -0.06570654 -0.15919991 -0.24987295 0.0097345365
0.06770056 -0.046275944 -0.17126827 -0.027887085 -0.021195823 -0.05358576 0.029377358 -0.26235807
0.033627745 -0.35367212 0.023909735 -0.20675978 -0.12557474 -0.18075235 0.24334542 -0.22829942
-0.2782534 -0.26250026 0.055775825 -0.06740713 0.015629804 0.08110998 -0.4046194 0.0099070845
-0.2973053 -0.37554985 -0.071308106 0.029018054 0.059178114 -0.37656185 -0.18180665 -0.17493004
-0.09048619 0.09402717 -0.002245206 -0.19907966 0.12982544 -0.11048681 0.058610152 -0.018015768
0.004262526 -0.3808497 -0.24043341 -0.3497332 -0.104157805 0.069287755 0.024449248 0.09875943
-0.075632885 0.012476245 -0.1948461 0.06318702 0.085361525 0.11184247 0.15817486 -0.4095534
-0.042173475 0.061413758 -0.25164807 0.0054931752 0.07915724 0.02086161 0.021020629 -0.003322405
0.022966795 -0.09962743 -0.2986225 -0.122126065 0.23677039 -0.35141608 -0.6062365 -0.1490198
-0.1269453 -0.11541501 0.0507251 0.121836476 -0.2156384 -0.06568109 -0.109112285 -0.052837618
0.03921709 -0.060957182 0.06414305 -0.0043504764 -0.06663012 -0.1473384 -0.18212636 -0.013769114
-0.016387938 -0.007840615 0.0062753903 -0.030036839 -0.48043993 -0.07954791 -0.024082934 -0.22345011
0.037881766 0.023752123 -0.11968133 0.13268332 -0.23937897 -0.37331372 -0.12285119 -0.0033093165
0.04868613 -0.029724095 -0.19026516 0.12480192 0.026532209 0.021325229 0.018012794 -0.14186569
0.058391403 0.11167997 -0.24821275 -0.039114133 -0.013954683 0.031878468 -0.050114483 -0.022563325
0.13772766 -0.32353276 -0.12606692 0.08647157 0.12283156 -0.051026385 -0.07592871 -0.07870625
-0.35231125 0.1305122 -0.17562528 -0.06581607 0.15075101 -0.104617886 -0.18593368 -0.043468144
-0.09656503 0.044757564 -0.030334286 -0.17138791 0.11685207 -0.10298424 -0.0026753743 0.038203485
-0.03637096 -0.03665002 -0.22900562 -0.109022476 0.041258276 -0.15913337 -0.07487757 -0.031119095
-0.38239777 -0.014606672 0.10013389 0.10322177 -0.15300836 -0.23058878 -0.22400856 -0.16219491
0.083551124 -0.13727972 0.13767572 -0.0027552766 -0.40899694 -0.21367037 -0.28941718 -0.026287576
-0.07045256 0.059376873 -0.00069893297 -0.3877386 -0.04316235 -0.007311623 0.0035014602 0.09802743
0.04463485 0.114347845 -0.091560945 -0.23635031 -0.06463138 -0.12625122 -0.05229913 -0.29850438
-0.14278638 -0.08556395 0.1967378 0.1521586 0.03404049 -0.30811107 -0.0053310664 0.068949245
-0.23070067 -0.11323668 -0.043326464 -0.31908032 0.21566789 0.0598779 -0.4286113 -0.42552492
-0.12524861 -0.031493153 0.028769728 0.12060407 0.111924924 -0.1604775 -0.059960205 -0.16903022
-0.07553273 0.014207769 0.08862133 0.056002922 -0.19630378 0.08701349 -0.026082877 -0.19558367
-0.0548879 -0.09738572 -0.14002222 -0.23867263 -0.09781647 0.014835429 -0.11134615 -0.12188788
0.02055576 0.018672202 -0.27805507 -0.31171608 -0.12570605 -0.015239077 -0.07108715 0.07431018
-0.28563705 -0.010789315 -0.063996874 -0.008549722 0.06545278 -0.023803681 -0.051760998 -0.09663851

conv1.conv1.bias f4 [32]
00000000: 94a8 dbbd d311 0abf 8d3c 243d d6f8 d6bc
00000010: 2fdf ed3e be1d ca3e 1527 4ebf 3ea9 7cbe
00000020: da12 c53e edc0 6abc 1223 83bf 3ff9 10bf
00000030: e1f0 a03d 27c1 733e 0a51 b63e 54bb 33bf
00000040: 9937 cdbe 58d9 e43e 74e2 943e f2da 463e
00000050: 550d a2be 5aed 01bf a316 bb3e 8567 aa3e
00000060: f792 eebe cc56 e3be abdb 1e3e 631f 213e
00000070: fd5f 48bf 481c a4be a224 b33e 9e84 3dbc
-0.10725513 -0.5393345 0.04009681 -0.026241701 0.46459338 0.39475816 -0.80528384 -0.24673936
0.38490945 -0.014328224 -1.0245078 -0.5663032 0.07858444 0.2380415 0.35608703 -0.70207715
-0.4008148 0.4469707 0.2907902 0.19419459 -0.31650797 -0.50752795 0.36540708 0.33282104
-0.465965 -0.44402158 0.15513484 0.1573463 -0.78271466 -0.32052827 0.34988886 -0.011567263

conv2.0.weight f4 [64, 32, 3, 3]
00000000: 9037 993d 0a1e 1cbe d406 24bd 6510 01be
00000010: 3501 87bd b2be 89bd 1227 213c 366e 98bd
00000020: 0305 35bd ec99 223d 57c6 133d 7fd3 22bd
00000030: ef0f adbd 15f2 48bd f9b8 dfbd 3e66 edbd
00000040: 1a7b 2cbe 0adb 6abd 6537 dcbc 7929 0ebe
00000050: ff16 5fbc d66d 07be f451 f5bc 0188 8bbd
00000060: e35e 983d f079 44bd 36a9 91bc 8649 a43c
00000070: 0870 9dbb 03b6 22bd e6c0 903c cb7d 81bd
00000080: 6c49 ee3c 5898 36bd 2b34 2f3c c21a 293c
00000090: 430c 25bd 39dd 5dbd 2e71 8bbd 69e5 04be
000000a0: 581c 2ebd 31ee a5bc e369 0bbc 58f3 a2bd
000000b0: e152 43bc 3220 a1bc 7285 1abd 8533 33bd
000000c0: 5255 78bd 818b 45bb 9749 ffbc ae60 233b
000000d0: ef6e d9bd 76a7 adbc 9bbd 583c 4edf 95bd
000000e0: 5965 9abd 9a5e 93bc 9557 8abc 6c9f dabc
000000f0: 7b3a 72bc 53f1 273c 9e97 1abd e3a2 9abd
00000100: 7fb6 80bd c2a1 1ebe 716e 1bbd b01f 08be
00000110: 4775 00be 1275 693a 1076 00be 5011 54be
00000120: 1da7 05be 85e7 b13c a04f 313d d5e0 ac3c
00000130: b9e8 acbd 52f1 19bd 8554 77bd d977 59bd
00000140: 2e18 00be 2a94 aabd 03a7 a3bb 67ed 71bb
00000150: c01e 1abc f1f1 e3bc 1f67 82bc 49bd 4b3d
00000160: a379 88bd 46e6 6bbd 8ffa 553c 42de 51bd
00000170: 0f8f 9f3c e4f5 22be f1a0 31bd 9791 f3bd
00000180: bf06 c43c df36 b6bd 0a55 8fbd 939f bcbd
00000190: 763d 9c3b 8191 a2bc 58e1 1c3d 4592 9c3c
000001a0: a456 3fbd b8b8 74bd d591 c3bc debb 74ba
000001b0: 6143 bf3b ab99 143d 0556 bebb b76a 0bbe
000001c0: 11c2 713d 0ab3 e0bc 21c7 0fbd ead0 d6bc
000001d0: 394d 38bc 390f 2c3d c47e 643d 07f9 803a
000001e0: c200 2cbd 09a7 613d 473b 643c ee40 a6bd
000001f0: 9a0b ea3a 4422 2ebd 30e4 afbd d91b 9abd
00000200: e673 0b3e 0bc8 21bd 7548 adbd 0e54 84bd
00000210: 4d2e 8dbd 5ef7 92bd e80d d8bd 8522 0dbe
00000220: c6ef 543d 118b aebc 18f1 87bd 96ef 5ebd
00000230: 2af0 09bd f233 79bd 112a 6c3d f951 163d
00000240: 0ae8 95bd 1faf 0dbc 1b2c b83c 373c 253d
00000250: c0ab 98bc b214 703b df5e a93d 686c 16be
00000260: d668 4cbb fa47 01be bbb5 55bd f0c9 1d3d
00000270: 3365 10bd 10b9 99bd 4e8d afbc b35b 183d
00000280: 995b 79bd fec6 a2bd 274a ef3d ec7f b13c
00000290: 84b3 53bd 27cb 243b a650 07bc 4322 88bd
000002a0: 669a e13c 7056 a13c 9060 f7bd fb65 b83d
000002b0: b608 edbc a4b5 98bd a809 1e3d 807e 933d
000002c0: edd9 07be 85fc abbd c9bb 42bc 5225 d43a
000002d0: 827d 7bbd 9a9c 283d 16d0 a6bd cca2 173d
000002e0: 9dca ddbd 3fa0 e4bc c666 3a3d ac43 c43b
000002f0: 40e7 e63b b5ae bd3b edb5 d9bd 3d98 92bd
00000300: 3ff1 1ebd 2366 72bd 230a 85bd a2f6 95bd
00000310: 4ef8 b6bd 999e 06be 459c e13c 97c6 72bd
00000320: abed b83d ea92 8fbd b11e 5fbd 9983 eebb
00000330: f516 e83d 1d85 4bbd 9422 98bd a70d adbc
00000340: dfd1 6bbd 1d00 25bd 9b1e 93bc 20fa 323d
00000350: bfcc 80bd 4642 8cbc 3fa3 13bd 2fa2 95bd
00000360: 1065 9ebc 51b6 dfbb 7638 85bd ce70 b4bd
00000370: 11a6 febc 525f 1bbd ec96 e3bc 7ea8 74bd
00000380: d86e d2bd 50bd d2bd dea4 bc3d 61ec 28bc
00000390: 26fb e5bd a0fe 96bd ff57 223b f701 d5bd
000003a0: cf00 0fbd 248d 98bc 262f 3cbd ad22 79bd
000003b0: b50e 60bd f6f0 7fbd 85c7 9cbd 79bc 93bd
000003c0: b8b8 0cbd fd5e 0d3d 05c9 c33c 753d 83bd
000003d0: 7cb5 0fbd ddfe a7bc fe8d 53bd 6de1 b4bd
000003e0: d2c7 bebc b2e4 51bd 9808 f03b ec3d d8bc
000003f0: a0ed edbb f22d b5bc d7bd 8dbd 15d6 5a3c
0.07481301 -0.15245834 -0.040045574 -0.1260391 -0.06592027 -0.06725825 0.009835975 -0.07442896
-0.044194233 0.039697573 0.036077823 -0.03975248 -0.08450305 -0.049058992 -0.109239526 -0.11591767
-0.16843835 -0.0573378 -0.026881883 -0.13883008 -0.013616323 -0.13225493 -0.029946305 -0.0681305
0.07439973 -0.04796785 -0.017780881 0.02005459 -0.004804615 -0.03972436 0.017670106 -0.06322821
0.029087745 -0.04457888 0.01069359 0.010321321 -0.040294897 -0.054166052 -0.06808697 -0.12978138
-0.0425075 -0.02025518 -0.008509132 -0.079565704 -0.011921615 -0.019668672 -0.03772492 -0.043750305
-0.060628243 -0.0030142965 -0.03116302 0.0024929452 -0.10616862 -0.021198016 0.013228799 -0.073179826
-0.07538862 -0.017989445 -0.016887465 -0.026687346 -0.014784451 0.010250407 -0.03774225 -0.075505994
-0.06284808 -0.15491393 -0.037947122 -0.13293338 -0.12544738 0.00089056895 -0.12545037 -0.20709729
-0.1305203 0.021716842 0.043288827 0.021103302 -0.08442826 -0.037583657 -0.06038334 -0.05309281
-0.12509224 -0.08329041 -0.0049942746 -0.0036915184 -0.009406745 -0.027825328 -0.015918313 0.049741063
-0.06663825 -0.057592653 0.013060226 -0.051237352 0.019477395 -0.15914112 -0.043366376 -0.118930034
0.023928998 -0.088971846 -0.06998642 -0.09210124 0.004768069 -0.019844772 0.038300842 0.019112715
-0.046713486 -0.059746474 -0.02387325 -0.0009335856 0.0058368896 0.03627936 -0.005808594 -0.13614927
0.059022967 -0.027429122 -0.035102013 -0.026222665 -0.01124888 0.042006705 0.055784956 0.0009839841
-0.04199291 0.055090938 0.013930148 -0.08117853 0.0017856241 -0.042513147 -0.08588445 -0.07524843
0.1361843 -0.039497416 -0.08461086 -0.06461345 -0.06893597 -0.07176088 -0.105495274 -0.137827
0.05198648 -0.021306546 -0.06637782 -0.054427706 -0.033676304 -0.060840555 0.057657305 0.03669927
-0.073196486 -0.008647709 0.022481969 0.04034063 -0.018636584 0.003663343 0.08270048 -0.14689791
-0.0031190417 -0.12625113 -0.052175265 0.03852266 -0.03525276 -0.07506001 -0.021429684 0.037196826
-0.06087837 -0.07948111 0.11684065 0.021667443 -0.05168487 0.0025145502 -0.008258974 -0.0664716
0.027539443 0.019694537 -0.12078965 0.09003826 -0.028934818 -0.0745652 0.038583428 0.07201862
-0.13266726 -0.08397774 -0.011885592 0.0016185439 -0.06139899 0.041164972 -0.08145158 0.03702049
-0.10829661 -0.027908443 0.04550817 0.0059895124 0.00704661 0.005788649 -0.10630403 -0.071579434
-0.03880429 -0.059179436 -0.06496074 -0.07322432 -0.08934079 -0.13146438 0.027540335 -0.05927142
0.090297066 -0.070104435 -0.05447263 -0.0072788713 0.11332504 -0.049687494 -0.0742847 -0.021124674
-0.057573196 -0.04028331 -0.01795893 0.04369557 -0.06289052 -0.017121445 -0.036044355 -0.07306325
-0.0193353 -0.0068271537 -0.0650491 -0.08810578 -0.031085046 -0.0379327 -0.027781926 -0.059731
-0.10275048 -0.10290015 0.092111334 -0.010310263 -0.112295434 -0.073727846 0.0024771688 -0.104007654
-0.03491288 -0.018621989 -0.0459434 -0.060824085 -0.054701526 -0.062485658 -0.07655243 -0.07213683
-0.03435585 0.034514416 0.023899565 -0.064082064 -0.035085186 -0.02050727 -0.051649086 -0.08832059
-0.023288641 -0.05124349 0.007325243 -0.026396714 -0.007260993 -0.022116635 -0.06920975 0.013356705

conv2.0.bias f4 [64]
00000000: b979 3fbe 50a1 c03d 6e47 c0bd 8e47 a2bc
00000010: ee96 7ebd cda1 28be 1bf2 04be 2573 2ebe
00000020: 2f61 d4be eace b2bd d798 08be bbe1 cbbd
00000030: 8f77 58bd 6abb ebbd 6370 bfbd 7a09 98bc
00000040: 48e1 84bd b7c7 96bd 4424 17be f230 9bbe
00000050: f25d 6ebe 4a88 05be 49f1 0cbe 64ed a8bd
00000060: e90f 24be 5e89 34bd 844c 99be 9f21 bcbd
00000070: 33ba 17be 44ed 3fbe 5a2a 18be 08ea c8bd
00000080: 7351 cbbd a38f 8fbe 3e56 04be e6f9 c6bc
00000090: f9b6 99bd f4f1 fbbd 0937 c5bd 919b 05be
000000a0: 7f24 cfbd 6745 78bc f03e 873d 10e4 49be
000000b0: 3092 aabd 5ee8 1dbd 32d4 33be 7203 0bbe
000000c0: 33b7 02be 90ad 74bd 00db fabc d497 a7bd
000000d0: bd2a 4cbd 7d49 263c e913 0ebe 151f 0fbd
000000e0: 6e19 07bd ae3e c6bd 13f4 c0bc d2a7 65be
000000f0: 4b5d 2fbd 350e e9bd 025f 15be d487 74bd
-0.18698777 0.09405768 -0.09388624 -0.01980951 -0.062155657 -0.16467972 -0.12982981 -0.17036112
-0.41480395 -0.08730872 -0.13339554 -0.09955164 -0.052848395 -0.11510356 -0.09347608 -0.018559206
-0.064882815 -0.07362311 -0.14759928 -0.3031078 -0.23278025 -0.13040271 -0.13763918 -0.08248404
-0.16021694 -0.044076316 -0.2994119 -0.091861 -0.14817123 -0.18742853 -0.14859906 -0.09810263
-0.099276446 -0.28039274 -0.12923524 -0.024289083 -0.075056024 -0.12302008 -0.09629638 -0.13047625
-0.10114383 -0.015153266 0.06603801 -0.19715905 -0.08328664 -0.03855168 -0.17561415 -0.13575533
-0.12765197 -0.059735835 -0.030622005 -0.08183256 -0.049845446 0.010149357 -0.13874783 -0.03494175
-0.032983236 -0.09679924 -0.023553884 -0.224273 -0.04281358 -0.11379663 -0.14587024 -0.05969985

fnn.weight f4 [10, 3136]
00000000: f804 31bd b061 5e3c 6cf4 003d 3a78 96bc
00000010: 67c6 8d3d 9a77 d53c e97e 7e3b b119 ee3b
00000020: 4309 88bd eb7c ea3d 1635 3ebd ac7f 883d
00000030: f274 34bd 4831 32bd dc7c 39bd 66d5 973c
00000040: 694a 04bc 8dac 54bc 3451 c43d c3eb ae3c
00000050: e4cc 033d b3c0 de3c a9ab 82bc 2be7 abbd
00000060: 4a24 4c3b ee9f 31bc f120 d4bc 5499 af3c
00000070: edee 4abb efd3 fbbb 2d0f 44be 5855 073c
00000080: c033 6f3b 2498 cc3c 35fd f03b 494e dfbb
00000090: 38fb 95bc 4a97 1e3d c577 afbc 2022 873c
000000a0: 6c54 203d a5cd 353d a692 e43c 11d7 ea3c
000000b0: a136 f5bc c3b9 4ebd 13fd 08bd 0f9d a1ba
000000c0: b424 d3bc e42b 38bc 68ef 113c 9500 213d
000000d0: 4e25 e93a 3508 a5bd 9b7a 18bd 76e4 be3c
000000e0: 8314 1cbd d5cc 9dbb bc97 c13c 8c63 893c
000000f0: 7ab4 8d3d b0a3 a53c fef5 823c bd5b 923a
00000100: df2b c83d d15b e93c 2e8c cdbd 07f0 ae3d
00000110: fff3 9abd d375 123d eaa7 5d3d 5ab0 253d
00000120: 890f 14bd bb80 e2bd 2b26 053e 7b0b 633d
00000130: b52b 163d 5f9f b93d 0e18 adbd b636 583c
00000140: f2d5 0ebe c18c 29bd 53b1 d43c d88c ed3c
00000150: 39c5 203d dab9 7dbd c3af f0bc 5b76 893d
00000160: 1518 dbba 095a 26bc 911f 0ebd a832 e83c
00000170: 3a40 92bc b997 a73b 2bcb a83c 4c7b b9bc
00000180: a21c cf3c 4bfa fa3b 8812 32bd 67ec 5c3c
00000190: 6896 503d 3853 5e3c 60cf 5f3e 5fd1 53bd
000001a0: 115e 30bd e403 633b b007 2b3c aa03 003d
000001b0: 5e81 143d a6b0 f13d a743 043d bc5c 2f3d
000001c0: 6972 49bd 10a0 833c 2da5 78bd a3cb e93b
000001d0: 6cfb 85bd 435a ff3d f566 5ebd 0f7d 173d
000001e0: 59cf 2f3d de34 bf3d 2f71 b83d 31bc 92bd
000001f0: 9f1f 45be d96f debd 75a7 5dbd 51e2 9cbc
00000200: 9780 f13d 8923 533d c017 65bd 0f4e ac3d
00000210: e8d3 e4bd e7d6 b0bc 8af0 d13a 9ded febc
00000220: 8883 853c a378 e3bc 07c2 133d ac97 d1bc
00000230: 71cd 14bd 1088 9abd c6f2 833d 9690 9ebd
00000240: eef7 e43c bd3c fb3a 9570 08be bd2a b43c
00000250: ad6b 35bb 8418 8cbd 7002 0abd fd8c 1f3d
00000260: 67dd 4bbd f9b8 16bd 3a2a 11be 24c9 123c
00000270: d710 0f3e 516b 673c 18fd b1bc 1635 b83d
00000280: 5a1b 013d 7377 a43c 688e bcbc 2873 ee3c
00000290: 9ddb ac3d 1b4e e93d db00 583e 1049 64bd
000002a0: 62ae 923d 4534 c53d 14f5 313b 3478 96bd
000002b0: 4a3c f1bd e849 e3bb be8c f4bd 107f 483d
000002c0: 0cad 233d 3301 19bc 2d4a 1cbe effd 1fbe
000002d0: c0a2 2ebd 9b1c e2bd 10e1 053e a1f6 2d3c
000002e0: f0e8 7d3d 869f 49bd b237 82be d04d febd
000002f0: 8219 143c 4739 8bbd 2a6e 96bd 0f54 a63c
00000300: a89e a9bc 840f 64bd cf2b 563d 271f 263c
00000310: 75f9 1ebc b118 873c 5f39 df3a 3324 033d
00000320: 0702 c83b 8a5b 1bbb 0286 2e3d 0e25 1f3e
00000330: e1f9 8b3d c472 cebb cb40 2b3d 3727 1ebc
00000340: 1159 c9bb 4bc4 8f3d 6467 b9bd 0a5a 933d
00000350: 1a78 a8bc d855 593d f2bc f03c d4d9 a939
00000360: c8aa f1bd 64e9 493d 92fd 9c3d beb5 e3bc
00000370: 7b75 133e 0046 55bd 8ce7 3cbd e871 6cbc
00000380: ea37 d8bc 16df f2bd d6a1 723d 5d65 0b3c
00000390: 8b7d b6bc fb21 c2bc 1656 083d 3861 54bd
000003a0: d801 9cbc aee9 19bc 3016 35bd 5076 cb3d
000003b0: aade f3bc 8190 813d 1d3c a93d 0447 203d
000003c0: 0829 013d 856b b8bd e338 c73d 7225 bbbc
000003d0: 2ab9 383d 1ece bbbb 413a 29bd affb 063b
000003e0: dd55 a5bc d5a2 babc 7a1d 21bd d4b0 ca3c
000003f0: 9387 753d 1cfb c43c 9250 b53d ce48 89bd
-0.04321763 0.013573095 0.0314831 -0.018367875 0.06922608 0.026058007 0.0038832969 0.0072662462
-0.066423915 0.114496075 -0.046437345 0.066649765 -0.04405684 -0.04350403 -0.04528509 0.018534373
-0.008074381 -0.012980592 0.09585801 0.021352654 0.03217782 0.027191496 -0.015950995 -0.08393701
0.003114956 -0.010841353 -0.025894614 0.021435417 -0.0030965165 -0.0076851766 -0.19146414 0.008260094
0.0036499351 0.02497489 0.0073544034 -0.0068147522 -0.018308267 0.0387185 -0.021419415 0.016495764
0.03914301 0.04438557 0.027901959 0.028667005 -0.029933276 -0.050470125 -0.033444475 -0.0012330132
-0.025774337 -0.011240933 0.008907177 0.039307196 0.0017787607 -0.08058206 -0.0372263 0.023302298
-0.0381055 -0.0048156776 0.023631923 0.0167711 0.06919189 0.020219654 0.015986439 0.0011166256
0.09773993 0.028486164 -0.10036503 0.08541875 -0.0756607 0.035756897 0.054115213 0.040451385
-0.036147628 -0.1105971 0.13002841 0.05543087 0.036662776 0.09063601 -0.08451854 0.013196638
-0.13948801 -0.041394 0.025963461 0.028997824 0.039250586 -0.06194482 -0.029380685 0.06712028
-0.0016715551 -0.010153302 -0.034698073 0.028344467 -0.017852891 0.0051145223 0.02060469 -0.0226418
0.025282208 0.007659232 -0.043474704 0.013484097 0.05092469 0.013569646 0.21856451 -0.051713344
-0.04305846 0.003463977 0.010438845 0.031253494 0.036256187 0.11801271 0.03229108 0.042813048
-0.049181376 0.016067535 -0.0607044 0.007134871 -0.065420955 0.12468388 -0.054297406 0.0369845
0.04292235 0.093362555 0.09005963 -0.07164801 -0.19250344 -0.10861177 -0.054114778 -0.019150885
0.11792105 0.05154756 -0.055930853 0.08413326 -0.111732304 -0.021586848 0.0016017121 -0.031119162
0.01629807 -0.027767485 0.03607371 -0.025585018 -0.036328737 -0.07545483 0.0644279 -0.07742421
0.027950253 0.0019167882 -0.13324197 0.021993035 -0.0027682588 -0.068406135 -0.03369373 0.038952816
-0.049771693 -0.036797497 -0.14176264 0.0089590885 0.13971268 0.014124707 -0.02172713 0.089945
0.031520225 0.02007649 -0.023017123 0.029107645 0.084403254 0.113918506 0.21094076 -0.05573374
0.07162167 0.0962911 0.0027154135 -0.07347146 -0.11779077 -0.0069363005 -0.11940907 0.0489493
0.039959952 -0.009338665 -0.15262671 -0.15624212 -0.04263568 -0.11040612 0.13074136 0.010617883
0.061989725 -0.0492244 -0.25433117 -0.12417185 0.009039285 -0.06798034 -0.07345231 0.020303754
-0.020705536 -0.05567886 0.052287873 0.010139263 -0.00970303 0.016491266 0.0017030648 0.032016944
0.0061037573 -0.0023705685 0.04260827 0.15541479 0.0683477 -0.006300302 0.04180984 -0.009652904
-0.0061446507 0.07019862 -0.09052923 0.07194908 -0.020565081 0.053060383 0.029386971 0.00032396486
-0.11800152 0.049294844 0.07665552 -0.027796622 0.14400284 -0.05206871 -0.046119258 -0.014431454
-0.02639385 -0.118589565 0.05923637 0.008508054 -0.02227666 -0.023697844 0.033285223 -0.051850528
-0.019043848 -0.0093940925 -0.044210613 0.09934676 -0.02976926 0.0632639 0.08263419 0.039130226
0.03153327 -0.09004883 0.09727647 -0.022845004 0.04509846 -0.005731358 -0.04131532 0.0020596792
-0.020182544 -0.022782722 -0.03933475 0.024742521 0.059943747 0.02404552 0.08853258 -0.067033395

fnn.bias f4 [10]
00000000: 1f16 333d 568d d93d 8887 c23c 79a5 2a3d
00000010: 0064 d5bd 48cd 91bc b49f 723b ddbf a63c
00000020: 0b20 9cbc 6845 543c
0.04372227 0.10622661 0.023746267 0.041661713 -0.10419464 -0.017798081 0.003702146 0.02035516
-0.019058248 0.012956001
