cnn/mnist/output/epoch_2.pt (torch, 202775 bytes, 6 tensors)

conv1.conv1.weight f4 [32, 1, 3, 3]
000000 00 07 1c be 43 ee 17 3e e1 74 dd 3c d4 ec 5b be
       -0.15237045 0.14836983 0.027033271 -0.21477062
000010 4c b9 43 be 31 55 81 3e e5 7e 00 be a9 88 5a be
       -0.19113654 0.25260308 -0.12548406 -0.21341194
000020 32 7f 77 be 43 fe f2 3c 5d d2 0e 3e 3b 69 2d 3e
       -0.24169615 0.029662257 0.13947435 0.16934673
000030 fa f7 11 be 79 77 aa be 47 40 bc be 49 05 c3 3c
       -0.14254752 -0.33294275 -0.3676779 0.023806231
000040 e4 3d e1 3d 90 16 d3 bc 82 ed 74 be 99 e5 37 3d
       0.10998133 -0.025767595 -0.23918727 0.044896696
000050 dc aa 15 3e dd d0 aa bb e9 67 1c 3c 66 54 86 be
       0.14615959 -0.0052128867 0.0095462585 -0.26236266
000060 96 83 f0 3d 3c 2a 98 be fb 02 01 3e 53 33 5d be
       0.11743848 -0.29719722 0.12598793 -0.2160161
000070 fb 7a 0b be dc 32 aa be ce c4 96 3e a7 7c 7c be
       -0.13621132 -0.33241928 0.29447025 -0.24656926
000080 d6 73 7e be 2a fe 67 be 6c 40 a5 3d ef f1 a8 bd
       -0.24848875 -0.2265555 0.08068928 -0.0824927
000090 0f f1 bc 3d 19 96 2e 3e 09 5f c0 be e6 a4 4e 3d
       0.09225666 0.17049445 -0.37572506 0.05045023
0000a0 74 78 98 be 41 40 a7 be 38 99 d2 bd c8 89 a1 3c
       -0.29779398 -0.3266621 -0.102831304 0.01971902
0000b0 dc 71 15 3e 44 19 36 be 6d 1f 3c be 6d c5 f3 bd
       0.14594215 -0.17783076 -0.18371363 -0.1190289
0000c0 a3 c3 f3 bc b2 c3 12 3c d9 2d e2 bb 2b af 20 be
       -0.029756373 0.00895779 -0.006902438 -0.15691821
0000d0 6c 2c 37 3e 42 b8 76 bd 9c 93 e7 3d 70 ba d4 bc
       0.1788804 -0.060234316 0.11307451 -0.025967807
0000e0 11 49 1c 3e 74 a8 8c be 5f 13 1d be 2a 53 c2 be
       0.15262248 -0.2747227 -0.1533942 -0.37954074
0000f0 80 79 88 bc a3 e0 44 3e 43 66 b0 3d b2 1a 57 3e
       -0.016659498 0.19226317 0.08613255 0.21006277
000100 08 8e ec bd bb a3 10 3e d6 a9 93 be 7f dc e5 bc
       -0.11550528 0.14124958 -0.28840512 -0.028059242
000110 22 3f 1f 3e c6 8f 45 3e f0 13 5c 3e cb 90 d8 be
       0.15551427 0.19293126 0.2149198 -0.42297968
000120 23 af 92 bd 3b 62 97 3d a1 aa 77 be b8 2a 44 3d
       -0.07162311 0.07391783 -0.24186184 0.047892302
000130 e0 e4 26 3e f8 89 bd 3d 99 12 60 3d 97 72 d0 3b
       0.16298246 0.09254831 0.054705236 0.0063613164
000140 97 b6 75 3d ec e4 e8 bd 64 4d 8f be c9 67 a9 bd
       0.059988584 -0.113717884 -0.27988732 -0.082717486
000150 4f de 8b 3e d4 07 9a be 9f f0 fa be c9 f5 22 be
       0.27318045 -0.30084097 -0.49011704 -0.15914072
000160 dc b3 1c be 56 fb 13 be c2 79 2b 3e b4 db 59 3e
       -0.15302986 -0.14451346 0.16745666 0.21275216
000170 df b0 aa be 7a 86 1c be 6d 8c ba bd e2 cd b6 3c
       -0.33338067 -0.15285674 -0.09108815 0.02231497
000180 74 98 6d 3d 82 e6 ed bd ff 37 11 3e e4 f7 c0 bd
       0.05800672 -0.116162315 0.14181517 -0.094222814
000190 c3 17 3e bd ad aa f7 bc 47 82 0c be 55 af 87 bd
       -0.04640938 -0.030232752 -0.13721572 -0.06625239
0001a0 11 25 42 bd 88 f4 00 3e 69 32 3b 3d 88 e9 81 b9
       -0.04739863 0.12593281 0.04570237 -0.00024778792
0001b0 05 10 aa be dc 94 dd bc 42 07 98 3b f2 e1 66 be
       -0.33215347 -0.02704852 0.004639537 -0.22547129
0001c0 3c 05 53 3d 8d 93 ac 3d 48 b7 13 be 88 80 d3 3d
       0.051518664 0.084265806 -0.14425385 0.1032725
0001d0 e7 a4 27 be d7 9f 69 be ac e9 5c be 6e a1 14 be
       -0.16371499 -0.2281488 -0.21573514 -0.14514706
0001e0 52 85 f5 3d ae 29 25 be 71 df 5d be 76 cc 69 3e
       0.119883195 -0.16129181 -0.21667267 0.22831902
0001f0 b9 80 33 3d 41 44 e5 3d 0d ae 52 3d 8b 1e 01 be
       0.04382393 0.11194659 0.05143552 -0.12609307
000200 c9 bf 9e 3d 9b 6f 41 3e 2e 1f a9 be fb 63 0c be
       0.07751424 0.1889023 -0.330316 -0.13710015
000210 75 2f 6e 3d 76 a3 99 3d 3e 93 6e bd 23 64 6b 3d
       0.058150727 0.07501881 -0.05824589 0.057468545
000220 5c b2 27 3e 01 24 ad be 11 f0 15 be 9f ea a8 3d
       0.16376632 -0.3381653 -0.1464236 0.082478754
000230 68 99 1a 3e 94 5b 10 3c a5 4e 6c bd 56 5c 0e bd
       0.15097582 0.008810896 -0.05769219 -0.034756027
000240 71 08 92 be f0 a3 2d 3e c9 24 29 be be 9b 3c bd
       -0.28522065 0.16957068 -0.16517939 -0.046046965
000250 17 7a 5a 3e b6 88 08 bc 96 5f 2c be 45 6a 8b bd
       0.21335636 -0.008333376 -0.16833338 -0.06807379
000260 ca 6d e1 bc e5 16 e7 3d df fd 08 be 54 6a 89 be
       -0.027518172 0.11283664 -0.13378094 -0.26838934
000270 c3 81 3e 3e 7b 05 ee bd 83 0a 0e 3d 03 d1 11 3e
       0.18604188 -0.11622139 0.034677994 0.14239888
000280 62 92 5d bd 8c a5 bc bd 1c 0e 90 be d5 a6 fe bd
       -0.05409468 -0.09211263 -0.28135765 -0.124341644
000290 bc c1 c5 ba d7 d0 25 be 30 4a 09 be 1e 97 c4 bd
       -0.0015087645 -0.16192947 -0.13407207 -0.09599136
0002a0 82 bb 91 be 14 13 c3 3c 66 42 59 3e 12 c5 1e 3e
       -0.2846337 0.023812808 0.21216735 0.15504864
0002b0 0f 0a 7c be a4 a4 ad be 85 5e 66 be 59 a6 63 be
       -0.24613212 -0.33914673 -0.22496994 -0.22231425
0002c0 0e ba f4 3d e6 d3 61 be d0 a5 4d 3e 8e cf 7f 3d
       0.119495496 -0.22053489 0.20082784 0.0624538
0002d0 41 02 b4 be c1 f8 06 be 06 6b 8c be de e7 33 3d
       -0.3515797 -0.1318083 -0.27425402 0.043922298
0002e0 c4 8b 82 bd d2 32 11 bc e6 58 6d 3d 71 72 93 be
       -0.063743144 -0.008862214 0.05794611 -0.2879825
0002f0 14 3b 0d 3d 85 de 2f bd c1 93 7f bd c0 5f 08 3e
       0.03448017 -0.04293682 -0.06239677 0.13317776
000300 5a a0 c4 3d a4 e4 04 3e 9c 70 da bd f4 13 78 be
       0.09600897 0.12977844 -0.1066601 -0.24226362
000310 d6 54 1a bd 9d b1 20 be ce 1b 90 3d 5a 8a a2 be
       -0.037678562 -0.15692754 0.07036553 -0.3174618
000320 5a ee 23 be aa 13 2d bd cb d1 44 3e 94 0f 5d 3e
       -0.16008893 -0.04225508 0.19220655 0.21587974
000330 2a cc bf 3d 38 df a0 be d5 a2 13 3d 92 ca 28 3e
       0.09365113 -0.31420302 0.03604396 0.16483524
000340 a3 b4 fe bd 6c 49 22 be c2 6a b1 bc d0 31 53 be
       -0.124367975 -0.1584832 -0.021657351 -0.2062447
000350 20 45 48 3e 5a d3 51 3e 79 ec b2 be 52 ba bd be
       0.19557619 0.2049078 -0.3494604 -0.37056214
000360 57 e3 00 be 92 65 8d bc 53 c6 d0 3d 39 7e 0f 3e
       -0.12586723 -0.017260347 0.10194077 0.14012994
000370 56 b4 f7 3d d4 20 19 be e6 ad 73 bd 45 99 29 be
       0.12094943 -0.14953929 -0.059492014 -0.16562374
000380 08 71 82 bd f6 6f 49 3d 0e 21 25 3e 62 3d 02 3e
       -0.06369215 0.04917904 0.1612589 0.12718728
000390 c4 fc 8a be da fb ba 3d b5 94 38 3d c1 2a 6f be
       -0.2714597 0.09130068 0.045063693 -0.23356153
0003a0 95 3c 44 bd 9d 88 3b be 40 83 dd bc a1 58 9a be
       -0.047909338 -0.18313833 -0.027040124 -0.30145743
0003b0 1d 86 0c be 62 93 23 3d 20 63 b6 bd 97 d3 2f be
       -0.13723035 0.039935477 -0.08905625 -0.17170559
0003c0 75 60 fb 3d c8 34 c0 3d cd 94 3f be 4d 83 88 be
       0.12274257 0.09385067 -0.18709107 -0.26662675
0003d0 b1 9d 21 bd 7f 6c 1d 3e 5e c0 93 bd 09 2b 92 bc
       -0.039457027 0.15373419 -0.072144255 -0.017842786
0003e0 82 ad 92 be 8e 74 b0 3d 21 48 a4 3c b8 05 a2 bc
       -0.28648 0.08615981 0.020053925 -0.019778118
0003f0 06 f6 3c 3e c9 50 5d 3c 1e 8e c1 bc 1d 5e 88 bd
       0.18453225 0.01350803 -0.023627337 -0.06658576

conv1.conv1.bias f4 [32]
000000 a8 b9 54 be 35 e3 97 be 3f a3 a9 3d 3f f9 45 bd
       -0.20773947 -0.29665533 0.0828309 -0.048333403
000010 78 3b c0 3e db 92 b2 3e c8 6e f0 be 7c 29 c0 3c
       0.3754537 0.34877667 -0.4695952 0.023457281
000020 39 eb b3 3e 2c 62 0a be 13 02 05 bf bb 0f bc be
       0.35140398 -0.13514012 -0.5195629 -0.3673075
000030 84 b8 54 3e dd 95 2c 3e 3f 09 a8 3e 43 81 ce be
       0.20773512 0.16854043 0.32819554 -0.40332994
000040 25 f5 a4 be ad d5 ab 3e 57 96 98 3e 2f 24 92 3d
       -0.3221828 0.3356146 0.298022 0.07135808
000050 8e 1b 75 be 70 45 cb be e0 89 bc 3e 55 81 76 3e
       -0.23936293 -0.39701414 0.3682394 0.24072774
000060 7b 85 6e be 12 78 69 be 72 77 de 3d ef 64 5d 3e
       -0.23293106 -0.2279971 0.10862626 0.21620534
000070 e8 df 03 bf 77 8e b2 be 5e db 99 3e 2a 12 9e bd
       -0.5151353 -0.34874317 0.30050176 -0.07718308

conv2.0.weight f4 [64, 32, 3, 3]
000000 1d 3c 0e bd 6a ef 76 bd 60 2e b8 bc f9 c2 7a bc
       -0.034725297 -0.060286917 -0.02248305 -0.015305274
000010 e4 66 68 3c 13 17 ea bc 3e 46 07 3d 42 8e 36 bd
       0.014184687 -0.028575456 0.033025973 -0.04456926
000020 88 95 ea 3c c1 2d 7b 3c ad 51 28 bd f1 41 18 bb
       0.028635755 0.015330733 -0.041093517 -0.0023232664
000030 a7 ff 7e bd 19 15 f4 bb 0e 1e 73 bd 73 19 2e 3d
       -0.062255528 -0.007448804 -0.059354834 0.04250474
000040 c3 33 63 bd c1 31 57 3c 33 c4 1b bd d8 8f 76 bd
       -0.055469286 0.013134421 -0.038028907 -0.060195774
000050 88 71 f3 3c 11 4c 81 bd 31 c7 37 bc e1 22 5f bd
       0.029717222 -0.06313337 -0.0112169245 -0.054476622
000060 ad 31 1e 3d a6 9d 55 bd 4e dd 95 3b f3 f8 31 3b
       0.038621593 -0.0521523 0.0045735007 0.0027156442
000070 69 a8 06 bd c1 88 a3 3c e5 ff 88 3c ad 64 4f bd
       -0.032875452 0.01996267 0.016723583 -0.05063312
000080 fa 0b 21 3d b1 13 fb bc 01 2f 2d 3d 33 9d 89 3c
       0.039318062 -0.030649038 0.042281155 0.016798591
000090 b5 f4 fd bc 32 0e bb 3c 15 7d 52 3c c5 8a a3 bd
       -0.031000474 0.022833917 0.012847205 -0.079854526
0000a0 2a 99 07 3d 49 a6 3c bd 19 cc db 3c ef e3 aa bc
       0.033105053 -0.04605702 0.02683072 -0.02086064
0000b0 f6 ca bb 3c 2b 10 05 3c 99 28 67 bb a5 36 6c bd
       0.022923928 0.0081215305 -0.0035272 -0.0576693
0000c0 2d 46 15 bc f5 51 be 3c 23 bd 18 3d e5 00 8e ba
       -0.0091109695 0.02323244 0.03728975 -0.0010834007
0000d0 32 f1 87 bc 0d 95 66 3c 3c 9e 05 3d c6 22 ed bc
       -0.016594503 0.014073622 0.032621607 -0.028947245
0000e0 94 3d 22 bb 1c 56 1d 3d 75 c9 ff 3c 1f e4 83 bc
       -0.0024755942 0.0384122 0.031223992 -0.016099988
0000f0 60 26 49 3c cc 48 2b 3d b9 fc 5c bc 54 4c df bc
       0.012277216 0.04181747 -0.013487988 -0.027258076
000100 95 9b 90 bc 62 1a 8c bd eb 5f 42 bd 28 1e 76 bd
       -0.017652312 -0.068409696 -0.047454756 -0.060087353
000110 fe 92 c9 bc 51 8f 29 3d 85 5d 26 3a 07 96 ad bd
       -0.024606224 0.041396443 0.0006346333 -0.08475881
000120 5e 04 81 bd 0a 0c 8e 3c 73 58 bc 3c 6b 00 f7 3b
       -0.06299661 0.017339725 0.022991395 0.0075378916
000130 34 4d 7e bd af 76 a9 3c 1c 59 80 bd e0 18 51 bd
       -0.062085345 0.020686476 -0.06266996 -0.051049113
000140 77 74 2a bd 9e af 3a bd 44 7e a9 3c 7b 68 2d bd
       -0.041614976 -0.045577638 0.020690091 -0.04233597
000150 2e fe e5 bc 0c 25 5f bc a3 a8 c8 bb 99 c5 61 3d
       -0.028075304 -0.0136196725 -0.0061236187 0.055120084
000160 0b f8 71 bd fb dd 5e bc 53 2f f1 3c e4 6e e6 3b
       -0.059074443 -0.013602729 0.029441511 0.007032262
000170 6a c0 d4 ba 27 5d 49 bd 97 da 47 bc a9 d3 9e bd
       -0.001623166 -0.049161103 -0.012198112 -0.07755215
000180 b7 ff 80 3c 38 9a df 3b e8 ee 48 bb c6 15 8b bd
       0.015746934 0.006823804 -0.0030659977 -0.06791262
000190 27 59 a7 3c 20 40 5c bd d7 4d 1c 3d 99 a3 fb 3c
       0.020428253 -0.053772092 0.03816017 0.030717658
0001a0 75 88 08 3b 0e 05 19 bd 38 6a fb bb e9 4b 82 3c
       0.0020833288 -0.037358336 -0.0076725744 0.015905337
0001b0 91 35 3b bc cb f9 b1 bb ab 7e 09 3d 51 a2 60 bd
       -0.011426345 -0.005431389 0.033568066 -0.054842297
0001c0 af dd d2 bc 26 f3 b5 bc 38 e8 2d bd 71 8f 81 3d
       -0.025740473 -0.022210669 -0.04245779 0.063261874
0001d0 63 4a 06 bb d2 7a f8 bc fd 16 13 3d 3f 76 2f bd
       -0.0020491115 -0.030332003 0.035910595 -0.042837378
0001e0 b2 46 f2 bc c3 1d 07 3d 24 32 e0 3c 0d 3d 8b bd
       -0.029574726 0.032987367 0.027367659 -0.06798754
0001f0 68 b3 fb 3a 77 20 d8 bb 19 b1 2a bd df 1f 47 bc
       0.0019203248 -0.006595667 -0.0416728 -0.012153595
000200 3b d9 ea 3c 28 9c 2b bc 5b 08 3d bd 4f d5 88 bc
       0.028668037 -0.010474242 -0.046150547 -0.016703276
000210 aa 36 91 bd 2f a7 b2 bc 84 14 82 bd c4 33 37 bd
       -0.070905045 -0.021808235 -0.06351569 -0.044727102
000220 ea 82 e5 3c 43 16 2c bd 60 ab 96 3c 81 ef 2a bb
       0.028016526 -0.042013418 0.018392265 -0.0026082697
000230 c1 cd 73 bd 9f 0d 9c 3c a2 86 37 3d 7a 60 24 3d
       -0.059522394 0.019049464 0.04480613 0.04013107
000240 84 fd 88 bd 8b e9 78 bd 8d b6 18 3c 43 b4 19 3d
       -0.06688979 -0.0607696 0.009320867 0.037525427
000250 8a 32 df bc 1f 55 96 3c b6 f7 f1 3c 61 ae 2d bd
       -0.027245779 0.018351136 0.029537063 -0.04240263
000260 6f 88 2c bd 1a da 68 3b 88 e5 11 bd 84 57 bb 3b
       -0.0421223 0.003553039 -0.03561929 0.00571722
000270 d1 a5 b0 bc ac 99 73 bd 7a 5f f5 bc 24 79 1f 3d
       -0.021563442 -0.059472725 -0.029952753 0.038933888
000280 87 eb 37 39 c7 3d af 3c 41 cd 4c 3d fa f3 74 3d
       0.00017539981 0.021391762 0.050000433 0.059802987
000290 ff d9 8d 3c 7a 13 3d 3d 97 56 8a 39 2b 78 f7 bc
       0.017315863 0.046161152 0.00026385926 -0.030208668
0002a0 31 81 24 bb 3f 96 2a bd 7a 14 61 bd 53 a8 4d 3d
       -0.0025101418 -0.041647192 -0.05495117 0.050209355
0002b0 f6 d4 9a b9 d5 d5 29 bd 1e 55 37 3c d2 a3 12 3d
       -0.00029531837 -0.04146369 0.011189727 0.035800762
0002c0 f2 32 78 bd 02 ae b3 3b 58 eb 39 bd ac e9 00 3d
       -0.06059546 0.00548339 -0.045390457 0.031472847
0002d0 13 80 3f 3d d0 06 16 3c b6 07 59 bd 67 6b 77 3d
       0.046753 0.009156898 -0.05298587 0.06040516
0002e0 14 49 7f bd 7a 84 16 bd fb 87 1e bd b2 19 fc bc
       -0.062325552 -0.036747433 -0.0387039 -0.030773971
0002f0 59 bc ec 3c 77 a9 7b bd c6 e8 69 bd a6 c6 69 3c
       0.028898405 -0.06144091 -0.057106756 0.014268553
000300 a2 4d 22 3d 43 e0 02 3d 1c 4b 63 3c ef 25 05 3d
       0.039624818 0.031952154 0.013872888 0.03250688
000310 ca 39 86 3c 99 20 66 bd ac b5 44 bc 2e 34 64 bd
       0.016384978 -0.05618343 -0.012006205 -0.055713825
000320 72 41 af bb e1 82 e7 bc ce 3f 83 3c 85 d3 9c 3c
       -0.005348378 -0.02826065 0.016021635 0.01914383
000330 2f a7 cb 3c cd 8c 3f bd 49 c5 89 bd 19 06 9b bc
       0.024859993 -0.046765137 -0.06727082 -0.018923806
000340 cc 10 94 bc 81 b9 0a 3b 36 60 f8 3b 0a af 1e 3d
       -0.018074416 0.0021167698 0.0075798286 0.03874115
000350 cd 5e 83 3b e3 57 61 3c 4f 43 14 3c 3f 2f 35 bd
       0.004009104 0.013753864 0.009049251 -0.04423451
000360 1e 3f 99 bd 02 b5 89 bb 89 3d 29 bd 2b fc 8d bd
       -0.07482742 -0.004202486 -0.04131845 -0.06932863
000370 74 6f ca b9 fa 46 bb bb ac d0 9a bb 7a dc 86 bc
       -0.0003861148 -0.005715248 -0.0047245827 -0.016462553
000380 9d 50 7f bd 2d 3f 2c bd 7e 81 1d 3d 30 33 91 3c
       -0.06233274 -0.042052437 0.03845357 0.017724603
000390 18 46 88 bd 22 87 65 bd 93 51 c5 3c 77 00 50 bd
       -0.06653994 -0.056037076 0.02408675 -0.050781693
0003a0 5d db c8 3c 8e 43 0d 3d f8 0a a6 bc ff ed b1 bc
       0.024518663 0.034488253 -0.020268902 -0.02171993
0003b0 47 a0 17 bd 40 58 6f bd 3d ad 4d bd 7a 38 54 bd
       -0.037018087 -0.05843377 -0.05021404 -0.051811673
0003c0 df a6 03 bd 62 f4 4a 3d ca cb 3f 3d f3 b0 d9 bc
       -0.032141563 0.049549468 0.046825208 -0.026573634
0003d0 51 97 3e 3d 45 a4 0c bc d0 d3 7e bc 06 ce 40 bd
       0.046531025 -0.008584087 -0.01555343 -0.04707148
0003e0 d6 64 3e b9 63 61 a3 bc c4 6b 08 3d 61 8f 9a bc
       -0.00018157376 -0.019943899 0.0333059 -0.018867197
0003f0 26 3b 7d 3c 3e cc 25 3d 2e f9 38 bc ae b6 b4 3c
       0.015455997 0.040477984 -0.011289878 0.022059765

conv2.0.bias f4 [64]
000000 97 f6 dc bd 56 c5 0f bd 52 8c fc bc 52 4b e5 bd
       -0.10789221 -0.035100304 -0.030828629 -0.11196007
000010 b7 37 47 bd 78 b9 08 bd 73 96 ec bd c8 50 1c bd
       -0.04863712 -0.03338 -0.115521334 -0.038162977
000020 5f ed ca bd 2e 3e a7 bc c1 c8 44 bd 06 59 b1 bd
       -0.09908556 -0.020415392 -0.048043016 -0.08659558
000030 71 fc 5d bd 6a 41 ea 3c 2e cf 7b bd 8c de 1a bd
       -0.054195825 0.028595645 -0.06147688 -0.037809893
000040 e0 72 b3 3b d7 9b 02 bd c8 23 a7 bd 85 58 e7 bd
       0.0054763407 -0.0318869 -0.081611216 -0.11296181
000050 bf c0 c8 bd 85 c2 8f bb 15 6b 7f bc 7f 4f 9f bd
       -0.098023884 -0.004387202 -0.015589495 -0.077788346
000060 1e 34 71 bc 7e a7 19 bd 63 82 1c be 95 48 7e bd
       -0.014721898 -0.03751325 -0.15284114 -0.06208094
000070 87 31 e3 bc 17 34 9a bd 6a 1c 1e bd c7 57 9b 3c
       -0.027733577 -0.075294666 -0.038601317 0.018962754
000080 b8 47 0d bd 31 47 0c be 51 42 80 bd aa 23 cd 3b
       -0.034492224 -0.13699032 -0.06262649 0.006260355
000090 70 94 9b bc ff 93 24 36 af 64 7a bd 72 21 8f bc
       -0.018991679 2.452405e-06 -0.061131176 -0.017472003
0000a0 be a9 7f bd 90 d0 c1 bd e8 9b 92 3c 7f 0f b4 bd
       -0.06241774 -0.09463608 0.017896608 -0.08792018
0000b0 e3 9b 7b bd 6c 9b ce 3a ed 4a d3 bd 64 07 7d bd
       -0.061427962 0.0015762872 -0.10317025 -0.061774626
0000c0 30 01 02 bd 70 cc d5 bb c1 2b b8 bd 30 65 28 bd
       -0.031739414 -0.006524615 -0.089927204 -0.041112125
0000d0 8f 0a 6c bd 6d 58 4e 3b aa 77 9a bd 09 d6 0b bb
       -0.057627257 0.0031485811 -0.07542355 -0.0021337292
0000e0 12 0f 3d 3c 8c 98 e5 bc 76 ee 51 3c 99 28 b4 bd
       0.011539238 -0.028026842 0.012813201 -0.08796806
0000f0 1e 05 a1 bc 1b a5 13 bd 3c d9 8e bd 5c 6e 18 bd
       -0.01965576 -0.03604613 -0.06975028 -0.037214622

fnn.weight f4 [10, 3136]
000000 f8 04 31 bd 7a 30 24 3c 97 7f 01 3d 4d 61 82 bc
       -0.04321763 0.010021323 0.03161582 -0.015915537
000010 c6 a0 85 3d 5b 47 d7 3c 5e 14 80 3b 7a ce ee 3b
       0.06524806 0.026279142 0.003908678 0.0072877975
000020 48 cc 9c ba cd 2e 06 3d d5 b4 0c 38 19 fa a4 3c
       -0.0011962736 0.032759476 3.3547014e-05 0.020138787
000030 9a 32 48 bd 7a ce 32 bd 52 f3 1a bd 8f 4f 10 bd
       -0.048876382 -0.043653943 -0.037829705 -0.035232123
000040 5f f3 4d bc 47 29 0a bd 9b 1d e6 3c 34 ae b4 3c
       -0.012570231 -0.03373077 0.028090289 0.022055723
000050 7b cc 03 3d 99 43 a4 3c a7 81 04 3b ca c3 0f bd
       0.03217743 0.020051764 0.002021888 -0.03509883
000060 96 77 1b 3c 61 b6 15 3d 62 bb a0 bc f8 99 af 3c
       0.009488961 0.036550883 -0.019620601 0.021435723
000070 25 29 41 ba ba fc 89 ba b4 5c 32 bd 48 35 1e bd
       -0.0007368497 -0.0010527589 -0.04354544 -0.03862503
000080 2f b1 79 3c 33 b2 c0 3c 93 be f0 3b 88 6c e7 bb
       0.015239998 0.023522472 0.007346937 -0.0070624985
000090 d6 92 ac bc 83 d5 8d 3c 2f a4 6b bc b1 39 7c 3c
       -0.02106611 0.017313724 -0.014382406 0.015394614
0000a0 67 1c 20 3d 27 fc 44 3d 7d 92 e4 3c 9c cb ea 3c
       0.039089587 0.048092034 0.027901882 0.028661542
0000b0 8c ef 03 bd 2b 1b 46 bd e5 fd f9 bc 03 70 23 3a
       -0.03221087 -0.048365753 -0.030516574 0.00062346476
0000c0 aa e2 b3 bc e4 2b 38 bc 79 ef 11 3c 9d 6e 05 3c
       -0.021958668 -0.011240933 0.008907192 0.008144048
0000d0 1f 49 23 3d ab fa dd bc 4d 65 86 bc 81 e4 33 3c
       0.039864656 -0.027097067 -0.016405726 0.010979773
0000e0 58 49 15 bd 7b d2 c7 3c 55 1c dd 3c 85 fa 12 bc
       -0.0364469 0.024392357 0.026991049 -0.008970861
0000f0 b3 15 dc bc 57 36 2c 3d 52 02 44 bc 41 8f 4f bb
       -0.026865816 0.04204401 -0.011963444 -0.003167108
000100 1c f4 69 bc 54 ba 82 3c 36 06 9d 3c f0 ae 3f 3d
       -0.014279392 0.015957989 0.019168 0.046797693
000110 8c d4 eb bc 25 d8 8a 3b 25 0f 50 bc 8e 61 06 3d
       -0.028787874 0.004237192 -0.012698923 0.03280788
000120 3a 3d 48 bc 9e 4e 97 3b 91 c0 9f 3c e1 85 3e bc
       -0.012221629 0.004617526 0.019501003 -0.011628599
000130 e2 ac cc bb b8 81 14 bd 28 13 2a bd 96 3a 3d bb
       -0.006246195 -0.036256522 -0.041522175 -0.0028874031
000140 07 27 d8 bb 81 23 bb bb 9b 6e dd bc 60 f9 de bb
       -0.0065964493 -0.0057110195 -0.02703028 -0.00680463
000150 93 ec 01 3d 8c 51 5c bb 93 a2 ea 3b 1c 01 58 3d
       0.031719755 -0.0033617942 0.0071604936 0.052735433
000160 64 5b 44 3d 32 8d f3 3c 15 5a d6 bc a8 32 e8 3c
       0.04793872 0.029730413 -0.026166001 0.028344467
000170 34 71 c7 bc a5 5c a2 3c 25 49 ff bb 5b 55 b9 bc
       -0.024345972 0.019819567 -0.007790702 -0.022623708
000180 b3 54 cf 3c c9 69 fb 3b 88 12 32 bd 3c a7 99 3c
       0.025308942 0.0076725227 -0.043474704 0.018756501
000190 00 4c fe bb 5e 62 bd 3c c0 ef 6b 3d cf de 71 bc
       -0.0077605247 0.023118194 0.05760169 -0.014762594
0001a0 c8 f6 97 bd 78 76 e2 bc 21 77 ca bc a2 6a 76 b8
       -0.07420117 -0.02764438 -0.024715008 -5.875028e-05
0001b0 58 ff 32 bb ba 3b 90 3d 25 53 97 3d af 9e 61 3b
       -0.0027312841 0.07042642 0.073889054 0.0034426858
0001c0 a0 84 62 bd 0f 76 0c 3d 22 d8 c4 ba 5a f1 25 bc
       -0.055302262 0.034292277 -0.0015018026 -0.0101283435
0001d0 31 4a 07 bc 1c 87 a3 3c ce 5a f8 bb 22 99 42 3c
       -0.008257435 0.019961886 -0.007579184 0.01187733
0001e0 40 a8 86 3c 16 0a 8c 3a bd da b4 3a a0 5c ba bc
       0.01643765 0.0010684158 0.0013798099 -0.022749245
0001f0 53 e5 98 bd 55 96 1e bd 91 36 df bc 13 74 93 bc
       -0.07465615 -0.038717587 -0.027247699 -0.017999684
000200 fb d6 1b 3d 92 ec 6c 3d a0 15 53 3c 52 c0 a6 3c
       0.03804682 0.0578428 0.012883574 0.020355377
000210 ff c5 08 bd ed 1a 16 3b 87 20 9b 3b 80 d1 e6 bc
       -0.03339195 0.0022904233 0.004734102 -0.02817607
000220 96 67 e6 3c 0f 9a b6 bc c9 ec df 3c 44 01 80 bb
       0.028125565 -0.022290258 0.027334588 -0.003906401
000230 01 0f 52 bc 0e 6d 43 bb ff ec 86 bc 59 bc 62 bb
       -0.01282096 -0.002981964 -0.01647043 -0.0034597127
000240 10 47 81 bc be 5a 45 3d e7 c5 be bd 2e 2c 80 3c
       -0.015780956 0.04818224 -0.093150906 0.015646067
000250 4d 87 09 bc 19 8d c5 3c 90 e2 75 3a 90 84 15 3d
       -0.008394075 0.024115132 0.0009379769 0.036503375
000260 f6 3b c5 bb b3 f4 05 3b ae a2 91 bd a2 a0 b6 3c
       -0.006019111 0.0020440042 -0.07111107 0.022293393
000270 a2 06 41 3d a5 7f 36 bd d2 bd 2e 3c c1 d6 34 3d
       0.047125466 -0.044555325 0.010665374 0.044150118
000280 ca e6 31 bd 4e d9 64 3c 90 36 ab bb e7 19 8a 3b
       -0.04343299 0.013967825 -0.00522501 0.0042145136
000290 97 73 4d 3b b9 b3 8b 3d 09 a2 5e 3d c4 e0 14 3c
       0.0031349414 0.06821389 0.054353748 0.009086791
0002a0 e0 d2 1b 3d e5 22 67 3d d4 c9 dc bb 57 3a 47 bd
       0.038042903 0.056429762 -0.006737927 -0.04863962
0002b0 ce 91 8e 3b 20 e8 f4 3c a7 74 4a bc c2 08 f7 bb
       0.0043508774 0.029895842 -0.012356914 -0.007538886
0002c0 27 6f cf 3c af 2f 01 bc 35 27 21 bd 51 5b 62 bd
       0.025321556 -0.007884904 -0.03934403 -0.055262867
0002d0 51 11 ae 3c 4a ea 75 bd df 4d d0 3c aa 1f 1b 3d
       0.021248491 -0.06003789 0.025427757 0.037871994
0002e0 e5 78 1d 3d 16 38 d9 bc 89 16 3f bd 9c 79 f9 bc
       0.038445372 -0.026516002 -0.04665235 -0.030453496
0002f0 8f 65 85 bd 47 99 02 bd 87 de 1c bd 1e d2 28 3d
       -0.065135114 -0.031884458 -0.038298156 0.04121601
000300 79 13 83 3c 86 d8 15 bd 3c fa d2 3c a1 8a 40 3d
       0.016000496 -0.036583446 0.025754087 0.047007207
000310 04 f4 16 3c f6 77 dc bb 1e 26 fa bc 79 02 05 3d
       0.009213451 -0.0067281676 -0.030535754 0.03247306
000320 8f 77 fb 3b 4a 12 71 3c b5 03 cf 3c b2 6b 45 3d
       0.0076741646 0.014713833 0.025270322 0.04819841
000330 8c c2 f1 bc ca 1f ae bc 75 61 37 3d 25 3c 20 bc
       -0.029511712 -0.021255393 0.044770677 -0.009779965
000340 ab 95 d9 3b 1c ec 4f 3d c6 e3 5f bc 9d e5 1b 3d
       0.0066401563 0.05076228 -0.013665145 0.038060773
000350 44 28 d0 3c 9f 5b 89 bc c5 fa 07 3d 60 9c ac 3c
       0.025409825 -0.016767321 0.033198137 0.02107066
000360 9a c5 b1 3c 10 8b aa 3c 4e a0 52 bb 49 2a 87 bc
       0.02170067 0.020818263 -0.0032139006 -0.016499655
000370 93 dd 56 3d 45 92 12 bd 66 18 81 bd 90 05 23 3d
       0.052457403 -0.035784025 -0.06303482 0.039800227
000380 be 11 3a bc 39 a6 92 bd ca a6 2b 3d 0b ff ce 3c
       -0.011356769 -0.07160611 0.04190711 0.025268098
000390 60 be 15 3a 68 02 c1 bc b3 5e 2a bd 14 22 24 bc
       0.0005712267 -0.023560718 -0.04159422 -0.0100178905
0003a0 c7 b1 8d bc ed cc 8a bb 76 d5 83 bc df 7d 5e 3d
       -0.017296685 -0.004235855 -0.016092997 0.05431926
0003b0 07 80 51 b8 75 51 29 3d b6 f7 df bc 51 aa 44 3b
       -4.9948718e-05 0.04133745 -0.027339797 0.0030008743
0003c0 89 13 7b 3d 65 1a ab 3c 45 54 04 bc 49 d0 08 bc
       0.061297927 0.02088661 -0.008076732 -0.00835044
0003d0 f5 a1 22 3d 5e 56 b6 bb 5e ba 28 bd e5 4b f4 bc
       0.039705236 -0.005564495 -0.04119336 -0.029821346
0003e0 92 00 0e bd fa 85 d4 3c fb 0d ed bc bf 38 e1 3c
       -0.034668513 0.025942791 -0.02893733 0.027492879
0003f0 75 85 75 3d b3 88 bd 3c 08 3b 13 3d d6 da d1 bc
       0.059941728 0.023136472 0.03594497 -0.025617044

fnn.bias f4 [10]
000000 b8 17 25 3c 48 70 77 3d 30 f0 96 3c b6 cb cc 3c
       0.010076456 0.060409814 0.018425077 0.02499948
000010 44 40 28 bd ca 18 63 ba cc 34 5d bb 26 1d 7e 3c
       -0.041076913 -0.00086630567 -0.0033753393 0.015509879
000020 9a 2d 18 3c 94 32 68 bb
       0.009288216 -0.0035430538
