cnn/mnist/output/epoch_0.pt (torch, 202775 bytes, 6 tensors)

conv1.conv1.weight f4 [32, 1, 3, 3]
0	0xbdf69297	-0.120396785
1	0x3e5de2fb	0.21668617
2	0x3da032ab	0.07822164
3	0xbe4940ae	-0.1965358
4	0xbe13a4cd	-0.14418335
5	0x3e93ebe2	0.28890902
6	0xbe7a26ae	-0.24428818
7	0xbe6d34b1	-0.23164631
8	0xbe87501b	-0.26428303
9	0x3d89478d	0.067031
10	0x3e4637f0	0.19357276
11	0x3e8d4f32	0.27599484
12	0xbdb6cb83	-0.089255355
13	0xbea74128	-0.32666898
14	0xbea93356	-0.3304698
15	0x3d8170ca	0.06320341
16	0x3de0a603	0.10969164
17	0xbcb67d26	-0.022276472
18	0xbe80fbff	-0.25192258
19	0x3d9e2ba5	0.07723168
20	0x3e4407ce	0.19143602
21	0x3c224fde	0.009906737
22	0x3c1cc043	0.009567323
23	0xbe8f0cb8	-0.2793939
24	0x3e30b9fa	0.17258444
25	0xbe84bb28	-0.2592404
26	0x3e55ef81	0.20892145
27	0xbe245d99	-0.1605133
28	0xbdc966f6	-0.09834091
29	0xbe8fe73b	-0.28106102
30	0x3ea33154	0.31873572
31	0xbe88236d	-0.26589528
32	0xbe660819	-0.22464027
33	0xbe644e99	-0.22295608
34	0x3dfe7462	0.12424542
35	0xbcb778b8	-0.02239643
36	0x3e2852b0	0.16437793
37	0x3e5f41ff	0.2180252
38	0xbeae2d5a	-0.34018975
39	0x3dea6c68	0.11446458
40	0xbe97f6e5	-0.29680553
41	0xbea4415b	-0.32081112
42	0xbc81c6eb	-0.015841922
43	0x3dc894f4	0.097940356
44	0x3e860aee	0.26180214
45	0xbe372896	-0.17886576
46	0xbe5d1f80	-0.21594048
47	0xbdacd004	-0.08438113
48	0xbc698a20	-0.014254123
49	0x3c0017e4	0.007818196
50	0x3c7f0df6	0.015567293
51	0xbdeeb675	-0.11655895
52	0x3e74f77e	0.23922536
53	0xbc163dae	-0.009169979
54	0x3e3eef0b	0.18645875
55	0x3d21fc8c	0.039547488
56	0x3e8782e2	0.26467043
57	0xbe8a3da5	-0.27000156
58	0xbdc66d5a	-0.09688826
59	0xbeaa6ee4	-0.33287728
60	0x3c85efcb	0.016349694
61	0x3e8cd944	0.2750951
62	0x3e508937	0.20364843
63	0x3e911822	0.28338724
64	0xbd69aad7	-0.05704769
65	0x3e758f16	0.23980364
66	0xbe944144	-0.28956044
67	0xbc454b4a	-0.012041876
68	0x3e5ac9d2	0.21366051
69	0x3e87ddef	0.2653651
70	0x3e8ee498	0.27908778
71	0xbeb57aac	-0.35445154
72	0xbd73ba2c	-0.05950372
73	0x3dc07cb4	0.09398785
74	0xbe6fa72b	-0.23403613
75	0x3d5fad3f	0.05460858
76	0x3e72e092	0.2371848
77	0x3e2f9f48	0.17150605
78	0x3dcad7a7	0.09904414
79	0x3de9ebad	0.11421905
80	0x3e311a91	0.1729529
81	0xbd7eab3e	-0.062175028
82	0xbe872863	-0.26398
83	0xbcd3f76a	-0.025874812
84	0x3e9dfef2	0.3085857
85	0xbe85a753	-0.2610422
86	0xbe9fea96	-0.31233662
87	0xbe32085e	-0.17386004
88	0xbe24ff61	-0.16113044
89	0xbe280784	-0.16409117
90	0x3e8a52fb	0.27016434
91	0x3e7ba55b	0.24574797
92	0xbea21214	-0.31654418
93	0xbdf74039	-0.120727964
94	0xbe0061d2	-0.12537315
95	0x3d9a0f15	0.07522408
96	0x3e038179	0.12842359
97	0xbdd05d15	-0.10174004
98	0x3e7e84f8	0.24855411
99	0xbde82a83	-0.113362335
100	0x3bff447e	0.0077901473
101	0xbb427dc8	-0.0029677022
102	0xbdee8a3c	-0.1164746
103	0xbd2c8111	-0.042115275
104	0xbcee5ee1	-0.029097976
105	0x3e41832d	0.18897696
106	0x3d957946	0.07298522
107	0x3d1389c9	0.036020074
108	0xbea2a94f	-0.31769797
109	0x3c0806a2	0.008302363
110	0x3c874053	0.016510164
111	0xbe6934b8	-0.22774017
112	0x3d93bf85	0.07214264
113	0x3defa207	0.11700826
114	0xbde0bfbd	-0.10974071
115	0x3dbde887	0.09272867
116	0xbe2b86ef	-0.16750692
117	0xbe443504	-0.19160849
118	0xbe60a5da	-0.21938267
119	0xbe2d3aae	-0.16916916
120	0x3e41ec8a	0.18937889
121	0xbe4bccee	-0.19902393
122	0xbe7282e3	-0.23682742
123	0x3e979b32	0.29610592
124	0x3d9cf501	0.07663918
125	0x3e32806c	0.17431802
126	0x3e051e59	0.12999858
127	0xbde77c82	-0.11303045
128	0x3dcface3	0.101403974
129	0x3e8b989e	0.27264875
130	0xbea5aac1	-0.32356837
131	0xbe272dc9	-0.1632606
132	0x3e21ef4b	0.1581394
133	0x3dda03cb	0.10645255
134	0xbcd961e7	-0.026535941
135	0x3e13d817	0.144379
136	0x3e4ec367	0.20191728
137	0xbe98c585	-0.29838195
138	0xbdeb9b55	-0.115042366
139	0x3dcf7d7c	0.10131356
140	0x3e4f8486	0.20265397
141	0x3c954300	0.018220425
142	0xbca103de	-0.019655164
143	0xbba2eef3	-0.0049723326
144	0xbe8a35de	-0.26994222
145	0x3e4f6d59	0.20256557
146	0xbdf38b54	-0.11891809
147	0xbbcfbd6c	-0.0063397195
148	0x3e8ed753	0.27898654
149	0x3d6d2be5	0.05790319
150	0xbe1be0c9	-0.15222467
151	0xbd148b8f	-0.036265906
152	0xbc779037	-0.015110067
153	0x3e465be8	0.19370997
154	0xbe2f8b4c	-0.17142981
155	0xbe962bf7	-0.29330418
156	0x3e843e2f	0.25828692
157	0xbdd48343	-0.10376599
158	0x3d1339e8	0.035943896
159	0x3e875129	0.26429108
160	0x3be2889a	0.006913257
161	0xbd94e0a1	-0.07269407
162	0xbeae415f	-0.3403425
163	0xbe132e92	-0.14373234
164	0x3cfcb5e1	0.030848445
165	0xbe01d314	-0.12678176
166	0xbe08cfb4	-0.13360482
167	0xbd91ab72	-0.07112779
168	0xbe61a69d	-0.22036214
169	0x3d55c655	0.052191097
170	0x3e8c1be4	0.2736503
171	0x3e125863	0.1429153
172	0xbe94c269	-0.29054573
173	0xbeb6d052	-0.3570581
174	0xbe5c4b04	-0.21512991
175	0xbe5249d6	-0.20535979
176	0x3dea7737	0.1144852
177	0xbe4ae3ae	-0.19813415
178	0x3e6e7d6f	0.23290037
179	0x3dd2e8aa	0.102982834
180	0xbe950c20	-0.29110813
181	0xbe097ad5	-0.13425763
182	0xbe940258	-0.28908038
183	0x3d495f24	0.049163
184	0xbdeb4170	-0.114870906
185	0xbd285b34	-0.041102603
186	0x3dd0c5b4	0.10193959
187	0xbe91ca88	-0.28474832
188	0x3d1ba9a3	0.038003575
189	0xbc686986	-0.014185315
190	0xbd9690c5	-0.07351831
191	0x3e34351f	0.17598389
192	0x3e038150	0.12842298
193	0x3dd986a3	0.10621383
194	0xbdd2e5f1	-0.10297764
195	0xbe5867aa	-0.21133295
196	0xbe05b288	-0.13056386
197	0xbe450a5f	-0.19242238
198	0x3dfbd7a0	0.122969866
199	0xbe9b11aa	-0.30286914
200	0xbe2c9f7f	-0.16857718
201	0x3ada8e2a	0.0016674448
202	0x3e502ff5	0.20330794
203	0x3e75f9a5	0.24021013
204	0x3e139431	0.14412
205	0xbe989015	-0.29797426
206	0x3e3e77c6	0.18600377
207	0x3e8027e5	0.25030437
208	0xbdd4125a	-0.10355063
209	0xbe2efee0	-0.17089415
210	0x3d710d3c	0.058850512
211	0xbe0ff724	-0.1405912
212	0x3e76ae17	0.24089848
213	0x3e983b4a	0.29732734
214	0xbe9c6e97	-0.30553123
215	0xbeb52b39	-0.3538454
216	0xbdd00ded	-0.10158906
217	0xbb233e1c	-0.0024908846
218	0x3e2d4177	0.16919504
219	0x3e342178	0.17590892
220	0x3e093d93	0.13402395
221	0xbdfcaf5e	-0.12338136
222	0xbd5d2853	-0.053993534
223	0xbe21b22a	-0.1579062
224	0xbcdfe6fd	-0.027331823
225	0x3d58af87	0.05290177
226	0x3e6f72e7	0.23383676
227	0x3e6a11b7	0.2285832
228	0xbea2461a	-0.31694108
229	0x3df9ce15	0.1219751
230	0x3dbd6f00	0.09249687
231	0xbe732575	-0.23744757
232	0xbd30d086	-0.043167613
233	0xbe3da4ae	-0.18519852
234	0x3d0830a8	0.033249527
235	0xbe89edd4	-0.2693926
236	0xbe2b73b2	-0.16743353
237	0x3de7ebca	0.1132427
238	0xbda4797a	-0.08030982
239	0xbe323eb9	-0.1740674
240	0x3e6b8015	0.22998078
241	0x3e1f0af6	0.15531525
242	0xbe0dc571	-0.13844849
243	0xbe7c41f6	-0.24634537
244	0x3b405727	0.0029348822
245	0x3e87c4b0	0.26517248
246	0xbd5cf8e4	-0.053948298
247	0xbc899df7	-0.016798956
248	0xbe6b9382	-0.23005489
249	0x3e3db7fb	0.18527214
250	0x3dd79359	0.10526151
251	0x3d83a74c	0.06428394
252	0x3e7f3370	0.24921966
253	0x3cde78e1	0.027157249
254	0xba9fd1fa	-0.0012193315
255	0xbd864014	-0.06555191

conv1.conv1.bias f4 [32]
0	0xbe242220	-0.16028643
1	0xbe23e952	-0.16006973
2	0x3dc12843	0.094315074
3	0xbd0036ed	-0.03130238
4	0x3ec1fa26	0.3788616
5	0x3ea2271a	0.31670457
6	0xbe81284a	-0.2522605
7	0x3d19b5fa	0.037527062
8	0x3ea6da31	0.32588342
9	0xbe2dd0fa	-0.1697425
10	0xbe7283a4	-0.2368303
11	0xbe99687b	-0.29962525
12	0x3e3b8399	0.1831192
13	0x3e1dfc3e	0.15428254
14	0x3e9f1c10	0.31076097
15	0xbe6bc81d	-0.23025556
16	0xbe7a284d	-0.24429436
17	0x3ea660a0	0.32495594
18	0x3e882aca	0.26595145
19	0x3d7c956f	0.06166595
20	0xbe7ae306	-0.24500665
21	0xbea0e4c8	-0.31424546
22	0x3e9a55b3	0.30143508
23	0x3e546b52	0.20744064
24	0xbde1cb29	-0.11025078
25	0xbe0cb49e	-0.13740775
26	0x3d52d145	0.051469106
27	0x3e5d0704	0.21584707
28	0xbea9b36f	-0.3314471
29	0xbea2cbda	-0.3179615
30	0x3e913dec	0.28367555
31	0xbd3dff34	-0.04638596

conv2.0.weight f4 [64, 32, 3, 3]
0	0xbd10ab67	-0.035319712
1	0xbd6ddd73	-0.05807252
2	0xbc70e4ea	-0.014703015
3	0xbc7a8167	-0.015289641
4	0x3c309c35	0.01077943
5	0xbc7672a7	-0.015041984
6	0x3d0ba715	0.03409489
7	0xbd2d2db4	-0.042279914
8	0x3d13ab63	0.03605212
9	0x3c804b86	0.015661012
10	0xbd1d7375	-0.038440187
11	0xbac7ec7b	-0.0015252972
12	0xbd7f0189	-0.062257323
13	0xbc1370c7	-0.008999056
14	0xbd770499	-0.06030712
15	0x3d39238b	0.045199912
16	0xbd534c2d	-0.05158632
17	0x3cc5b0d1	0.024132164
18	0xbd1b5d76	-0.03793093
19	0xbd743ef1	-0.059630338
20	0x3d2e5e5e	0.042570464
21	0xbd82443d	-0.06360672
22	0xbc21a289	-0.009865412
23	0xbd524f23	-0.051345002
24	0x3d145f6f	0.036223825
25	0xbd3878ef	-0.045037206
26	0x3cbac924	0.02280099
27	0x3d27ca28	0.040964276
28	0xbd06f8bf	-0.032952067
29	0x3c647f39	0.013946348
30	0x3c82d273	0.01596949
31	0xbd4f613f	-0.05062985
32	0x3d21061c	0.039312467
33	0xbd5c0d52	-0.05372364
34	0x3d76a04f	0.060211476
35	0x3c181654	0.009282667
36	0xbcecaa3a	-0.028889764
37	0x3ce65121	0.028114857
38	0x3c9366d9	0.017993378
39	0xbd8c08be	-0.06837605
40	0x3d1bbf78	0.038024396
41	0xbd35f4b7	-0.04442283
42	0x3d19c944	0.037545457
43	0xbc97d10f	-0.018532304
44	0x3ce99f6d	0.028518403
45	0x3c31ef70	0.010860309
46	0xb91f1f56	-0.00015175095
47	0xbd85fdf2	-0.06542577
48	0xbb69e3c1	-0.003568873
49	0x3d018b88	0.031627208
50	0x3d268581	0.040654663
51	0x3ba2eaa4	0.004971819
52	0xbc3bf2d3	-0.011471468
53	0x3cd7266b	0.026263436
54	0x3d12d2db	0.03584562
55	0xbce145fe	-0.027499195
56	0xbbde42f0	-0.006782882
57	0x3d1f70de	0.038925998
58	0x3d0342f6	0.03204628
59	0xbc8b04d9	-0.016970085
60	0x3c8e13aa	0.01734336
61	0x3d3f5ef2	0.046721406
62	0xbb2cad97	-0.0026348585
63	0xbcad7cff	-0.021177767
64	0xbc79691c	-0.015222814
65	0xbd979ba1	-0.07402731
66	0xbd3d26dd	-0.04617964
67	0xbd775070	-0.060379446
68	0xbc906ee2	-0.017630998
69	0x3d32e24c	0.043672845
70	0x3b9efe29	0.0048520756
71	0xbd9c9be5	-0.07646922
72	0xbd7a7cb2	-0.061154075
73	0x3c89922f	0.016793339
74	0x3ce9791f	0.028500138
75	0x3c1a353b	0.009412105
76	0xbd77e813	-0.060524058
77	0x3cbf72e0	0.023370206
78	0xbd78d140	-0.06074643
79	0xbd4e861c	-0.050420865
80	0xbd194263	-0.037416827
81	0xbc69bfac	-0.01426689
82	0x3caa4e06	0.020789158
83	0xbd2840ab	-0.041077297
84	0xbbbc7983	-0.00575179
85	0xbc5f260d	-0.013619912
86	0xbbc8a8c1	-0.0061236327
87	0x3d2fd8d9	0.04293141
88	0xbd30c903	-0.04316045
89	0xbc54bcd1	-0.01298447
90	0x3d127b65	0.03576221
91	0x3c021d1b	0.00794151
92	0x3c079d06	0.008277183
93	0xbd2b0662	-0.041754134
94	0xbc1da532	-0.009621905
95	0xbd9e390a	-0.07725723
96	0x3cb92c4b	0.022604128
97	0x3c1a7182	0.009426476
98	0x3a9e8b03	0.0012095872
99	0xbd89d6fa	-0.06730457
100	0x3cadadb4	0.021200992
101	0xbd5d3a38	-0.0540106
102	0x3d1a5d94	0.0376869
103	0x3d083df8	0.033262223
104	0x3c0848b8	0.008318119
105	0xbd0a489d	-0.033760656
106	0xbb87858b	-0.0041357926
107	0x3c8b87dc	0.017032556
108	0xbc0488b1	-0.00808923
109	0xb9d1b2a2	-0.00039996678
110	0x3cfbc570	0.030733794
111	0xbd5c56a7	-0.053793576
112	0xbcd40850	-0.02588287
113	0xbc900760	-0.017581642
114	0xbd3b2105	-0.045685787
115	0x3d8cd5f0	0.06876743
116	0xbb64baa2	-0.003490128
117	0xbcd820da	-0.026382852
118	0x3d1b0867	0.03784981
119	0xbd241511	-0.040059153
120	0xbcd97c25	-0.026548455
121	0x3d1b6fc3	0.03794838
122	0x3d01bea7	0.03167596
123	0xbd84e8c8	-0.06489712
124	0x3b985171	0.0046483804
125	0xbb60ff9a	-0.0034332038
126	0xbcd68868	-0.02618809
127	0xbc1a6e56	-0.00942572
128	0x3ce93ccc	0.028471373
129	0x3c289e37	0.010291628
130	0xbd3ae666	-0.04562988
131	0xbc860ab2	-0.016362522
132	0xbd7b78fa	-0.06139467
133	0xbc9571ff	-0.018242834
134	0xbd6e6783	-0.058204185
135	0xbd204337	-0.0391266
136	0x3ce6d1fd	0.028176302
137	0xbd172b14	-0.036906317
138	0x3c9a3e18	0.018828437
139	0xbb153d21	-0.0022772031
140	0xbd7c3879	-0.061577294
141	0x3ca0203c	0.01954662
142	0x3d3ada43	0.045618307
143	0x3d2bdb51	0.041957203
144	0xbd88aa6e	-0.06673132
145	0xbd780327	-0.06054988
146	0x3c1ab968	0.009443618
147	0x3d1acc52	0.03779251
148	0xbcd7856c	-0.026308738
149	0x3c5fb643	0.013654294
150	0x3cf79150	0.030220658
151	0xbd2b9381	-0.041888718
152	0xbd461fc0	-0.048370123
153	0x3c82cd3e	0.015967008
154	0xbd073f5c	-0.03301941
155	0x3bb2d213	0.0054571717
156	0xbb73ae98	-0.0037182923
157	0xbd6f91de	-0.05848872
158	0xbceb25bb	-0.028704515
159	0x3d44a01f	0.048004266
160	0x3b03292f	0.002001356
161	0x3cb362f5	0.021897772
162	0x3d53012a	0.051514782
163	0x3d6bc1ec	0.057557985
164	0x3d13a6d3	0.036047768
165	0x3d4ad327	0.049517777
166	0x3bae991c	0.0053283107
167	0xbc3b79ca	-0.011442611
168	0xba0b4f66	-0.00053142605
169	0xbd1f7e89	-0.038939033
170	0xbd1e7b77	-0.038691964
171	0x3d423079	0.04740951
172	0x3ac04806	0.0014669902
173	0xbce79bbc	-0.028272502
174	0x3c8292dd	0.01593917
175	0x3d2136c7	0.03935888
176	0xbd5e9298	-0.05433902
177	0x3c583556	0.01319631
178	0xbd34f048	-0.044174463
179	0x3d24733f	0.04014897
180	0x3d18df5d	0.03732239
181	0x3cbd6c94	0.023123063
182	0xbced0751	-0.028934153
183	0x3d686ce8	0.056744486
184	0xbd733746	-0.059378885
185	0xbd111056	-0.03541597
186	0xbd4f5af5	-0.050623853
187	0xbca813e8	-0.020517305
188	0x3ce2d588	0.02768971
189	0xbd30cce6	-0.043164156
190	0xbd69a023	-0.057037484
191	0x3c5179f7	0.012785426
192	0x3d350068	0.04418984
193	0x3cf7e99e	0.030262765
194	0x3d0bd90b	0.034142535
195	0x3d0eda2e	0.03487604
196	0x3cb984c5	0.022646317
197	0xbd16caad	-0.03681438
198	0xbb821782	-0.0039700875
199	0xbd6b0b8f	-0.05738407
200	0x3c2708fb	0.010195012
201	0xbcc99cf7	-0.02461098
202	0x3c8b6037	0.017013652
203	0x3ced257d	0.02894854
204	0x3cdfe93e	0.027332898
205	0xbd313f8e	-0.0432735
206	0xbd6eb6e3	-0.058279883
207	0xbbd90b86	-0.006623688
208	0xbc3ae7b7	-0.011407784
209	0x3b0033c7	0.0019562112
210	0x3cd53a62	0.026028816
211	0x3d21e377	0.039523568
212	0x3bf8566c	0.0075786617
213	0x3ca503aa	0.020143349
214	0x3c62c081	0.013839842
215	0xbd35e327	-0.044406082
216	0xbd8a16b4	-0.067426115
217	0xbb802676	-0.003910835
218	0xbd298ec9	-0.041395936
219	0xbd8db782	-0.06919767
220	0xba447f1c	-0.00074957474
221	0x3a2cd830	0.0006593494
222	0xbb7d1343	-0.0038616217
223	0xbc4e565d	-0.012593833
224	0xbd4f63d4	-0.050632313
225	0xbd28a5a6	-0.0411736
226	0x3d270188	0.040772945
227	0x3c85afeb	0.016319236
228	0xbd88463a	-0.0665402
229	0xbd6acec6	-0.0573261
230	0x3cf2276c	0.029559813
231	0xbd49cae0	-0.049265742
232	0x3cd937be	0.026515838
233	0x3d28a98b	0.041177314
234	0xbbca00ef	-0.006164662
235	0xbcad7cab	-0.02117761
236	0xbd189296	-0.03724917
237	0xbd55fd4f	-0.052243527
238	0xbd49a0ac	-0.049225494
239	0xbd527b91	-0.051387373
240	0xbcf397df	-0.029735504
241	0x3d53fd20	0.05175507
242	0x3d435d2d	0.04769628
243	0xbcd51384	-0.026010282
244	0x3d41b8ed	0.0472955
245	0xbc4de98a	-0.012567887
246	0xbc7de58c	-0.015496623
247	0xbd430b64	-0.047618285
248	0x3bb49c4f	0.0055117975
249	0xbc80c356	-0.015718143
250	0x3d1d55f9	0.038412068
251	0xbbdad148	-0.0066777803
252	0x3cb3fb94	0.021970548
253	0x3d2dc009	0.042419467
254	0xbb375515	-0.0027974297
255	0x3cd2c5a1	0.025729002

conv2.0.bias f4 [64]
0	0xbd924946	-0.07142882
1	0xbcd26f2f	-0.025687782
2	0xbbe76121	-0.007061139
3	0xbddc4494	-0.10755268
4	0xbc98d2ec	-0.018655263
5	0x3b183f11	0.002323095
6	0xbd5f3ba4	-0.054500237
7	0xbb230e48	-0.0024880338
8	0xbc6df6dc	-0.014524188
9	0x3c60a004	0.013710026
10	0xbd1b8485	-0.037968177
11	0xbd5b2bd7	-0.053508606
12	0xbcce6f2e	-0.025199499
13	0x3d4ab783	0.049491417
14	0xbd34131c	-0.043963537
15	0xbca490f5	-0.020088652
16	0x3caa20bd	0.020767564
17	0x3bf2d125	0.007410186
18	0xbd8fc256	-0.070194885
19	0xbd4f26fb	-0.050574284
20	0xbdaa0a99	-0.083028026
21	0x3c67413f	0.014114677
22	0x3c124831	0.008928345
23	0xbd6a7365	-0.057238955
24	0x3ad970fb	0.0016589457
25	0xbce4dfbe	-0.02793872
26	0xbd431fe1	-0.047637824
27	0xbca01a82	-0.01954389
28	0xbcff0ee2	-0.031135026
29	0xbd6f3f52	-0.058409996
30	0xbd06723f	-0.032823797
31	0x3ce4e68e	0.027941968
32	0xbbb769ee	-0.0055973446
33	0xbd836faf	-0.06417786
34	0xbd0f4adb	-0.034983497
35	0x3cd3719b	0.025811007
36	0xbcb1b970	-0.021694869
37	0x3d11045c	0.035404548
38	0xbd13abb0	-0.036052406
39	0xbcc649a3	-0.024205035
40	0xbd45a6ac	-0.048254654
41	0xbd820131	-0.063478835
42	0x3d1c5a7e	0.038172238
43	0xbc12f50d	-0.0089695575
44	0xbd2b61e9	-0.04184142
45	0x3c989d72	0.018629763
46	0xbd883b62	-0.066519514
47	0xbd319aa9	-0.043360386
48	0x3b93371c	0.0044926535
49	0xbb9378ed	-0.0045004995
50	0xbd922b0d	-0.071371175
51	0xbcc7202e	-0.024307337
52	0xbd8b26d0	-0.06794512
53	0x3cb11d86	0.021620523
54	0xbd5650d9	-0.052323196
55	0xbcb38be8	-0.021917298
56	0x3baf0b00	0.0053418875
57	0xbcbdc61a	-0.023165751
58	0x3c60cf1c	0.013721254
59	0xbd37c8d4	-0.04486926
60	0xbc8750be	-0.016517993
61	0xbb93fefb	-0.00451648
62	0xbd6ec80f	-0.05829626
63	0xbccc3dac	-0.024931751

fnn.weight f4 [10, 3136]
0	0xbd2bc01a	-0.04193125
1	0x3c89cc7a	0.016821135
2	0x3cf03c9d	0.029325778
3	0xbc6bdf13	-0.014396447
4	0x3d53fdff	0.0517559
5	0x3cb6c7ae	0.022312012
6	0x3b8119d5	0.003939847
7	0x3bf54005	0.0074844384
8	0xba9ecf24	-0.0012116176
9	0x3d003e35	0.031309325
10	0x3825bd47	3.9515344e-05
11	0x3ca48942	0.02008498
12	0xbd41ed6a	-0.047345556
13	0xbd34bb3f	-0.044123884
14	0xbd1e8511	-0.03870112
15	0xbd124dc6	-0.0357187
16	0xbc4f8f18	-0.012668394
17	0xbd0cc5cc	-0.03436832
18	0x3ced2d8a	0.028952379
19	0x3cb92fc5	0.022605786
20	0x3d17f0fc	0.037095055
21	0x3ca9a330	0.020707697
22	0x3b12cfde	0.002240173
23	0xbd0da0d5	-0.03457721
24	0x3c1e6895	0.009668489
25	0x3d1611f1	0.036638204
26	0xbc5f5329	-0.013630667
27	0x3bd936ab	0.0066288314
28	0xbbd63a13	-0.0065376847
29	0xbbb80fae	-0.0056171035
30	0xbd34b53c	-0.04411815
31	0xbd1e54f1	-0.038655225
32	0x3c7b1700	0.015325308
33	0x3c922764	0.017841049
34	0x3bdd0970	0.00674551
35	0xbba9fd9a	-0.0051877024
36	0xbcc91023	-0.024543827
37	0x3c8aeebc	0.01695954
38	0xbc74918a	-0.014927277
39	0x3c1ab082	0.009441497
40	0x3d259b80	0.0404315
41	0x3ccf445e	0.025301155
42	0x3ce4ba78	0.027920946
43	0x3ceb9213	0.028756177
44	0xbd0582ff	-0.03259563
45	0xbd59e0f5	-0.05319305
46	0xbcc0b572	-0.02352402
47	0xbc39a785	-0.011331444
48	0xbc84b220	-0.016198218
49	0x3c53ad6d	0.012919766
50	0x3c05bf0b	0.008163224
51	0x3c16c932	0.009203242
52	0x3d25662c	0.04038064
53	0xbcd33e55	-0.025786558
54	0xbc866a1e	-0.016408022
55	0x3c3a5733	0.011373329
56	0xbd0dbef9	-0.034605954
57	0x3cc8e33b	0.024522414
58	0x3cdc6802	0.026905064
59	0xbc227eb0	-0.0099179
60	0xbcc16be3	-0.023611015
61	0x3d2c3610	0.042043746
62	0xbc43fea6	-0.011962568
63	0x3bd146a1	0.0063865934
64	0xbcb96a66	-0.022633743
65	0x3cbaf2b7	0.022820814
66	0x3c87f6cb	0.016597172
67	0x3d305257	0.043047275
68	0xbcebf207	-0.028801931
69	0x3b8f06af	0.0043648104
70	0xbc265698	-0.0101524815
71	0x3ccb3e51	0.024809988
72	0x3bd08083	0.006362976
73	0x3bcf67dd	0.00632952
74	0x3c9f97c2	0.019481543
75	0xbc3e9014	-0.011631031
76	0xbbcca124	-0.0062447954
77	0xbd1d0c76	-0.03834196
78	0xbd232566	-0.039830588
79	0xb823ad41	-3.9023584e-05
80	0x3b3cfb6a	0.0028836378
81	0xbb98992b	-0.004656931
82	0xbcdd6e4a	-0.027030129
83	0xbbe41509	-0.0069605154
84	0x3d00ef8c	0.03147845
85	0xbbdd2b8a	-0.006749575
86	0x3c36ab2b	0.011149208
87	0x3d1fa8b9	0.038979266
88	0x3d445ca2	0.047939904
89	0x3cf3920c	0.029732727
90	0xbcd42acd	-0.025899315
91	0x3ce7eb8d	0.028310562
92	0xbcc29a01	-0.023755075
93	0x3ca35958	0.019940063
94	0xbbffa9c2	-0.007802219
95	0xbcbfcca3	-0.023413008
96	0x3cc68efc	0.024238102
97	0x3bfb69b0	0.007672511
98	0xbd321244	-0.04347445
99	0x3c9d9588	0.019236341
100	0x3af3b9df	0.0018594823
101	0x3d2991e9	0.041398916
102	0x3d05863e	0.032598726
103	0xbbd7243b	-0.0065655983
104	0xbd301d66	-0.042996787
105	0xbce06862	-0.027393524
106	0xbcc35212	-0.023842845
107	0x3c991281	0.018685581
108	0xbc2f36af	-0.01069419
109	0x3d44145d	0.047870982
110	0x3d444f8d	0.047927428
111	0x3c0300c1	0.007995785
112	0xbd809ce4	-0.062799245
113	0x3bb1477d	0.0054101334
114	0x3b097890	0.0020976402
115	0xbc5ad400	-0.013356209
116	0xbc081a80	-0.008307099
117	0xbc698b56	-0.014254412
118	0xbc7b3c08	-0.015334137
119	0x3ca43925	0.02004678
120	0x3c8553b0	0.016275257
121	0xbd01d260	-0.03169477
122	0x3b9c6947	0.004773292
123	0xbcb3e2f8	-0.021958813
124	0xbd4b71bc	-0.049669012
125	0xbb5d121e	-0.0033732723
126	0xbca03b22	-0.019559447
127	0xb9c18178	-0.0003690829
128	0x3d114d3b	0.035474043
129	0x3d2b4e49	0.041822705
130	0x3cbddd8c	0.02317693
131	0xbc51414f	-0.012771918
132	0xbcc0b114	-0.023521937
133	0x3b0756c1	0.0020651075
134	0x3b953ad3	0.0045541315
135	0xbce63c57	-0.028104944
136	0x3ce7d76a	0.02830096
137	0xbcb7eba5	-0.022451231
138	0xbc821a84	-0.015881784
139	0x3cb85e45	0.022505889
140	0xbc65f748	-0.014036007
141	0xbb42af44	-0.0029706517
142	0xbc8709d9	-0.016484188
143	0xbd003646	-0.03130176
144	0xbcef92da	-0.029244829
145	0x3c9c7775	0.01909993
146	0xbd0d4f3a	-0.034499384
147	0x3c910a9b	0.017705252
148	0xbc841811	-0.016124757
149	0x3cc07398	0.02349262
150	0x3b005d1f	0.0019586754
151	0x3d1a8e49	0.03773335
152	0x3c399e20	0.011329204
153	0x3aadd9fd	0.0013263818
154	0xbd2a2754	-0.041541412
155	0x3c4fbc03	0.012679103
156	0x3cdccea1	0.026953997
157	0xbd1100d8	-0.035401195
158	0x3c92b551	0.017908724
159	0x3d269003	0.040664684
160	0xbd4a55c8	-0.049398214
161	0x3cdf18a4	0.02723343
162	0x3c1d4f07	0.009601361
163	0xbcad7ff3	-0.021179175
164	0xbbf4ee23	-0.007474677
165	0x3d586f22	0.05284036
166	0x3d29f45e	0.041492812
167	0x3cb94092	0.022613797
168	0x3cb58030	0.022155851
169	0x3d05300e	0.03251653
170	0xbd077932	-0.033074565
171	0xbc7f1e2b	-0.015571157
172	0xbc3355f7	-0.010945789
173	0x3bce6014	0.0062980745
174	0xbcb4fc9f	-0.022093115
175	0x3c332728	0.010934629
176	0x3d201fe1	0.039092902
177	0xbbe22352	-0.006901183
178	0xbc200953	-0.009767848
179	0xbc92ae68	-0.017905429
180	0xb8b81ec6	-8.779536e-05
181	0xbced6e55	-0.028983274
182	0x3cad4d40	0.021155
183	0x3bc6a6f7	0.006062384
184	0x3c593a06	0.013258463
185	0xbc87a8a1	-0.0165599
186	0xbd1072ab	-0.035265606
187	0xbcf79a3f	-0.030224917
188	0xbd22d2a3	-0.03975166
189	0xbce63895	-0.028103152
190	0xbd120a03	-0.03565408
191	0x3d25a0f1	0.04043669
192	0x3c415a65	0.011801337
193	0xbcf211d5	-0.029549519
194	0x3cd54373	0.026033139
195	0x3d44d9cb	0.048059266
196	0x3c16f404	0.009213451
197	0xbbc2c005	-0.0059433007
198	0xbcfa259a	-0.030535508
199	0x3d015634	0.03157635
200	0x3c060aba	0.008181268
201	0x3ca5b1fd	0.020226473
202	0xbb64f329	-0.0034934974
203	0x3d47687d	0.048683632
204	0xbcf1af9b	-0.02950268
205	0xbcad1204	-0.021126755
206	0x3d37ce50	0.04487449
207	0xbc0fab55	-0.008768876
208	0xba86f9cf	-0.0010297837
209	0x3d2e7ddd	0.0426005
210	0xbbf052e7	-0.0073341015
211	0x3ceee11b	0.029160073
212	0x3cdfdbde	0.02732652
213	0xbd180c4a	-0.037121095
214	0x3d0c35fd	0.034231175
215	0x3cfd7bdb	0.030942848
216	0x3d1d9d15	0.038479883
217	0x3cf99907	0.030468477
218	0xbc966878	-0.018360361
219	0xbc871dd7	-0.016493721
220	0x3ce9f696	0.028559964
221	0xbd08e24f	-0.03341895
222	0xbd2bbf5a	-0.041930534
223	0x3d4f35ee	0.05058854
224	0xbc9b2122	-0.018936697
225	0xbd905b64	-0.070486814
226	0x3d2d7ba7	0.042354252
227	0x3ca4a0ae	0.02009615
228	0x3c0efdd8	0.008727513
229	0xbcdc5d0a	-0.026899833
230	0xbd0f5db0	-0.035001457
231	0xbcc13010	-0.023582488
232	0x3bad8323	0.0052951737
233	0xbb86a01d	-0.0041084425
234	0xbc72cf06	-0.014819866
235	0x3d0e3017	0.03471383
236	0xbb9de7db	-0.004818899
237	0x3cc47206	0.023980152
238	0xbcc45467	-0.023966027
239	0xbbaa9ae2	-0.0052064518
240	0x3d4d9ec4	0.05020024
241	0x3bee3f50	0.007270731
242	0x3cdc585e	0.026897606
243	0xbd1a2a64	-0.037638083
244	0x3cfee714	0.031116046
245	0xbbb1f47f	-0.0054307575
246	0xbcc44e5c	-0.023963146
247	0xbab3dd30	-0.0013722535
248	0xbd0d3cb3	-0.034481715
249	0x3cf8ea68	0.030385211
250	0xbcee6d95	-0.029104987
251	0x3cde5d63	0.02714414
252	0x3d028be6	0.0318717
253	0xbc17f39e	-0.009274391
254	0x3cd344c9	0.025789635
255	0xbcd26e20	-0.025687277

fnn.bias f4 [10]
0	0x3bf593dc	0.007494433
1	0x3cd6a499	0.026201533
2	0x3c9c66d8	0.019092008
3	0x3bf85583	0.007578553
4	0xbc8976f4	-0.016780354
5	0x3bb1c35d	0.0054249004
6	0x3bfa304d	0.0076351524
7	0x3b489e7a	0.0030612038
8	0x3cb41e9e	0.021987256
9	0x3a1f9bf0	0.0006088605
