cnn/mnist/output/epoch_1.pt (torch, 202775 bytes, 6 tensors)

conv1.conv1.weight f4 [32, 1, 3, 3]
00000000: 1fbf 08be eb9a 343e 0379 413d 5022 4bbe
00000010: f072 23be ae8f 943e 94e5 61be 0bb4 7bbe
00000020: 4346 6cbe 5242 233d a8fb 283e 7955 613e
00000030: e8c1 f4bd 420d a8be 0a1b bebe 68c9 df3c
00000040: bbc1 ab3d e324 1cbd 1902 7cbe a772 463d
00000050: c406 323e 6fab e53b a8b7 d4bb 4eb9 8fbe
00000060: 3b4e 1c3e 4038 8cbe 2e1a 2b3e cac8 43be
00000070: f97d 08be d82a a6be 3e65 993e 3764 8ebe
00000080: 9aeb 8bbe 31c1 72be 27b3 a13d a0e9 96bd
00000090: def6 0f3e a235 403e d60c bebe 57af a23d
000000a0: be80 98be 885a a6be df0e 85bd 1a6b 493d
000000b0: 9363 523e 6ecb 67be 9242 6dbe 0c12 c4bd
000000c0: 5bb6 07bd 768b cb3b bf9c a73c 36b4 0cbe
000000d0: f954 4f3e a9ce 32bd 41f7 1d3e 329c 773c
000000e0: 6943 5c3e a9aa 90be f781 f1bd ff3c bcbe
000000f0: 57ba 5fbb 6fd6 6e3e b49b 103e e2d9 723e
00000100: c008 cfbd de66 373e 71f7 a1be 951b 1bbd
00000110: d5e6 393e 4b32 593e 8a61 6f3e 4e0d cbbe
00000120: 13e8 93bd e7be 8f3d 999c 85be b8ee 213d
00000130: 415e 423e d465 f03d fd55 8b3d 97d8 593d
00000140: 800b c73d f23b 80bd 6b26 6ebe e06f dfbc
00000150: 72cf a73e a975 89be 34fa cbbe 1fc5 00be
00000160: f1d9 ecbd 94a4 ebbd f072 5b3e bf43 613e
00000170: 29b2 afbe 5ac7 18be 0303 ecbd bdef 133d
00000180: f66e b83d 86b6 e8bd 5a88 3d3e 008a eebd
00000190: 3aed c3bc e8c4 d4bc 5486 0abe 23b3 6abd
000001a0: b80a 4abd 21bb 223e b05b 813d 08a4 393c
000001b0: 42d9 aabe 576e 04bd 5aec 93bb 41a0 74be
000001c0: 9ded 6c3d 6b0b d03d bcde f1bd eb38 c93d
000001d0: 7ebb 1abe 9e9c 61be 2fdc 60be 4f09 35be
000001e0: 8301 133e 654b 44be fa89 80be 990a 823e
000001f0: 1be9 583d 507b 0d3e 09e0 cc3d 746f febd
00000200: 8b4c a73d 0a26 793e bdc7 a2be 9a5d 22be
00000210: 473c fa3d d45b de3d 9f79 cdbc 2e6b b63d
00000220: aec9 343e a50e 9ebe c1b6 19be a056 af3d
00000230: 936f 343e 63a2 f13a 593b 3ebd 5ea3 94bc
00000240: c532 8cbe a7f4 463e 515f 14be 8471 4dbc
00000250: 10e0 843e afae dd3c 4fbd 0abe ec52 08bd
00000260: 3903 14bd 383c 2b3e bee2 31be ca05 9abe
00000270: 44b0 633e d1bf f7bd 7a57 973c 8254 463e
00000280: 274b 0abd 90dd b0bd 5693 9dbe c767 0cbe
00000290: b0fd d03c de1f 21be aa72 02be e6fa 9abd
000002a0: 9728 79be 9f0a 193d 06e8 7f3e bf10 1b3e
000002b0: 08a4 84be df00 bcbe 6cfc 6abe c2d0 54be
000002c0: b4f7 003e d20b 53be d5ae 643e 8fa8 a33d
000002d0: db7a a8be 55f7 08be e76a 88be 0ec2 973d
000002e0: 66cb 8cbd af13 44bc 4780 b13d 4a60 95be
000002f0: 6718 143d 4cb8 02bd 3000 86bd 6f23 193e
00000300: 61ff f13d baad 063e c931 bebd c70b 6cbe
00000310: ff4e 9dbd 8f63 32be 24c1 cb3d 1b08 9ebe
00000320: d9bc 39be 49d5 d0bc e142 493e 774c 4a3e
00000330: 036c cd3d cdef a8be 809b b93d 7d61 6d3e
00000340: ff63 debd fa1f 2dbe 5d5c ef3c 2eba 2ebe
00000350: bc13 573e 5c1d 7c3e 9ca7 aebe 5be7 bdbe
00000360: b913 e0bd 9c91 27bc 91c5 123e f9e4 2c3e
00000370: 1267 083e b09d 01be 6af0 5ebd 2188 1ebe
00000380: 0a27 2ebd 973e 403d 5ce1 443e e124 303e
00000390: f790 9cbe 4587 ac3d c6e0 3a3d 8585 8bbe
000003a0: ef5e b2bd fcd4 58be 9263 3f3b 1d40 93be
000003b0: b238 16be 8fc8 893d fc95 bdbd bca3 41be
000003c0: 9bc2 2d3e 9594 ed3d ca15 25be a1bb 7abe
000003d0: b83f 72bc e65c 683e c2cb 84bd 7113 84bc
000003e0: aa98 88be 5a60 0f3e 40d1 923d 97cf 913c
000003f0: 1e27 5e3e 829a 833c 2a4c a6bc f514 8bbd
-0.13354157 0.17637222 0.047234546 -0.19837308 -0.15961814 0.2901587 -0.22060233 -0.245804
-0.23073678 0.03985817 0.16502249 0.22005261 -0.11951047 -0.32822615 -0.37130004 0.027317718
0.083865605 -0.038121115 -0.24610175 0.048449185 0.17385393 0.007008962 -0.00649162 -0.28071064
0.15264218 -0.27386665 0.16709206 -0.19119564 -0.13329305 -0.32454562 0.29960054 -0.27810833
-0.27328187 -0.23706509 0.07895499 -0.07368779 0.14059016 0.1877046 -0.37119168 0.079436
-0.29785722 -0.32490945 -0.06496977 0.049174406 0.20545797 -0.22636196 -0.23169926 -0.09573755
-0.033132892 0.0062116934 0.020460485 -0.1374062 0.20247258 -0.043654118 0.15426351 0.015112923
0.2151009 -0.28255203 -0.11792367 -0.36765286 -0.0034138167 0.23323987 0.14121896 0.23715928
-0.10109091 0.17910334 -0.31634095 -0.0378681 0.18154462 0.21210591 0.23377052 -0.39658588
-0.07221999 0.070188336 -0.26096037 0.0395343 0.18981268 0.11738172 0.0680351 0.05318507
0.0971899 -0.06261434 -0.23256843 -0.027275026 0.32775456 -0.2684758 -0.39839327 -0.12575196
-0.115650065 -0.11506 0.21430564 0.219985 -0.34315613 -0.14919797 -0.11524012 0.036117304
0.09005539 -0.113629386 0.18509045 -0.11647415 -0.02391683 -0.025972798 -0.13527805 -0.057299744
-0.04932663 0.15891697 0.06316316 0.011330612 -0.3336888 -0.03233179 -0.0045142593 -0.23889257
0.057843793 0.10158428 -0.11810061 0.09825309 -0.15110585 -0.22032401 -0.21958993 -0.17679332
0.14356045 -0.19169386 -0.25105268 0.2539871 0.05295668 0.13816571 0.10003669 -0.12423602
0.08168896 0.24330917 -0.31793013 -0.15856019 0.12218528 0.108573586 -0.025082408 0.08907162
0.1765506 -0.30870548 -0.15011121 0.08561444 0.17620687 0.0018435236 -0.046443317 -0.018144306
-0.27382484 0.19429265 -0.14489485 -0.012539271 0.25952196 0.027060835 -0.13548778 -0.033282205
-0.036135886 0.1672219 -0.17371652 -0.30082542 0.22235209 -0.12097133 0.01847433 0.19368175
-0.033763077 -0.0863601 -0.3077647 -0.13711463 0.025511593 -0.15734813 -0.12739053 -0.07567386
-0.2433189 0.037363645 0.24990854 0.15143107 -0.25906396 -0.36719415 -0.22947854 -0.2078276
0.12594491 -0.20609978 0.22332318 0.079911344 -0.3290623 -0.133756 -0.2664406 0.0741006
-0.06874733 -0.011967584 0.08667045 -0.29175025 0.036156084 -0.03191404 -0.065430045 0.14954923
0.11816288 0.13152209 -0.092868395 -0.23051368 -0.07681083 -0.17420791 0.09948948 -0.3086556
-0.18138446 -0.025492327 0.19654419 0.19755732 0.10030367 -0.32995453 0.090628624 0.2318172
-0.108589165 -0.1690673 0.029218847 -0.1706321 0.21003622 0.24620575 -0.3411225 -0.37090573
-0.10941262 -0.010227587 0.14333178 0.16884221 0.13320568 -0.1265781 -0.054428495 -0.15481617
-0.0425177 0.04693469 0.19226593 0.17201568 -0.3057935 0.08424238 0.045624517 -0.27250305
-0.087095134 -0.21174997 0.0029203636 -0.28759852 -0.14670065 0.06727707 -0.09257123 -0.18910116
0.16968767 0.116006054 -0.16121593 -0.24485637 -0.0147857 0.22691688 -0.06484176 -0.016122552
-0.26678973 0.14001599 0.071688175 0.017799182 0.2169461 0.016064886 -0.02029999 -0.067911066

conv1.conv1.bias f4 [32]
00000000: e56a 44be 694c 78be bde2 b33d 3f4b 57bd
00000010: a3a6 c23e 2ebb a33e 61ba b1be 9f98 da3c
00000020: dd08 b03e d00f f9bd 6e6a b8be 2c9f acbe
00000030: 203d 4d3e 06b0 1b3e a572 a33e 4c96 a4be
00000040: aa2f 8abe a28c aa3e d3ef 893e 12a3 563d
00000050: bf6d 79be f3da bdbe 3584 ab3e 08ef 6b3e
00000060: 94d3 1dbe 4e1f 4fbe 4487 8f3d 3772 5f3e
00000070: 3344 cfbe fb5f adbe 419d 923e 935f 4ebd
-0.19181402 -0.24247898 0.08783481 -0.052561995 0.3801776 0.31978744 -0.34712508 0.026684104
0.34381762 -0.12161219 -0.360187 -0.33715189 0.20042849 0.15203866 0.31923404 -0.32145917
-0.2698949 0.3331042 0.26940784 0.05240161 -0.24358271 -0.37081107 0.33499303 0.23040402
-0.15412742 -0.20226786 0.07008222 0.21820913 -0.4048172 -0.3386229 0.286356 -0.050384115

conv2.0.weight f4 [64, 32, 3, 3]
00000000: 5da3 12bd 33c7 70bd 402c 99bc f9c2 7abc
00000010: d189 423c 5ce9 abbc 9646 073d fc96 42bd
00000020: f8d8 083d fd2c 563c 6d76 1ebd 3369 54b9
00000030: 4da9 7fbd 2a1c efbb 8b0a 71bd a766 303d
00000040: 1382 61bd 7eb7 8e3c aa2f 1ebd 8cf3 6dbd
00000050: ae89 163d f1b0 80bd f91b 34bc 399f 54bd
00000060: 223d 0c3d f73f 59bd 8595 203c e1f7 2f3d
00000070: 6eeb 06bd 1fd3 a53c 8a4d 8e3c ad64 4fbd
00000080: fa0b 213d 6a1e 44bd 90e1 2c3d 369d 893c
00000090: 1b3a 12bd 8915 de3c 128b 453c 9f61 91bd
000000a0: 531d 0a3d 068f 3bbd 9e57 083d 501d a6bc
000000b0: 403b bf3c 8959 273c 3a8c c4ba cde9 69bd
000000c0: 9cad e2bb 40af d43c fb13 183d a9a8 2d3a
000000d0: a493 79bc a76a 723c 2f15 0c3d a7c8 e6bc
000000e0: 178e eaba 5d4a 1d3d 12f7 ff3c 19d5 85bc
000000f0: 777e 583c 3414 2e3d 9233 41bc 49f4 b8bc
00000100: 6f94 85bc 6fd5 8abd 3cbe 3bbd 8c7f 76bd
00000110: fbd4 c1bc 822e 2d3d 5dc8 a6b8 cde6 a8bd
00000120: 32cf 7abd 3032 8d3c 6584 cf3c f109 103c
00000130: 4fa1 7ebd aa34 c03c e5ef 80bd 8831 50bd
00000140: 1209 28bd 10c9 c0bc 5d59 aa3c ab40 28bd
00000150: fd07 adbb 0c25 5fbc ada8 c8bb 90e3 3d3d
00000160: ee06 72bd f9dd 5ebc ef20 f63c b8e9 143c
00000170: e6cc e9ba 9ff5 2dbd 6f75 4ebc 6bd8 9ebd
00000180: 7239 b23c 12ce de3b 7f58 9abb 01fb 89bd
00000190: 38ee a73c 9e18 5cbd 914c 1a3d e17d fb3c
000001a0: fe82 083b b70a 23bd ec27 02bc 4dbf 813c
000001b0: 20ad 0fbc 7b9c 6dbb 8253 273d 52c7 5bbd
000001c0: e7b9 cabc 48c1 8dbc 9919 24bd 7e63 823d
000001d0: 06e3 5138 052f dabc 3894 173d e14f 30bd
000001e0: 0254 e7bc 6635 083d e45c e13c 1439 92bd
000001f0: 3b6a f73a e2a9 dbbb 61fa fcbc d5cc 24bc
00000200: cc81 ef3c 7b79 1c3c 08fb 3abd e9c0 85bc
00000210: 686f 88bd c997 afbc 0e92 7abd f106 2dbd
00000220: 4513 ec3c 41e8 28bd f50d 973c e648 38bb
00000230: 3d6b 6bbd 581c a43c 6f8d 373d 961e 233d
00000240: 8efa 88bd 92c5 78bd 22e6 2d3c 92b9 193d
00000250: 7a2b dfbc 37e0 ad3c 42be ed3c 61ae 2dbd
00000260: 8b1c 2dbd 54c0 393c 4535 08bd f35d b53b
00000270: 02e9 8abb 1544 72bd 850f f4bc 7efd 383d
00000280: 5a79 c339 8829 b13c dacc 4f3d 20fb 723d
00000290: 0056 c93c b881 403d c650 ceba a268 d0bc
000002a0: 920d 0cbb 9b09 23bd ef5d 4dbd 5731 473d
000002b0: 6dc6 843b 8e68 29bd e051 6c3c a7c3 113d
000002c0: ab4a 79bd 73aa 223c 4f8f 39bd 22b8 013d
000002d0: 04a2 183d 6e27 ac3c 1d74 62bd ecdd 773d
000002e0: 8697 82bd 0792 16bd d4a6 4bbd cb76 00bd
000002f0: beda ea3c 2b23 3bbd 1855 6ebd c3c4 8d3c
00000300: 76f2 343d ff34 043d 017d 903c e8ff 053d
00000310: 9699 6e3c 4e95 48bd 06fa 95bb d439 63bd
00000320: 8379 92b9 0598 d0bc 2438 6f3c 8c53 be3c
00000330: 2821 d43c 9b9d 3dbd 9082 82bd 387a 6bbc
00000340: 311c 3fbc 54ff ac3a c103 de3c f10c 203d
00000350: d97f 8b3b 5f70 993c 215f 173c ea69 34bd
00000360: 10ca 89bd cea8 81bb 6931 26bd 5eec 8dbd
00000370: 1534 99b9 7808 9abb a6a7 b3bb 6529 88bc
00000380: 1854 6ebd e180 2ebd f988 243d 749a a63c
00000390: a842 88bd 5f2a 67bd 47ea ef3c 6c63 4dbd
000003a0: 69d3 bf3c 24c2 213d 9d37 f9bb 2eba afbc
000003b0: 593e 17bd 13fd 50bd 08fd 4bbd bc9b 53bd
000003c0: 2e18 0cbd 91db 4a3d f48f 403d d901 d6bc
000003d0: 78d2 3f3d 2c40 e7bb 31b4 7ebc bd0f 3fbd
000003e0: fe60 dd39 045f abbc 9ab2 093d 4b24 85bc
000003f0: 8703 893c a99d 303d 8b5d 10bc e6fa d23c
-0.035800327 -0.05878372 -0.018697858 -0.015305274 0.011873678 -0.020985298 0.0330263 -0.04750727
0.033410043 0.0130722495 -0.03868716 -0.00020257085 -0.062417317 -0.0072970586 -0.058847945 0.043066647
-0.05505569 0.01742148 -0.038619675 -0.058093593 0.036752395 -0.06283749 -0.010992997 -0.05190966
0.03423799 -0.053039517 0.009801273 0.042961005 -0.032939367 0.020242272 0.017370958 -0.05063312
0.039318062 -0.047880568 0.0422073 0.016798597 -0.035699945 0.027109878 0.012057083 -0.07098698
0.033719372 -0.045790695 0.033286683 -0.02027765 0.023343682 0.010214218 -0.0014995404 -0.057107735
-0.0069176685 0.025962472 0.03712843 0.00066245586 -0.015232954 0.014795936 0.03419989 -0.02817185
-0.0017895129 0.038400996 0.031245742 -0.016336964 0.013213745 0.042499736 -0.0117920805 -0.022577422
-0.01630613 -0.067789905 -0.04583572 -0.060180232 -0.023661127 0.04228068 -7.9528174e-05 -0.08247147
-0.061232753 0.017235845 0.025331685 0.008791433 -0.062165555 0.023462612 -0.06295756 -0.050828487
-0.041024275 -0.023533374 0.020794565 -0.041077297 -0.0052804933 -0.0136196725 -0.0061236233 0.0463596
-0.05908864 -0.013602727 0.030045 0.009088926 -0.0017837554 -0.04247057 -0.012601241 -0.07756122
0.021755908 0.006799468 -0.0047102566 -0.06737328 0.020499334 -0.053734414 0.037670676 0.030699672
0.002083003 -0.03980514 -0.007944088 0.01583829 -0.008769304 -0.00362566 0.040851124 -0.053656884
-0.024746848 -0.017304078 -0.040063474 0.06366633 5.0040915e-05 -0.026633749 0.037006587 -0.04304493
-0.0282383 0.03325405 0.027510114 -0.07139793 0.0018876264 -0.006703601 -0.030881109 -0.010058601
0.029236697 0.009550448 -0.04564956 -0.016327338 -0.06661874 -0.021434681 -0.061174445 -0.042242948
0.028817782 -0.04123712 0.018439272 -0.0028119623 -0.057475317 0.020033047 0.044812616 0.03982409
-0.066884145 -0.060735293 0.01061395 0.03753049 -0.02724241 0.021225078 0.029021386 -0.04240263
-0.04226355 0.0113373585 -0.033253927 0.0055348813 -0.0042392025 -0.05914696 -0.029792557 0.045163624
0.00037283712 0.021626249 0.05073247 0.059321523 0.02457714 0.04699871 -0.0015740625 -0.025440518
-0.0021370393 -0.039804082 -0.05013841 0.04863104 0.0040519745 -0.041359477 0.014423817 0.03558698
-0.060862225 0.009928334 -0.045302685 0.031669743 0.037263885 0.021014895 -0.055286516 0.060514376
-0.06376557 -0.036760356 -0.049719647 -0.03136329 0.028668758 -0.045687836 -0.05818662 0.017305737
0.04417654 0.032277104 0.017637732 0.032714754 0.014562985 -0.048970513 -0.0045769243 -0.05547507
-0.00027937823 -0.025463114 0.014600787 0.023233198 0.025894716 -0.046292882 -0.06372559 -0.014372401
-0.011664436 0.0013198652 0.0271014 0.039074842 0.004257184 0.01873034 0.009238989 -0.04404632
-0.067279935 -0.0039568907 -0.040574465 -0.06929849 -0.00029221238 -0.0047007166 -0.0054826317 -0.016621301
-0.058185667 -0.042603377 0.04016969 0.02033732 -0.06653339 -0.056436893 0.029286517 -0.050143644
0.023416238 0.039491788 -0.0076055066 -0.021451082 -0.036924694 -0.0510226 -0.049801856 -0.05166219
-0.034202747 0.0495258 0.047012284 -0.026123928 0.046831578 -0.0070572104 -0.015545891 -0.04664587
0.0004222467 -0.02091933 0.033617593 -0.016252657 0.016725315 0.043119106 -0.008811365 0.025754403

conv2.0.bias f4 [64]
00000000: 9164 acbd fb04 0dbd 5907 b8bc 2d79 01be
00000010: 3913 10bd c21c 36bc 7e8d 83bd b5aa b1bc
00000020: b27a 5fbd 3618 babb dfdc 38bd 21d1 89bd
00000030: 7227 b6bc 3000 2f3d 1631 43bd 94ff bcbc
00000040: 9ce5 463c dac1 a6bc 6ca3 8fbd 1c4b a7bd
00000050: d062 bbbd b963 343b 785c 2fbc ff6f 9abd
00000060: a486 1dbc 2e3d 12bd 58ee cebd e3b6 49bd
00000070: c1d1 06bd 2ab5 8cbd 421b 1dbd e683 d03c
00000080: 8bea 8abc 9e1b c1bd 3d55 4fbd e9fa 853c
00000090: d883 95bc d115 c03c 5ecb 51bd bcac fcbc
000000a0: b8f9 78bd a8bb abbd b59e 073d 6d91 43bd
000000b0: 40d9 73bd 3ea1 333c a581 b5bd 8131 4bbd
000000c0: f6fe 6dbc 479a 05bc 3b0f a6bd 41da 0dbd
000000d0: 4ca8 81bd 6518 963c 5abf 74bd 44c3 37bc
000000e0: 6323 6e3c 6232 e6bc 5442 2e3c f188 81bd
000000f0: e4e3 8abc a9bf 98bc 3b28 72bd b9a9 e2bc
-0.08417619 -0.034428578 -0.022464441 -0.12643881 -0.035174582 -0.011115255 -0.06423472 -0.021687845
-0.05456037 -0.0056791557 -0.045132514 -0.06729341 -0.022235606 0.04272479 -0.047654234 -0.023071088
0.012139704 -0.020356108 -0.07013592 -0.08168623 -0.09149706 0.002752526 -0.010703199 -0.07540893
-0.00961462 -0.035702877 -0.10104054 -0.04924668 -0.03291488 -0.06870492 -0.038356073 0.02545352
-0.016957542 -0.09429096 -0.0506184 0.016354995 -0.018251345 0.023447903 -0.051219337 -0.030844085
-0.060785025 -0.08385402 0.03311034 -0.04774611 -0.059533358 0.010963736 -0.08862618 -0.049607757
-0.014526119 -0.008154458 -0.08108374 -0.03463197 -0.06330928 0.01832218 -0.0597528 -0.011215989
0.014534804 -0.028100196 0.010635931 -0.063249476 -0.01695437 -0.018646078 -0.059120398 -0.02766882

fnn.weight f4 [10, 3136]
00000000: f804 31bd 7a30 243c 977f 013d 4d61 82bc
00000010: c6a0 853d 8249 d73c 5e14 803b 7ace ee3b
00000020: fca7 9cba cd2e 063d 38b5 0c38 7125 a53c
00000030: bbeb 41bd a09b 34bd b009 1bbd 6d53 10bd
00000040: 9ef0 4dbc d77e 0cbd c673 e63c 11ac b83c
00000050: efc9 143d f0bf a73c ffff 063b 13a5 0fbd
00000060: 9d7b 1e3c 3b00 163d 3bdd 61bc aeb4 083c
00000070: 333b 59bb cd6b 2fbb cbb9 34bd 1234 1ebd
00000080: 76d8 7a3c ca9e 8d3c 0b99 f23b e28a e4bb
00000090: 6a96 b4bc 2573 863c aed7 74bc 74de 1a3c
000000a0: 530d 263d 8379 e13c 7d92 e43c e3cb ea3c
000000b0: 17aa 06bd a3e3 59bd f896 c2bc dab1 ebbb
000000c0: 0dee eabc e42b 38bc 79ef 113c 9d6e 053c
000000d0: a049 233d eda7 dcbc 3765 86bc 3357 3a3c
000000e0: 5849 15bd 7cd6 c73c 37d6 e83c 0966 13bc
000000f0: eb15 dcbc 1036 2c3d a6fe 43bc 2d8d 4fbb
00000100: f64c b3bc 3fbc af3c dbf3 833c aa51 303d
00000110: 69f2 ebbc 32df 8a3b e80d 50bc cdbe 063d
00000120: c64a d23b 13ed b23b ef05 a03c 2b90 3ebc
00000130: e2ac ccbb b581 14bd 3220 1cbd 61ba 41b8
00000140: 45c6 153b 66a4 98bb 8f6e ddbc d0f7 debb
00000150: 732b 013d 3482 02bc ef49 363c afa8 1f3d
00000160: 8660 443d 898e f33c 155a d6bc 6832 e83c
00000170: 3471 c7bc ac5c a23c bd42 ffbb f75c bbbc
00000180: 7143 cf3c d169 fb3b 8812 32bd 07d3 993c
00000190: 0b7b 09ba b0f0 243d c7ad fe3c c44f 1dbc
000001a0: 913c 3fbd d91c e6bc 725e cabc 06b0 913c
000001b0: 1281 07bc c44f 813d 9b74 663d f0e5 c93c
000001c0: b5bc 62bd a5a4 1b3c 7493 80bb 50c6 21bc
000001d0: 3931 06bc 7d99 f2bb 33b9 233b 65b0 533c
000001e0: 6019 873c d7ed bcbc 1040 83bb 532e b4bc
000001f0: 9c79 9cbd dcf8 71bc 89b3 65bc c895 b4bb
00000200: d6be 1e3d 8e0c 483d 13e6 4b3c df29 beba
00000210: cecb c1bc cafb 153b 53f5 983b d3ab e6bc
00000220: 9178 e73c 06a4 2bbd 87e8 cfbb 77cc a0b9
00000230: 8a10 52bc 5dc3 42bb 35d6 86bc 9b07 cfbc
00000240: e622 32bc c219 893c 432b 36bd 632c 803c
00000250: b157 09bc 75b9 9b3c 31d1 91ba 4f1e 233d
00000260: c2ef 4c3c fdd9 ad3a 09e4 86bd a820 6f3c
00000270: 8747 113d 3c74 2abd 8cb3 733c be5c 373d
00000280: c855 4abd c024 a63c 6e5e 44bb 89fc 9dbc
00000290: 641f 863a 8adf 803d b32c 7b3d d524 b93c
000002a0: 1043 b13c 6064 033d 78f9 a6bc 8af6 d2bc
000002b0: 5af4 46bb c4e8 953c d0fc b4bc 0aef 4f3c
000002c0: e54d d23c 7242 ec3b 1b6e a2bc b9a1 e2bc
000002d0: bf14 d23a d116 fdbc 43d4 f93c 191f a43c
000002e0: 8bda d63c 9b44 a3bc cb4f 13bd 880c ecbc
000002f0: a3d2 22bd 8f2c f2bc e486 17bd ccb6 1f3d
00000300: 8bd8 3e3c c8ab debc 5c42 d53c cbd9 443d
00000310: 04f4 163c 01c3 c2bb 9a25 fabc d11e 013d
00000320: c2e3 053c b4f2 a13c a57c 66bb 0698 473d
00000330: 8ec0 f1bc 621e aebc d868 373d 241e 15bc
00000340: e854 68ba fa88 323d 7ff7 5bbc 9254 eb3c
00000350: 9b58 d03c 66ab 09bd cb64 083d 28c8 e73c
00000360: ad4d 0c3d d476 d53c 2091 99bc a9c3 adbc
00000370: 0664 323d cd53 11bd c04a 36bd f730 2e3d
00000380: cd6d 233a 39a2 92bd 5e2b 2e3d 588d a83c
00000390: 720d cf3b 7880 c8bc a3df fdbc 7f72 2bbc
000003a0: 5fff 2cbc 9ae3 86bb 186f 76bc fcca 253d
000003b0: bc14 d03b 74a8 263d eaa2 f2bc 8445 3b3b
000003c0: 96cd 2d3d 2c72 4e3c b7ff 113c 0f4b c9bc
000003d0: 9bef 173d 7ff4 b1bb c815 c4bc 4478 01b9
000003e0: 143d 0dbd 55ea f83c 956d eebc 635d de3c
000003f0: 9e91 023d 4f1e 18bc 4b44 d33c 596e d2bc
-0.04321763 0.010021323 0.03161582 -0.015915537 0.06524806 0.026280168 0.003908678 0.0072877975
-0.0011951919 0.032759476 3.3547374e-05 0.020159455 -0.04734395 -0.044093728 -0.037851036 -0.03523581
-0.012569575 -0.03430065 0.028131377 0.022542985 0.03632539 0.020477265 0.0020599363 -0.035069536
0.009673026 0.036621314 -0.013785656 0.008343859 -0.0033146858 -0.0026767135 -0.0441225 -0.038623877
0.015310397 0.01728763 0.007403498 -0.006974564 -0.02204438 0.016412327 -0.014944 0.009452451
0.04054005 0.027523762 0.027901882 0.028661674 -0.032877054 -0.053195607 -0.023753628 -0.0071928324
-0.028677965 -0.011240933 0.008907192 0.008144048 0.039865136 -0.026935542 -0.016405685 0.011373329
-0.0364469 0.024394266 0.028422458 -0.008996495 -0.02686592 0.042043746 -0.011962568 -0.003166984
-0.021887284 0.021452067 0.01610749 0.04304663 -0.028802114 0.0042380327 -0.012698628 0.032896806
0.006417605 0.0054603904 0.01953408 -0.011631052 -0.006246195 -0.03625651 -0.03811664 -4.6188365e-05
0.0022853774 -0.0046582697 -0.027030258 -0.006804444 0.031535577 -0.007965613 0.011126026 0.03897923
0.047943614 0.029731052 -0.026166001 0.028344348 -0.024345972 0.01981958 -0.0077899382 -0.022871478
0.025300713 0.0076725264 -0.043474704 0.018777383 -0.000524447 0.0402686 0.031088723 -0.009601537
-0.04668862 -0.028089928 -0.024703238 0.01778413 -0.008270519 0.06314042 0.056263547 0.024645776
-0.055355746 0.0094997035 -0.003923828 -0.009873942 -0.0081904465 -0.007403551 0.0024982214 0.012920474
0.016491592 -0.02306263 -0.0040054396 -0.021994745 -0.07640383 -0.014768805 -0.014019855 -0.0055110194
0.038756214 0.048840098 0.012444991 -0.0014508328 -0.023656752 0.0022885674 0.004667917 -0.028158104
0.028255733 -0.04190447 -0.006344858 -0.00030669916 -0.012821326 -0.0029718496 -0.016459564 -0.025272181
-0.010872578 0.016735915 -0.04447485 0.015646165 -0.008382724 0.019009331 -0.0011124966 0.039823826
0.012508335 0.0013263818 -0.06586463 0.014595188 0.035468604 -0.041614756 0.01487435 0.04476618
-0.049398214 0.020281196 -0.002996351 -0.019285457 0.0010232744 0.06292637 0.061321925 0.02260057
0.021638423 0.032078147 -0.020382628 -0.025752325 -0.0030358047 0.018299468 -0.022093207 0.012691269
0.025671909 0.0072100693 -0.019827893 -0.027665006 0.0016027911 -0.030894669 0.030496722 0.02003436
0.026227256 -0.019930175 -0.03596477 -0.02881457 -0.03975166 -0.029562263 -0.036993876 0.038992688
0.011648308 -0.027181521 0.02603262 0.048059266 0.009213451 -0.0059436564 -0.030535508 0.03152353
0.0081719775 0.01976905 -0.0035169509 0.048728965 -0.029510763 -0.021254722 0.04477772 -0.009101424
-0.00088627497 0.043587662 -0.013425707 0.02872685 0.025432875 -0.033610724 0.03329925 0.028293684
0.034253765 0.026057638 -0.018745959 -0.021211462 0.04355242 -0.03548031 -0.04450488 0.042527165
0.0006234318 -0.07159848 0.042521827 0.02057521 0.0063187415 -0.024475321 -0.030990427 -0.01046431
-0.010558932 -0.0041164877 -0.015041135 0.040476784 0.006350128 0.040687993 -0.0296187 0.002857537
0.04243239 0.012600463 0.008911065 -0.024571924 0.03709374 -0.0054307575 -0.023936167 -0.00012347201
-0.034482077 0.030385176 -0.029104987 0.02714414 0.031877153 -0.00928457 0.0257894 -0.025687383

fnn.bias f4 [10]
00000000: 3187 303c f6b9 3e3d c49b 833c f858 ae3c
00000010: 1be7 cdbc 91f1 24bb 23f4 30bb e2ca e03a
00000020: 7eee a03c 12a6 9cba
0.01077442 0.046564065 0.016065486 0.021282658 -0.025134614 -0.00251684 -0.0027000986 0.0017150308
0.019644972 -0.0011951348
