cnn/mnist/output/epoch_9.pt (torch, 202775 bytes, 6 tensors)

conv1.conv1.weight f4 [32, 1, 3, 3]
0	0xbdf681e5	-0.12036494
1	0xbcb45061	-0.022010984
2	0x3c8de1bb	0.01731955
3	0xbe7912d6	-0.24323592
4	0xbe885236	-0.26625222
5	0x3e2fd826	0.17172298
6	0xbd87ee5e	-0.06637262
7	0xbecf6866	-0.40509337
8	0xbe38a89a	-0.18033066
9	0xbc5a7ef0	-0.013335928
10	0x3d856e98	0.06515235
11	0x3d690c0e	0.056896262
12	0xbda9f660	-0.082989454
13	0xbe0586ed	-0.13039751
14	0xbe6d97f2	-0.23202494
15	0x3c6223ab	0.013802449
16	0x3d9f0c1b	0.07765981
17	0xbc72396e	-0.0147842
18	0xbdeab4cb	-0.11460265
19	0x3cae6d67	0.021292401
20	0xbcc13a97	-0.023587508
21	0x3b31a325	0.0027105298
22	0xbd9bc439	-0.07605786
23	0xbe839e17	-0.2570655
24	0x3c9f2f0a	0.01943161
25	0xbebbf1d0	-0.36707926
26	0xbb0b61c0	-0.002126798
27	0xbe22f5c7	-0.15914069
28	0xbd8bd732	-0.068281546
29	0xbe246163	-0.16052775
30	0x3e80541d	0.25064173
31	0xbe6b30e1	-0.22967865
32	0xbe879bf0	-0.26486158
33	0xbea97da0	-0.33103657
34	0x3da29860	0.079392195
35	0xbd83e315	-0.06439797
36	0x3c936860	0.017994106
37	0x3cbc3ae6	0.022977304
38	0xbed38744	-0.41314137
39	0x3ce88e66	0.028388213
40	0xbeb46d85	-0.35239807
41	0xbecd5dce	-0.4011063
42	0xbd3323b8	-0.043735236
43	0x3c290f71	0.010318623
44	0x3d1406c8	0.03613928
45	0xbec586cb	-0.385794
46	0xbe39a495	-0.1812919
47	0xbe3c1c38	-0.1837014
48	0xbdd445b0	-0.10364854
49	0x3d9aecbb	0.07564684
50	0xbcd69f69	-0.02619906
51	0xbe28fb18	-0.16502035
52	0x3e00c6b7	0.12575804
53	0xbe1565d4	-0.14589626
54	0x3c3897b7	0.01126664
55	0xbcde2db1	-0.027121397
56	0x3a912a3f	0.0011075212
57	0xbec939b5	-0.3930184
58	0xbe702037	-0.23449789
59	0xbeaf692a	-0.3425992
60	0xbe0cd99c	-0.13754886
61	0x3d1ab3ff	0.037769314
62	0x3c93f7dd	0.018062526
63	0x3dcc296e	0.099688396
64	0xbd873d96	-0.066035435
65	0x3cfd9393	0.030954158
66	0xbe30bcf3	-0.17259578
67	0x3da31ad2	0.079641
68	0x3dc8d059	0.09805364
69	0x3dc66307	0.09686857
70	0x3e10b4f9	0.14131536
71	0xbed374ce	-0.41300052
72	0xbd29bbc4	-0.041438833
73	0x3d630983	0.055428993
74	0xbe68f99e	-0.22751471
75	0x3c5d0167	0.013489104
76	0x3da7368c	0.08164701
77	0x3d23a26e	0.039949827
78	0x3ca84a93	0.020543372
79	0x3c9bc19c	0.019013219
80	0x3ce660b9	0.028122293
81	0xbde2351f	-0.11045288
82	0xbe9eba46	-0.3100149
83	0xbddee8a9	-0.1088422
84	0x3e6c2ff7	0.23065172
85	0xbeb4fe6a	-0.35350353
86	0xbf0e4ab1	-0.5558272
87	0xbe1ab39d	-0.1510758
88	0xbe016de3	-0.12639575
89	0xbd6e7a56	-0.058222137
90	0x3d029eb6	0.03188964
91	0x3dc242a4	0.09485367
92	0xbe6860f6	-0.22693238
93	0xbd8392c7	-0.0642448
94	0xbe2c30b6	-0.16815457
95	0xbd225a80	-0.03963709
96	0x3d09385c	0.033501014
97	0xbd3887cb	-0.045051377
98	0x3d6a47eb	0.057197493
99	0xbb8e2543	-0.004337938
100	0xbd886ccb	-0.066613756
101	0xbe16dfe1	-0.1473384
102	0xbe3a7f55	-0.18212636
103	0xbcaa7267	-0.020806504
104	0xbc8633a5	-0.016382048
105	0xbc440951	-0.011965112
106	0x3c309a4b	0.010778974
107	0xbce81f94	-0.02833537
108	0xbef17154	-0.47156775
109	0xbdcdebff	-0.10054778
110	0xba3fb2c4	-0.000731271
111	0xbe69e452	-0.22841004
112	0x3d0e13cd	0.034686852
113	0x3cbb6cb2	0.022878978
114	0xbe05384f	-0.13009761
115	0x3e146e5e	0.14495227
116	0xbe776f49	-0.24163546
117	0xbeb405e2	-0.35160738
118	0xbe174bff	-0.14775084
119	0xbcfa067d	-0.030520672
120	0x3d31a2f0	0.04336828
121	0xbd53ec18	-0.05173883
122	0xbe4af83c	-0.19821256
123	0x3dd2f21b	0.10300084
124	0x3cea205d	0.028579885
125	0x3c2a51d5	0.010395487
126	0xba8c9012	-0.0010724089
127	0xbdffd32a	-0.12491448
128	0x3d10a0a6	0.035309456
129	0x3dc42274	0.09576884
130	0xbe40b9cc	-0.18820876
131	0xbd6d7bbe	-0.057979338
132	0x3c3eb778	0.011640422
133	0x3d90e756	0.07075374
134	0xbd0d35f5	-0.034475286
135	0xbcfd8002	-0.030944828
136	0x3e13715f	0.14398716
137	0xbe97fc76	-0.296848
138	0xbe0aefd5	-0.13568051
139	0x3db2ba9b	0.087269984
140	0x3e011f6e	0.12609646
141	0xbdb190ba	-0.086701825
142	0xbdc4b204	-0.09604266
143	0xbd4c9ba1	-0.049953107
144	0xbea82350	-0.3283944
145	0x3dfef50f	0.12449085
146	0xbe12aacc	-0.14322966
147	0xbd7be4bc	-0.061497435
148	0x3e38883c	0.1802072
149	0xbd73196d	-0.05935042
150	0xbe580be1	-0.21098281
151	0xbd3571f7	-0.04429814
152	0xbdde84dd	-0.108651854
153	0x3d450006	0.048095725
154	0xbbdea0af	-0.0067940573
155	0xbe0de627	-0.13857327
156	0x3de1988b	0.110154234
157	0xbdd6fe36	-0.10497706
158	0xbc8b3b97	-0.016996188
159	0x3d340294	0.04394777
160	0xbc9569d1	-0.018238934
161	0xbd00fa62	-0.031488784
162	0xbe66a538	-0.22523963
163	0xbdf71d68	-0.12066156
164	0x3c8733a2	0.016504113
165	0xbdd700f7	-0.10498231
166	0xbdc14b7b	-0.09438225
167	0xbd601315	-0.054705698
168	0xbed5c8a5	-0.41754642
169	0xbc384ebe	-0.011249242
170	0x3dc4e97a	0.096148446
171	0x3e0614b8	0.13093841
172	0xbd9420c2	-0.072328106
173	0xbe6d40ab	-0.231692
174	0xbe4c561a	-0.1995472
175	0xbe3dcf22	-0.18536046
176	0x3d847ecb	0.06469496
177	0xbe18fa14	-0.14939147
178	0x3e1d4268	0.15357363
179	0x3c557c93	0.013030189
180	0xbec904bd	-0.39261428
181	0xbe43b7dc	-0.19113106
182	0xbea19f93	-0.31567058
183	0xbd021ba6	-0.03176465
184	0xbdf3681b	-0.11885091
185	0x3da17b0d	0.07884798
186	0xbcb37fe7	-0.021911575
187	0xbec6e80a	-0.38848907
188	0xbcc15286	-0.02359892
189	0xbc8992d9	-0.016793655
190	0x3c976508	0.018480793
191	0x3dc413fb	0.095741235
192	0x3d8b8690	0.06812775
193	0x3dfb9571	0.12284363
194	0xbdb8cc40	-0.090233326
195	0xbe5c48c4	-0.21512133
196	0xbd2511a6	-0.040300034
197	0xbe0d6e4c	-0.13811606
198	0xbd1f8994	-0.038949564
199	0xbe909d6b	-0.282451
200	0xbe184126	-0.14868602
201	0xbde1e54d	-0.11030064
202	0x3e39acf9	0.1813239
203	0x3e27d700	0.1639061
204	0xbc083964	-0.008314464
205	0xbe9d05cb	-0.30668482
206	0x3b0fca9b	0.002194083
207	0x3db071fc	0.08615491
208	0xbe4878a6	-0.19577274
209	0xbe0749de	-0.13211772
210	0xbd369845	-0.04457881
211	0xbea6b2c7	-0.3255827
212	0x3e5d8b0f	0.21635078
213	0x3d90a5ce	0.07062875
214	0xbef14dc2	-0.47129637
215	0xbedcdf38	-0.43139052
216	0xbe131de3	-0.1436687
217	0xbd3d789b	-0.046257596
218	0xbafb5648	-0.0019175494
219	0x3d9cdc6f	0.07659232
220	0x3d9a5251	0.07535232
221	0xbe3aff08	-0.18261349
222	0xbda8f237	-0.08249324
223	0xbe4a3fd1	-0.19750907
224	0xbdbd671a	-0.09248181
225	0x3c19cdf7	0.009387485
226	0x3d9c8912	0.076433316
227	0x3d3ea541	0.046544317
228	0xbe285af9	-0.16440953
229	0x3d7146df	0.05890548
230	0xbd15dacf	-0.036585625
231	0xbe3be7f8	-0.18350208
232	0xbd9b09c7	-0.07570224
233	0xbdb30391	-0.087409146
234	0xbe1c0453	-0.15236025
235	0xbe50752a	-0.20357195
236	0xbdc2061f	-0.09473824
237	0xbc36a7b1	-0.011148379
238	0xbe10beb5	-0.14135249
239	0xbe0f6837	-0.14004599
240	0xbb65e4b6	-0.003507895
241	0xbb4d7af9	-0.0031353815
242	0xbe9955c0	-0.29948235
243	0xbe9e79d7	-0.3095233
244	0xbe0d8266	-0.13819274
245	0xbc924036	-0.017852884
246	0xbdb993bc	-0.09061381
247	0x3d89a9a8	0.067218125
248	0xbe9a024f	-0.30079886
249	0xbcf30ced	-0.02966925
250	0xbda1ba79	-0.07896895
251	0xbc913207	-0.01772405
252	0x3d3b2990	0.045693934
253	0xbd2c2194	-0.04202421
254	0xbd8dd265	-0.06924895
255	0xbdba5056	-0.09097354

conv1.conv1.bias f4 [32]
0	0xbdc03eee	-0.09387003
1	0xbf0a1dae	-0.5395154
2	0x3d824608	0.06361014
3	0xbcb30d2f	-0.021856872
4	0x3eeced52	0.4627481
5	0x3ec66850	0.3875146
6	0xbf60fd24	-0.8788626
7	0xbe901f22	-0.28148752
8	0x3ebac073	0.36474952
9	0xbcc49a7e	-0.023999449
10	0xbf87edc4	-1.0619435
11	0xbf0eb03b	-0.55737656
12	0x3db533bf	0.088477604
13	0x3e6e66f6	0.23281464
14	0x3ec15226	0.37757987
15	0xbf4aff6b	-0.79295987
16	0xbeda9b3d	-0.42696562
17	0x3ef4960e	0.47770733
18	0x3e877db8	0.26463103
19	0x3e5c64f1	0.21522881
20	0xbe89b4c1	-0.26895717
21	0xbf0a2d05	-0.53974944
22	0x3eac0a8c	0.33601797
23	0x3ebb0f26	0.36534995
24	0xbf041b35	-0.51604015
25	0xbefb3093	-0.49060497
26	0x3e4160fd	0.18884654
27	0x3dfe1161	0.124056585
28	0xbf4bcdc2	-0.79610837
29	0xbe9ccdc7	-0.30625746
30	0x3ebd89dc	0.3701924
31	0xbc391207	-0.011295802

conv2.0.weight f4 [64, 32, 3, 3]
0	0x3d887fc7	0.066649966
1	0xbe4686a9	-0.19387306
2	0xbd6ce513	-0.05783565
3	0xbe0c8951	-0.13724257
4	0xbda78b87	-0.081809096
5	0xbd89beb6	-0.06725828
6	0xbc2d9ea4	-0.010596905
7	0xbd97424e	-0.073856935
8	0xbd3504c0	-0.044193983
9	0x3d651ca3	0.055935513
10	0x3dd64613	0.10462584
11	0xbc85de8c	-0.01634147
12	0xbdb76aa6	-0.089558885
13	0xbd15e5de	-0.03659617
14	0xbddf1e66	-0.1089447
15	0xbdf767d7	-0.12080353
16	0xbe2c3043	-0.16815285
17	0xbd6ad374	-0.057330564
18	0xbbebc333	-0.0071949004
19	0xbe159a3d	-0.14609618
20	0xbc625383	-0.013813856
21	0xbe11ae45	-0.14226635
22	0xbd22626c	-0.039644644
23	0xbd8c91d3	-0.06863751
24	0x3dc9274e	0.0982195
25	0xbd707737	-0.058707442
26	0xbc951f48	-0.018203393
27	0x3c9abd51	0.018889101
28	0xbc14cf8f	-0.009082689
29	0xbd218bb1	-0.03943986
30	0x3c90bf4c	0.017669342
31	0xbd817d2a	-0.06322701
32	0x3cee4dc2	0.029089812
33	0xbd19fed0	-0.037596524
34	0x3c2f3a12	0.010694997
35	0x3c291ba2	0.01032153
36	0xbcbe2235	-0.02320967
37	0xbd50598c	-0.05086665
38	0xbdc299aa	-0.09501965
39	0xbe1a8300	-0.15089035
40	0xbd828c52	-0.0637442
41	0xbcb002ef	-0.021485774
42	0x3c909cd2	0.017652903
43	0xbda19ae7	-0.078908734
44	0xbc4a3e15	-0.012343903
45	0xbc5be70e	-0.013421787
46	0xbd6ff77f	-0.05858564
47	0xbd2eff8d	-0.04272418
48	0xbd82a95a	-0.063799575
49	0xbc014f8c	-0.007892501
50	0xbd0437fe	-0.03227996
51	0xbbf21ac0	-0.0073884428
52	0xbe086afa	-0.13322058
53	0xbc9c8827	-0.019107891
54	0x3d03f0e9	0.03221217
55	0xbd3b5e69	-0.045744333
56	0xbdb5e9da	-0.08882494
57	0xbcc7c14b	-0.024384161
58	0xbc8a6505	-0.016893873
59	0xbcd9befb	-0.026580324
60	0x3d403b61	0.04693163
61	0x3c280c38	0.010256819
62	0xbd1a9798	-0.037742227
63	0xbd95cf19	-0.07314891
64	0xbcdc181d	-0.026866967
65	0xbe2076e7	-0.15670358
66	0xbce907b1	-0.02844605
67	0xbdcee875	-0.101029314
68	0xbe0cc771	-0.13747956
69	0xbd7bbf77	-0.061461892
70	0xbde28589	-0.11060626
71	0xbe556e97	-0.20842968
72	0xbe0099a9	-0.12558617
73	0x3cd97142	0.026543263
74	0x3d1b1152	0.037858315
75	0x3cffd9d3	0.031231796
76	0xbd57da1a	-0.052698232
77	0xbd0c7e4c	-0.034300134
78	0xbd52f995	-0.05150755
79	0xbc7c4a1d	-0.015398529
80	0xbdeaaff8	-0.114593446
81	0xbdaa9417	-0.08329027
82	0xbba3ae31	-0.0049951305
83	0xbb71ed63	-0.0036915175
84	0xbc1a256e	-0.009408338
85	0xbce3f635	-0.027827362
86	0xbc8271eb	-0.015923461
87	0xbb828a89	-0.0039838
88	0xbd8878ec	-0.06663689
89	0xbd6be714	-0.05759342
90	0x3c2929de	0.010324923
91	0xbd3fd6e7	-0.046835806
92	0xbbce28aa	-0.0062914686
93	0xbe25ac14	-0.16178924
94	0xbd8420bc	-0.06451556
95	0xbdf39193	-0.118930005
96	0x3d401400	0.046894073
97	0xbd474f35	-0.048659522
98	0xbd8f4270	-0.06995094
99	0xbdbc9f93	-0.09210124
100	0x3b9c3d76	0.004768069
101	0xbca29181	-0.019844772
102	0x3d1ce158	0.038300842
103	0x3c9c9245	0.019112715
104	0xbd3f56a4	-0.046713486
105	0xbd74b8b8	-0.059746474
106	0xbcc391d5	-0.02387325
107	0xba74bbde	-0.0009335856
108	0xbc64f255	-0.013973792
109	0x3d0e427d	0.034731377
110	0xbbb40b40	-0.005494505
111	0xbe0ff289	-0.14057364
112	0x3d6c5351	0.057696644
113	0xbce41451	-0.027841719
114	0xbd14c444	-0.036319986
115	0xbd182fd5	-0.03715499
116	0xbc419f7b	-0.011817808
117	0x3d0049e7	0.03132048
118	0x3d582902	0.052773483
119	0x3d063426	0.032764576
120	0xbc463d73	-0.012099612
121	0x3da8debe	0.0824561
122	0x3cd33cdf	0.025785862
123	0xbd176767	-0.036963847
124	0xbcb268ed	-0.021778548
125	0xbd330f86	-0.043715976
126	0xbdbdee53	-0.09273972
127	0xbd2fb9e4	-0.04290189
128	0x3e0f4114	0.13989669
129	0xbc5cb2f5	-0.013470401
130	0xbcf117ff	-0.029430388
131	0xbd98d79f	-0.074630015
132	0xbdca30bd	-0.09872577
133	0xbd9285fc	-0.07154462
134	0xbdd8c12e	-0.10583721
135	0xbe1e89b0	-0.15482211
136	0x3d933ab8	0.07188934
137	0x3aac318b	0.0013137324
138	0xbdaa69f0	-0.08320987
139	0xbd7447a5	-0.059638638
140	0xbce60c19	-0.02808194
141	0x3c8898f3	0.016674494
142	0x3d6cf9d1	0.05785543
143	0x3d164492	0.036686487
144	0xbd95e87a	-0.07319732
145	0xbcd92074	-0.026504733
146	0x3cb82cd0	0.022482306
147	0x3d253c1f	0.04034054
148	0xbc98a5f6	-0.018633824
149	0x3b7014d4	0.0036633508
150	0x3de3748d	0.11106215
151	0xbe166c6b	-0.14689796
152	0xbb4c68f1	-0.003119048
153	0xbdd5514e	-0.10415898
154	0xbcc6cd99	-0.024267958
155	0x3cb3c030	0.021942228
156	0xbcfc74ce	-0.030817416
157	0xbd9b8a92	-0.075947896
158	0xbcc16a09	-0.023610132
159	0x3d0dc76b	0.034614008
160	0xbd68f4e4	-0.05687417
161	0xbda2bd37	-0.07946246
162	0x3e083096	0.13299784
163	0x3cd57dd6	0.02606098
164	0xbd5418b3	-0.051781368
165	0xbca65a7d	-0.02030682
166	0xbcb7f8bd	-0.022457475
167	0xbd88b402	-0.06674959
168	0xbbcf5d41	-0.0063282554
169	0xbcbf223b	-0.023331752
170	0xbdf8f05b	-0.12155219
171	0x3e1060a1	0.14099361
172	0xbcc8c522	-0.024508063
173	0xbdae9fb1	-0.085265525
174	0x3d6b9982	0.057519443
175	0x3d809f92	0.062804356
176	0xbe08ac61	-0.13347007
177	0xbdc08157	-0.093996696
178	0xbcbf36ac	-0.0233415
179	0x3ab8b301	0.0014091433
180	0xbd7beba5	-0.061504025
181	0x3cf30335	0.029664615
182	0xbda6d010	-0.081451535
183	0x3cc520cc	0.02406349
184	0xbdddca9d	-0.10829661
185	0xbce49ecc	-0.027907752
186	0x3da66816	0.081253216
187	0x3bc443d0	0.005989529
188	0x3be6e29d	0.0070460574
189	0x3c0aa6ea	0.008462647
190	0xbd820263	-0.063481115
191	0xbda0ab82	-0.078452125
192	0xbd923f2f	-0.071409576
193	0xbc90df3b	-0.01768457
194	0xbd8423c4	-0.06452134
195	0xbda578b7	-0.08079665
196	0xbe0fdb78	-0.14048564
197	0xbe06dda8	-0.13170493
198	0xbb8b3a0f	-0.0042488645
199	0xbd8fa5fd	-0.070140816
200	0x3db6d362	0.08927037
201	0xbdc9ab5a	-0.09847136
202	0xbd898b21	-0.0671599
203	0xbbf1ba6b	-0.007376959
204	0x3dec8db6	0.11550467
205	0xbd5aba90	-0.053400576
206	0xbd9aad78	-0.07552618
207	0xbd572498	-0.052525133
208	0xbdb7fbc8	-0.0898357
209	0xbd74387e	-0.059624188
210	0xbcde6eeb	-0.0271525
211	0x3c8f6995	0.0175064
212	0xbd8141e7	-0.06311398
213	0xbcc06407	-0.023485197
214	0xbd5e288a	-0.05423788
215	0xbd969a0f	-0.07353603
216	0xbcb52bf2	-0.022115681
217	0xbbdfb80f	-0.0068273614
218	0xbd85324f	-0.06503736
219	0xbdb41bf9	-0.08794398
220	0xbcf84829	-0.030307846
221	0xbd1b5f53	-0.037932705
222	0xbcd3755d	-0.0258128
223	0xbd7534a0	-0.05986464
224	0xbdd26ed8	-0.10275048
225	0xbdf79894	-0.12089649
226	0x3e186aca	0.14884487
227	0xbca6ce6c	-0.020362101
228	0xbe24412f	-0.1604049
229	0xbda95d31	-0.08269728
230	0x3b3177e3	0.0027079515
231	0xbe0ef67d	-0.13961215
232	0xbca86bdd	-0.020559246
233	0xbc8d306f	-0.017235009
234	0xbd93a6a3	-0.07209518
235	0xbdb17540	-0.08664942
236	0xbd4babbe	-0.049724333
237	0xbd8dbc10	-0.06920636
238	0xbdd1d5f3	-0.10245886
239	0xbd968131	-0.0734886
240	0xbda6ac02	-0.08138277
241	0x3c298d75	0.010348667
242	0x3cb677f8	0.022274002
243	0xbd9d672e	-0.076856956
244	0xbd2619f1	-0.040552083
245	0xbc8ccfdd	-0.01718896
246	0xbd77a794	-0.06046255
247	0xbdd3efaa	-0.10348447
248	0xbcc2f16f	-0.023796765
249	0xbda528d2	-0.080644265
250	0xbc2709b8	-0.010195188
251	0xbcdcace2	-0.026937906
252	0xbc9d2ebb	-0.019187322
253	0xbcbd94f5	-0.023142317
254	0xbd8dbdc0	-0.069209576
255	0x3c7a226a	0.015266994

conv2.0.bias f4 [64]
0	0xbe4d8d5e	-0.20073459
1	0x3dba49f5	0.090961374
2	0xbddfab6f	-0.1092137
3	0x3aa66c38	0.0012697047
4	0xbd859e88	-0.06524378
5	0xbe2a5bd9	-0.166366
6	0xbddd2433	-0.1079792
7	0xbe35e44f	-0.17762874
8	0xbeeba205	-0.4602205
9	0xbdaca2af	-0.08429467
10	0xbe0ca5e7	-0.13735162
11	0xbdc6b2a7	-0.09702044
12	0xbd064eb6	-0.03278991
13	0xbe0c074d	-0.1367466
14	0xbde4ba83	-0.11168387
15	0xbc8517f3	-0.016246771
16	0xbd8400f0	-0.06445491
17	0xbd902f8f	-0.07040321
18	0xbe172444	-0.14759928
19	0xbeac07e3	-0.33599767
20	0xbe6cd940	-0.2312975
21	0xbe07683b	-0.13223355
22	0xbe15fec7	-0.14647971
23	0xbd9fdf9f	-0.07806324
24	0xbe23ba63	-0.1598907
25	0xbd4e3186	-0.050340198
26	0xbea0ce0d	-0.31407204
27	0xbdcd9c9c	-0.100396365
28	0xbe0f1b7a	-0.13975325
29	0xbe40136b	-0.18757407
30	0xbe3e6ed4	-0.18596965
31	0xbd51440b	-0.05109028
32	0xbdfa3c1c	-0.12218496
33	0xbe922c29	-0.28549317
34	0xbdf5c1e4	-0.11999872
35	0xbc93c8b3	-0.018040037
36	0xbd26e4a8	-0.040745407
37	0xbde22c51	-0.11043609
38	0xbdf0e9f6	-0.117633745
39	0xbe5c09dd	-0.21488138
40	0xbd58016b	-0.052735727
41	0xbc9e524e	-0.019326355
42	0x3d8f45ef	0.06995761
43	0xbe5b024e	-0.21387598
44	0xbdfaa008	-0.12237555
45	0xbd60e31a	-0.05490408
46	0xbe49ead4	-0.19718486
47	0xbdc7c5c9	-0.097545214
48	0xbe082990	-0.13297105
49	0xbd49f9ca	-0.049310483
50	0xbd6fb2db	-0.05852018
51	0xbd962977	-0.073321275
52	0xbd66bcda	-0.056332447
53	0x3c31257a	0.010812158
54	0xbe04e50c	-0.12978
55	0xbd2e8536	-0.04260751
56	0xbd26030a	-0.040530242
57	0xbd8eb48a	-0.06968029
58	0xbd34f9f3	-0.044183683
59	0xbe660527	-0.22462903
60	0xbd850400	-0.064949036
61	0xbe1ca6b3	-0.15297966
62	0xbe14c1e9	-0.14527096
63	0xbcf4adbc	-0.029868

fnn.weight f4 [10, 3136]
0	0xbd3104f8	-0.04321763
1	0x3c5e61b0	0.013573095
2	0x3d00f46c	0.0314831
3	0xbc96783a	-0.018367875
4	0x3d8dc5da	0.06922503
5	0x3b72df36	0.0037059314
6	0x3cfcbe12	0.030852351
7	0x3bee19b1	0.0072662462
8	0xbd9907e0	-0.07472205
9	0x3e0f29df	0.13980816
10	0xbd24c72d	-0.04022901
11	0x3dcb9449	0.099403925
12	0xbd367e06	-0.04455378
13	0xbd322f73	-0.043502282
14	0xbd397cdc	-0.04528509
15	0x3ccd633a	0.025071729
16	0xbcd0bf1c	-0.025481753
17	0xbcfbf20f	-0.030755071
18	0x3e0ad851	0.1355908
19	0x3caeec22	0.021352831
20	0x3d74d3c5	0.05977227
21	0x3cdec0b3	0.027191496
22	0xbc3e34cc	-0.011609267
23	0xbddcaf3b	-0.1077561
24	0xbcd4e67f	-0.025988815
25	0x3b88c2f1	0.0041736295
26	0xbcd41881	-0.02589059
27	0x3caf8e89	0.02143027
28	0xbb4aeeed	-0.0030965165
29	0xbc7f8766	-0.015596246
30	0xbe444bcd	-0.1916954
31	0x3cef6d0d	0.029226804
32	0xbacdf0a2	-0.0015711973
33	0x3ccc9824	0.02497489
34	0x3bf0fd35	0.0073544034
35	0xbbdf4e49	-0.0068147522
36	0xbc95fb38	-0.018308267
37	0x3d1e974a	0.0387185
38	0xbcaf782c	-0.021419607
39	0x3c8721b7	0.016495569
40	0x3d20546c	0.03914301
41	0x3d35cda5	0.04438557
42	0x3ce492a6	0.027901959
43	0x3cead711	0.028667005
44	0xbcf536a1	-0.029933276
45	0xbd4eb9c3	-0.050470125
46	0xbd08fd13	-0.033444475
47	0xbaa19d0f	-0.0012330132
48	0xbcd324b4	-0.025774337
49	0xbc382be4	-0.011240933
50	0x3c11ef68	0.008907177
51	0x3d210095	0.039307196
52	0x3ae5069e	0.0017473286
53	0xbdc24296	-0.094853565
54	0xbd53fb17	-0.05175313
55	0x3ccd3b7c	0.025052778
56	0xbd1c1483	-0.0381055
57	0xbc92d972	-0.017925952
58	0xbb933cad	-0.004493317
59	0xbd15930a	-0.03651718
60	0x3d8ce045	0.068787135
61	0x3ba2488e	0.004952497
62	0xbb87dad8	-0.0041459613
63	0x3a925b5f	0.0011166147
64	0x3db686e9	0.08912451
65	0xbc96e711	-0.018420728
66	0xbe105c0a	-0.1409761
67	0x3c9c2a2f	0.019063083
68	0xbda0e82d	-0.07856784
69	0x3d211ebd	0.039335955
70	0x3d643d6a	0.05572263
71	0x3c93aed0	0.018027693
72	0xbd80d9d7	-0.0629155
73	0xbe1d482f	-0.15359567
74	0x3e1d729e	0.15375754
75	0xbc0d3437	-0.008618406
76	0x3d009f41	0.031401876
77	0x3dba4968	0.090960324
78	0xbdf9ef30	-0.122038245
79	0xbd201a04	-0.03908731
80	0xbe11c0ed	-0.14233752
81	0x3bf4cd29	0.007470746
82	0x3c959daa	0.018263657
83	0x3d13c1ce	0.0360735
84	0x3d8faed3	0.07015767
85	0xbd09e903	-0.033669483
86	0xbc9f0ff2	-0.019416783
87	0x3d8d80f1	0.06909359
88	0xbadc5add	-0.0016811747
89	0xbd289077	-0.041153397
90	0xbd1e2286	-0.038607143
91	0x3ce832a8	0.028344467
92	0xbc92403a	-0.017852891
93	0x3ba797b9	0.0051145223
94	0x3ca8d111	0.020607503
95	0xbcb97ff2	-0.022644017
96	0x3ccf1c52	0.025282059
97	0x3bfa588b	0.0076399497
98	0xbd321288	-0.043474704
99	0xbb6f84e4	-0.0036547715
100	0x3d4dbc2d	0.050228287
101	0x3c2e591f	0.010641365
102	0x3e807738	0.25090957
103	0xbd8bcd01	-0.06826211
104	0xbcd6832a	-0.02618559
105	0x3b63143d	0.0034649514
106	0x3c0bd2cf	0.008534147
107	0x3d8a77b7	0.06761115
108	0x3cd1cfa2	0.025611702
109	0x3dbc35c2	0.09189941
110	0x3d7042d0	0.058657467
111	0x3d741ae5	0.05959596
112	0xbd517a05	-0.051141758
113	0x3cc03ff7	0.023468
114	0xbd76de26	-0.06027045
115	0x3bbf6266	0.0058405874
116	0xbda00ce7	-0.07814961
117	0x3de1b2ae	0.110204086
118	0xbdb01692	-0.08598055
119	0x3cfac27f	0.030610321
120	0x3d2fd105	0.042923946
121	0x3d09388d	0.033501197
122	0x3d1e2c10	0.03861624
123	0xbdeba615	-0.11506287
124	0xbe5dddbe	-0.21666619
125	0xbdd799b4	-0.105273634
126	0xbd159720	-0.036521077
127	0xbd683565	-0.056691546
128	0x3e1ae2de	0.15125605
129	0x3d9036dc	0.070417136
130	0xbd8063aa	-0.062690094
131	0x3d7efdf9	0.062253926
132	0xbdbe639e	-0.09296344
133	0xbcb843f5	-0.022493342
134	0x3c97ac9a	0.01851492
135	0xbc06ff1b	-0.008239533
136	0x3d017a5a	0.031610824
137	0xbce3c900	-0.027805805
138	0x3cabac35	0.020956138
139	0xbcb360f2	-0.021896813
140	0xbcc98229	-0.024598198
141	0xbd792f4c	-0.06083612
142	0x3dca0c0d	0.0986558
143	0xbdb37031	-0.08761633
144	0x3d725db3	0.05917139
145	0x3b186be5	0.002325767
146	0xbe08706d	-0.13324137
147	0x3cb3f7b9	0.02196871
148	0xbb9ec1c6	-0.004844877
149	0xbd944bf6	-0.07241051
150	0xbcfd3b44	-0.03091205
151	0x3d205f98	0.039153665
152	0xbda69f6a	-0.081358746
153	0xbc24eca9	-0.01006619
154	0xbe112e7a	-0.14177886
155	0x3c10ec7d	0.008845446
156	0x3dfc2cf8	0.123132646
157	0xbc1a2c7b	-0.009410019
158	0xbd4541c7	-0.048158433
159	0x3dff4884	0.12465003
160	0x3ca8115c	0.02051609
161	0x3d01a788	0.03165391
162	0xbd5fc28b	-0.05462889
163	0x3d5d6a80	0.054056644
164	0x3de437c2	0.111434475
165	0x3df5fe07	0.120113425
166	0x3e531b6b	0.20615928
167	0xbce5d9da	-0.028057981
168	0x3d03c297	0.032167997
169	0x3dd56004	0.10418704
170	0x3d0f963d	0.035055388
171	0xbdb5e89c	-0.08882257
172	0xbdd837a9	-0.10557491
173	0xbd040cc8	-0.03223875
174	0xbde9e257	-0.11420124
175	0x3ceec8c2	0.029148463
176	0x3ce2a50c	0.027666591
177	0x3c8f1e86	0.01747061
178	0xbe2bf5ac	-0.16792935
179	0xbe034266	-0.12818298
180	0xbd097abd	-0.033564318
181	0xbde123f1	-0.109931834
182	0x3e2d72fa	0.16938391
183	0x3cce2844	0.025165685
184	0x3d4ffce1	0.050778273
185	0xbbc83bde	-0.0061106523
186	0xbe872be4	-0.26400673
187	0xbe1cfc22	-0.15330556
188	0x3c14196a	0.009039262
189	0xbd8c94a8	-0.068642914
190	0xbd96ea90	-0.07368958
191	0xbc938f1b	-0.018012574
192	0xbcaa5f0e	-0.020797279
193	0xbd6411c4	-0.055681005
194	0x3d562bcf	0.052287873
195	0x3c261f27	0.010139263
196	0xbc1ef975	-0.00970303
197	0x3c87138e	0.016488817
198	0x3adf3958	0.001703064
199	0x3d032433	0.032016944
200	0x3bc80181	0.006103695
201	0xbcad3753	-0.021144545
202	0x3bdad029	0.0066776467
203	0x3e1f2519	0.15541495
204	0x3d8bdda3	0.06829383
205	0xbbce742d	-0.0063004703
206	0x3d2b40cb	0.04180984
207	0xbc1e2737	-0.009652904
208	0xbbd44aaf	-0.0064786295
209	0x3d8fcb79	0.07021231
210	0xbdb96082	-0.090516105
211	0x3d2e899e	0.04261171
212	0x3c1ee56b	0.009698252
213	0x3d595563	0.053059947
214	0x3cf36cc2	0.029714946
215	0x39a9d789	0.00032394778
216	0xbdea7a60	-0.114491224
217	0x3c8cabc1	0.017171742
218	0x3d9e78bf	0.07737874
219	0x3b63b46e	0.0034744996
220	0x3e150637	0.14553152
221	0xbd554600	-0.05206871
222	0xbd3ce78c	-0.046119258
223	0xbc6e1f58	-0.01453384
224	0xbd61c300	-0.055117607
225	0xbdd9cb0f	-0.106344335
226	0x3d72a0e8	0.059235483
227	0x3c1484a9	0.009064832
228	0xbcb69c5c	-0.022291355
229	0xbcc23a06	-0.023709308
230	0x3d0858b1	0.033287708
231	0x3bd5839b	0.0065159327
232	0xbcc749fd	-0.024327273
233	0xbd289b84	-0.041163936
234	0xbd351630	-0.044210613
235	0x3dcb761d	0.09934638
236	0xbcf3ef93	-0.029777324
237	0x3d819d86	0.06328873
238	0x3e205e1e	0.15660903
239	0xbb0a6690	-0.002111826
240	0xbc569752	-0.013097601
241	0xbdcc20c4	-0.09967187
242	0x3e037c28	0.1284033
243	0xbcbb21c7	-0.022843255
244	0x3d39fe1c	0.045408353
245	0xbbbbce1e	-0.005731358
246	0xbd293a41	-0.04131532
247	0x3b06fbaf	0.0020596792
248	0xbca555dd	-0.020182544
249	0xbcbaa2d5	-0.022782722
250	0xbd211d7a	-0.03933475
251	0x3ccab0d4	0.024742521
252	0x3d758793	0.059943747
253	0x3cc4fb1c	0.02404552
254	0x3db4bf58	0.088255584
255	0xbd8948ce	-0.067033395

fnn.bias f4 [10]
0	0x3d390b43	0.045176756
1	0x3defff03	0.117185615
2	0x3d36826e	0.04455798
3	0x3d0104fe	0.0314989
4	0xbdec447c	-0.115365
5	0xbd1429d9	-0.03617272
6	0xbb90b897	-0.004416536
7	0x3cb18804	0.021671303
8	0xbc828508	-0.015932575
9	0x3c91f680	0.017817736
