ann/xor/output/epoch_100.pt (torch, 1759 bytes, 3 tensors)

linear1.weight f4 [10, 2]
0	0x3f2591c2	0.64675534
1	0xbe2192ae	-0.1577861
2	0x3e629d45	0.22130306
3	0x3f336c47	0.70087093
4	0x3e26c6ea	0.16286817
5	0xbea1fae6	-0.31636733
6	0xbe5c67fa	-0.21524039
7	0xbf0a4a1a	-0.5401932
8	0x3e7cdbe5	0.24693258
9	0x3e8dbba6	0.27682227
10	0x3c91293e	0.017719861
11	0x3e848903	0.25885782
12	0x3ecea3ef	0.40359446
13	0xbe691953	-0.22763567
14	0x3e5f654f	0.2181599
15	0xbf0a5f40	-0.5405159
16	0xbd255659	-0.04036555
17	0xbe58d56c	-0.21175164
18	0xbca8c2b5	-0.020600656
19	0x3e791777	0.24325357

linear1.bias f4 [10]
0	0xbf2dfed2	-0.6796695
1	0x3f18df0b	0.59715337
2	0x3eb7549d	0.35806742
3	0xbea05495	-0.3131453
4	0xbe2a8a48	-0.16654313
5	0x3dcb3541	0.09922267
6	0x3d95f13b	0.07321402
7	0x3e1bdf69	0.15221943
8	0xbe9fe0df	-0.3122625
9	0x3e1fbb90	0.15598893

linear2.weight f4 [1, 10]
0	0x3e00d3f3	0.12580852
1	0x3e3a8d3c	0.18217939
2	0xbea4b436	-0.3216874
3	0xbdef6d1b	-0.11690732
4	0xbdf1dc1a	-0.11809559
5	0xbe6c02e6	-0.2304798
6	0x3dd57838	0.104233205
7	0x3dcefb33	0.10106506
8	0x3e5f2540	0.21791553
9	0xba2afb30	-0.0006522415
