ann/xor/output/epoch_500.pt (torch, 1759 bytes, 3 tensors)

linear1.weight f4 [10, 2]
000000 b7 99 46 3f 9d 52 c7 bf 5b 19 87 40 6b 46 86 40
       0.775783 -1.5572087 4.221845 4.196096
000010 3e 59 0c 40 d2 f3 61 bf 02 6b 96 bf 4a 69 9c bf
       2.192947 -0.88262665 -1.1751406 -1.2219632
000020 0d 67 4c 3f 76 e4 71 3f d6 d6 aa 3e ef 4b 88 3f
       0.79844743 0.9448923 0.33367032 1.0648173
000030 25 4f 5d 3f be 8d e6 3d 6f ed a7 bd af 37 84 bf
       0.8644889 0.11257504 -0.08199584 -1.0329493
000040 59 fe 60 be 76 fc 10 bf 86 e0 96 3e 1c 83 4a 3f
       -0.21972026 -0.56635225 0.29468173 0.7910631

linear1.bias f4 [10]
000000 a4 0b 57 bf 2a a0 8c bf 2b 90 09 3f 40 27 42 bf
       -0.8400214 -1.0986378 0.5373561 -0.7584114
000010 0c 4e 52 bf d7 8b 8e be 6f 98 fd 3c 4f ae 0f 3e
       -0.8215034 -0.27841064 0.030956475 0.14031337
000020 1f 90 7e be a6 7a b1 bb
       -0.24859665 -0.005416232

linear2.weight f4 [1, 10]
000000 29 26 a3 3f fa 5b 9f 40 60 8e 07 c0 bb 06 04 bf
       1.274602 4.9799776 -2.1180649 -0.5157277
000010 b1 73 d6 bf b5 d8 bc bf 75 24 51 bf 91 f8 5b 3f
       -1.6754056 -1.4753634 -0.81696254 0.8592616
000020 63 c1 1e 3f ba 96 80 bf
       0.62013835 -1.0045998
