ann/xor/output/epoch_400.pt (torch, 1759 bytes, 3 tensors)

linear1.weight f4 [10, 2]
0.61347854 -0.7080632 2.4294927 2.459897 0.8949788 -0.3294849 -0.86146194 -0.96453637
0.3900772 0.43641958 0.12798324 0.5113363 0.47675592 -0.15898822 0.13430817 -0.6531739
-0.062093392 -0.3165653 0.059371807 0.37159076
00000000: ee0c 1d3f a143 35bf cf7c 1b40 f46e 1d40
00000010: 551d 653f 3fb2 a8be c588 5cbf dbeb 76bf
00000020: 33b8 c73e 6372 df3e 0a0e 033e f0e6 023f
00000030: 5a19 f43e cfcd 22be 1588 093e 6836 27bf
00000040: a455 7ebd d914 a2be da2f 733d 2541 be3e

linear1.bias f4 [10]
-0.8472853 -0.06277406 0.5788806 -0.535471 -0.2400651 0.10206761 0.08558318 0.08974405
-0.3185052 0.1664283
00000000: b0e7 58bf b08f 80bd 8531 143f a114 09bf
00000010: a0d3 75be d308 d13d 3c46 af3d bacb b73d
00000020: 1d13 a3be 2e6c 2a3e

linear2.weight f4 [1, 10]
0.4204315 2.462609 -0.94106936 -0.60797065 -0.66462135 -0.6944184 -0.28999057 0.19704604
0.2168488 -0.40833217
00000000: cc42 d73e 639b 1d40 ece9 70bf f7a3 1bbf
00000010: a024 2abf 67c5 31bf a579 94be 70c6 493e
00000020: 9d0d 5e3e ea10 d1be
