ann/xor/output/epoch_600.pt (torch, 1759 bytes, 3 tensors)

linear1.weight f4 [10, 2]
000000 da e8 bd 3f 3c 20 28 c0 3f f8 a7 40 a0 ca a6 40
       1.4836686 -2.6269674 5.2490535 5.2122345
000010 9a 09 67 40 54 fc 01 c0 a4 77 a9 bf ef 1a ad bf
       3.609961 -2.031026 -1.3239636 -1.3523844
000020 3e b4 a1 3f a4 b7 ba 3f 2e e5 da 3e 4e 6a bd 3f
       1.263313 1.4587293 0.42752975 1.4798067
000030 45 ee 91 3f 90 d9 40 3e 56 7b ed bd aa 0b b5 bf
       1.1400839 0.18832994 -0.1159579 -1.4144185
000040 3d 54 8f be 69 6c 47 bf c2 2d ab 3e 98 01 8c 3f
       -0.27993956 -0.77899796 0.33433348 1.0937986

linear1.bias f4 [10]
000000 8b c5 5a bf f3 e8 e5 bf e2 4e 66 3f cb d2 51 bf
       -0.85457677 -1.7961715 0.89964116 -0.8196227
000010 12 85 f2 bf 8f d2 5e bf 5b e2 2b be 07 7a b5 3e
       -1.894686 -0.87040037 -0.16785567 0.35444662
000020 da e5 c3 bd d4 9f ac be
       -0.09565325 -0.3371569

linear2.weight f4 [1, 10]
000000 da 79 1e 40 f0 ca e1 40 3b 09 72 c0 92 11 12 bf
       2.4761872 7.0560226 -3.7818134 -0.5705806
000010 fd 3c 31 c0 e8 5d 0b c0 d7 b0 a2 bf 53 19 ba 3f
       -2.7693474 -2.1776066 -1.2710217 1.4538978
000020 ed 5f 79 3f 40 47 c1 bf
       0.97411996 -1.5099869
