ann/xor/output/epoch_900.pt (torch, 1759 bytes, 3 tensors)

linear1.weight f4 [10, 2]
0	0x40255ee4	2.5839167
1	0xc0753188	-3.8311481
2	0x40c215a3	6.065141
3	0x40c0a76f	6.0204387
4	0x409ac0e5	4.8360467
5	0xc05abfe6	-3.4179626
6	0xbfbc3621	-1.4704019
7	0xbfbe01e7	-1.484433
8	0x4002d02b	2.0439556
9	0x400c3934	2.1909914
10	0x3f3af51f	0.73030275
11	0x3fdeb92e	1.7400262
12	0x3fa9e261	1.327221
13	0x3e236b9b	0.15959017
14	0xbc972d15	-0.018454114
15	0xbfde944d	-1.7389008
16	0xbe6e0069	-0.23242344
17	0xbf6e66e7	-0.93125767
18	0x3ea5e7c3	0.32403383
19	0x3fa9e6ea	1.3273594

linear1.bias f4 [10]
0	0xbfa202f4	-1.2657151
1	0xc01501fc	-2.328246
2	0x3fd1253e	1.633949
3	0xbf4d206f	-0.80127615
4	0xc04e8d3f	-3.227371
5	0xbfcd3f25	-1.6034895
6	0xbeb95b7d	-0.36202613
7	0x3f073810	0.5281992
8	0x3d7227a8	0.05911985
9	0xbf2caf00	-0.6745453

linear2.weight f4 [1, 10]
0	0x40851717	4.1590686
1	0x41131e72	9.194933
2	0xc0be54a7	-5.9478335
3	0xbf47518b	-0.778588
4	0xc084daaa	-4.1516924
5	0xc0349d17	-2.822088
6	0xbfcd20b2	-1.6025603
7	0x3ff0b165	1.8804137
8	0x3f9a48db	1.2053484
9	0xbff55bad	-1.9168602
