ann/xor/output/epoch_0.pt (torch, 1759 bytes, 3 tensors)

linear1.weight f4 [10, 2]
00000000: b616 263f 96a5 e1bd 2759 093e 0ce9 2c3f
00000010: c29d d83d bede 9bbe eaa7 3abe 754f 06bf
00000020: cb3c 823e f488 943e 2d7c 053d fb37 883e
00000030: 9783 d93e f98a 70be 8498 6e3e 0c57 08bf
00000040: cea4 86bd 9141 66be a89c a9bc e315 793e
0.64878404 -0.11017911 0.13412915 0.675431 0.10576965 -0.30443376 -0.18228117 -0.5246499
0.25437006 0.29010737 0.032589126 0.2660521 0.42483208 -0.23490514 0.23300368 -0.53257823
-0.06574403 -0.22485949 -0.020704582 0.24324755

linear1.bias f4 [10]
00000000: 6d8f 2abf 728d 173f a045 ad3e 0aff 9cbe
00000010: ca30 1ebe faae cc3d 7596 bc3d fc74 313e
00000020: 59ca a0be d4c9 1f3e
-0.666251 0.59200203 0.33842182 -0.3066333 -0.15448299 0.09994312 0.09208385 0.17329782
-0.3140438 0.15604335

linear2.weight f4 [1, 10]
00000000: a8d8 dd3d fae4 833d 55d6 8fbe e8be 58bc
00000010: 55fa e9bd dc25 65be 4c2b 253e fb67 083e
00000020: c34c 733e e882 1c3c
0.108323395 0.06440158 -0.2809321 -0.013229109 -0.114247 -0.22377723 0.16129798 0.13320915
0.23759751 0.009552695
