ann/xor/output/epoch_1000.pt (torch, 1759 bytes, 3 tensors)

linear1.weight f4 [10, 2]
00000000: 6839 3040 9980 7fc0 ab58 c540 1cda c340
00000010: ea7a 9f40 7f88 66c0 a617 bfbf bd96 c0bf
00000020: 8bb9 0a40 87db 1340 c773 4c3f 4d51 e23f
00000030: 9470 ac3f cfc8 1d3e 2de0 d83a b338 e4bf
00000040: d638 61be fc59 73bf 3227 a63e ba91 ad3f
2.7535038 -3.992224 6.1670737 6.1203747 4.983754 -3.602081 -1.4929092 -1.5046002
2.1675746 2.310274 0.7986416 1.7681061 1.3471856 0.15408634 0.0016546302 -1.7829803
-0.21994337 -0.9505918 0.3245178 1.3560097

linear1.bias f4 [10]
00000000: 6a45 acbf be1b 19c0 2e54 de3f 4deb 4abf
00000010: a320 5bc0 50d8 dcbf 2402 c5be 0da9 0a3f
00000020: 1201 a03d f04a 38bf
-1.3458683 -2.3923182 1.736944 -0.7926529 -3.423867 -1.7253513 -0.38478196 0.541642
0.07812704 -0.71989346

linear2.weight f4 [1, 10]
00000000: 1ece 8d40 6af3 1741 b294 c8c0 4704 51bf
00000010: e7f4 8bc0 e48a 3ac0 b6b9 d1bf 0925 f73f
00000020: 6093 9d3f ffb8 fbbf
4.431411 9.496927 -6.2681513 -0.8164715 -4.3736453 -2.9147272 -1.63848 1.9308177
1.23106 -1.9665831
