ann/xor/output/epoch_200.pt (torch, 1759 bytes, 3 tensors)

linear1.weight f4 [10, 2]
0.64468455 -0.2363041 0.45142308 0.8013132 0.24869545 -0.31900522 -0.30663443 -0.5847593
0.24302411 0.27148402 0.008051169 0.26720062 0.3896512 -0.22880125 0.2058502 -0.5540118
-0.022252705 -0.21503165 -0.020973118 0.2440337
00000000: 0c0a 253f b4f9 71be ed20 e73e dd22 4d3f
00000010: 05aa 7e3e a754 a3be 30ff 9cbe c9b2 15bf
00000020: 50db 783e f4ff 8a3e 0de9 033c 85ce 883e
00000030: 5d80 c73e e04a 6abe 65ca 523e b8d3 0dbf
00000040: 4e4b b6bc 4231 5cbe d1cf abbc f8e3 793e

linear1.bias f4 [10]
-0.70382005 0.61676687 0.39174452 -0.3348381 -0.17886765 0.099779144 0.061783012 0.13411047
-0.31174138 0.15617724
00000000: 8d2d 34bf 6fe4 1d3f bd92 c83e e66f abbe
00000010: 1529 37be 0259 cc3d 2f10 7d3d 4154 093e
00000020: 919c 9fbe edec 1f3e

linear2.weight f4 [1, 10]
0.16926238 0.39470446 -0.3702091 -0.23035929 -0.14965016 -0.25822806 0.053351756 0.09851704
0.20998609 -0.029405769
00000000: 1e53 2d3e b416 ca3e 0c8c bdbe 4ee3 6bbe
00000010: e43d 19be 7836 84be 5f87 5a3d 4dc3 c93d
00000020: 9806 573e 5ee4 f0bc
