ann/xor/output/epoch_700.pt (torch, 1759 bytes, 3 tensors)

linear1.weight f4 [10, 2]
00000000: 0f48 0140 ac50 50c0 d625 b640 c8e2 b440
00000010: 8209 8940 454f 30c0 1dd9 b2bf f994 b5bf
00000020: 4991 d13f b536 e73f 65b5 0b3f 9fec d03f
00000030: e78d 9f3f 2fad 353e 6beb 9abd b0ed cabf
00000040: fdfa 87be 3b9b 5cbf 54b6 a73e 143b 9c3f
2.020023 -3.2549238 5.6921186 5.6526833 4.2824106 -2.7548382 -1.3972508 -1.4186088
1.6372463 1.806357 0.5457366 1.6322211 1.246518 0.17741846 -0.07564434 -1.5853786
-0.26558676 -0.8617436 0.32756293 1.2205529

linear1.bias f4 [10]
00000000: 3b16 83bf cbc8 05c0 2282 a23f 3cac 51bf
00000010: ef12 24c0 e45d 9cbf f565 8cbe 22d1 ea3e
00000020: d6ac 4dbc 3ab1 03bf
-1.0241159 -2.0903804 1.2695963 -0.81903434 -2.5636556 -1.2216153 -0.27421537 0.4586268
-0.012553414 -0.514423

linear2.weight f4 [1, 10]
00000000: b23a 5240 4989 0241 0eb7 9bc0 4003 2abf
00000010: 3723 5cc0 4ec6 20c0 17cb babf e754 d83f
00000020: 6270 8d3f 72bc ddbf
3.2848325 8.158517 -4.8660955 -0.6641121 -3.4396493 -2.5121036 -1.4593228 1.690091
1.1049922 -1.7323134
