ann/xor/output/epoch_800.pt (torch, 1759 bytes, 3 tensors)

linear1.weight f4 [10, 2]
2.3549943 -3.6055024 5.921134 5.878852 4.6245284 -3.1590252 -1.4405882 -1.4576592
1.8779039 2.032463 0.6475493 1.7000722 1.2973269 0.16698538 -0.04333022 -1.6782798
-0.24754083 -0.9042278 0.3246006 1.286308
00000000: 3ab8 1640 8dc0 66c0 ee79 bd40 8e1f bc40
00000010: 23fc 9340 782d 4ac0 3265 b8bf 9494 babf
00000020: 285f f03f e013 0240 cac5 253f f79b d93f
00000030: cf0e a63f 37fe 2a3e 077b 31bd dfd1 d6bf
00000040: 587b 7dbe 797b 67bf 0d32 a63e bea5 a43f

linear1.bias f4 [10]
-1.1623012 -2.2371604 1.4901371 -0.81045485 -2.9605076 -1.4446152 -0.3287988 0.5045552
0.031655364 -0.6116523
00000000: 49c6 94bf a32d 0fc0 d0bc be3f f879 4fbf
00000010: f578 3dc0 27e9 b8bf 5158 a8be 882a 013f
00000020: 0ea9 013d 3f95 1cbf

linear2.weight f4 [1, 10]
3.7990324 8.782378 -5.5128984 -0.7301225 -3.8586478 -2.6977859 -1.5492873 1.8079425
1.1677139 -1.8459969
00000000: 5923 7340 9f84 0c41 aa69 b0c0 4fe9 3abf
00000010: 16f4 76c0 86a8 2cc0 0c4f c6bf a96a e73f
00000020: a677 953f a049 ecbf
