ann/xor/output/epoch_300.pt (torch, 1759 bytes, 3 tensors)

linear1.weight f4 [10, 2]
0	0x3f237994	0.6385739
1	0xbec32db9	-0.3812082
2	0x3f84ef54	1.0385537
3	0x3f9aa4ef	1.2081584
4	0x3ed46a52	0.41487366
5	0xbea0b92f	-0.31391284
6	0xbf001d29	-0.50044495
7	0xbf33230f	-0.6997537
8	0x3e82c0b4	0.25537646
9	0x3e922d29	0.2855008
10	0x3c90af8c	0.017661832
11	0x3e9e2517	0.30887672
12	0x3ec6737c	0.38759983
13	0xbe6aa828	-0.22915709
14	0x3e409ef2	0.18810633
15	0xbf1432d0	-0.57890034
16	0xbca0a446	-0.019609582
17	0xbe7569ea	-0.23966184
18	0xbc8ce161	-0.017197313
19	0x3e82db35	0.25557867

linear1.bias f4 [10]
0	0xbf40d46e	-0.7532414
1	0x3f1aeea6	0.605204
2	0x3eea42fc	0.4575423
3	0xbec8338e	-0.39101833
4	0xbe46b729	-0.19405808
5	0x3dd7da39	0.105396695
6	0x3d75d5f7	0.060018506
7	0x3dea8d66	0.11452751
8	0xbea11622	-0.31462198
9	0x3e2238f7	0.15842043

linear2.weight f4 [1, 10]
0	0x3e7178d7	0.23581253
1	0x3f6dabe4	0.9284041
2	0xbf000b01	-0.5001679
3	0xbecfd3e4	-0.40591347
4	0xbe8906fa	-0.26763135
5	0xbeb77fc9	-0.3583968
6	0xbd3242f9	-0.0435209
7	0x3dd683e4	0.10474375
8	0x3e4793f5	0.19490035
9	0xbdfe9d0b	-0.12432297
